model/walker (copy).pt (torch_old, 223324 bytes, 36 tensors)

logstd f4 [4]
00000000: 7161 bcbe e581 8abe 7716 75be da4c 0cbf
-0.36793092 -0.27052227 -0.23934351 -0.54804766

critic.0.weight f4 [72, 24]
00000000: 17f0 dbbd b1ec f3bd 5048 433e 3c23 f43d
00000010: 958a 153e e751 88bd 1ced c83d e422 49bc
00000020: 98f2 083e a9b3 20be 85fa 273e d48c 2cbe
00000030: 520d a13d c19f 11be b5a8 cb3d 4784 5c3c
00000040: 3fcf 113d 63c1 6c3e 8598 673e 8b8b 5a3e
00000050: 6ae8 e03d eea4 e43d b603 bebd ae1c 893d
00000060: c194 03be 5b7e 05be 7222 8b3c 0d74 4dbb
00000070: da4b f43d bea1 86bc c039 20be 8a28 acbd
00000080: df5d d53d 10ce 29bd 1d56 c1bd 4d2f 223d
00000090: 9bd4 a83d 745c 1a3e 04d1 33bd 7123 173e
000000a0: 0c61 373e 3a96 04be ee9e 33bd b17f 5f3c
000000b0: dea5 00bc e319 1a3e 8c60 93bd 56c8 5cbd
000000c0: 2206 383e 0680 6b3e 0e61 63be 8735 f8bd
000000d0: 3597 bc3d b9a2 8e3c 4974 04bc 43aa 9b3d
000000e0: 1dd9 883d a8ee 583e 71e1 42bc d5f8 b5bc
000000f0: 6bf3 c03c 1f52 fb3c 7d50 83be aa05 2f3d
00000100: fed3 6bbe 3b63 56be d12e 71be 98b9 0dbe
00000110: 77ca b6bd eb71 7abe 8eaa c63d 1b7f 213e
00000120: d41b 543e 158e b53e d052 5ebe a14e 833e
00000130: 7370 023e 5f9c 653c b2d0 fc3d 9209 f23d
00000140: 997f 63be 57af 163e 4974 04be 57d7 fbbd
00000150: 58e5 68bd adb3 bdbd dc87 0c3e 5564 9a3d
00000160: 4317 393e 8398 a1bc 8739 35bd c118 273e
00000170: 6333 40be 1cea d7bd 40e1 1e3e 3155 af3d
00000180: 8df2 0abe 14cf c2bd f4a7 38bd da4b 563e
00000190: 10fc edbd 85f7 e1bd 061c a6bd e1a2 2fbd
000001a0: eade 0bbe 8c2c 7abd b73c 23bd 591e c8bd
000001b0: 69cc 4bbc 572c 3cbd 7a3f d63d bc74 3c3e
000001c0: 63c9 dbbd 6953 0b3e 044a e4bd ad21 423e
000001d0: dbcd 133e a69d a63d 77e9 e2bd c2ba cb3c
000001e0: 809b ba3e 535a a73e 3706 273d 88b8 ff39
000001f0: e254 4b3e 0213 0abe a125 033e 9e58 35be
00000200: 4b49 00be 1f87 423e 7a42 b43d 00d5 103e
00000210: 884d d5bd 03cf d8bc 342c b1bd ce37 b23d
00000220: 7edb 303c 00dc 2a3d 1562 913d 908f a43d
00000230: 647c 153e 729e 14be 2949 89bd acc6 0f3e
00000240: 9545 2e3e ae09 593d 70d8 85be b9f6 e9bc
00000250: ada4 aa3d 66f2 b13d f156 b8bd 0599 1a3e
00000260: ddc0 963c f6a3 823e 4d4b 063e fd42 4c3e
00000270: b1b4 45bc a128 d6bd de72 b93d 886b 76be
00000280: 3ea5 4cbe f83e cf3d 0db8 4dbd b9aa c4bd
00000290: c8cd 913c 1d0b ce3c 634d fabd 68e6 103e
000002a0: d5a7 95bd bbd5 07be 8fb0 833e f2c0 c7be
000002b0: 035a d0bd 693a 933d 4363 67be 1271 dfbd
000002c0: 5478 f0bb 0499 2c3e 23d4 993c 9718 043e
000002d0: 886d a0bd 2937 60bd e1d7 68be 4525 6b3d
000002e0: 498a 66be 4ccf d7bd 8506 40be f0ae 82be
000002f0: 065e 4bbe 05ae 62be 3c6b 2abe 214f 2bbc
00000300: 3ed1 19be 1801 0e3e 887a 7b3d 7c53 f83d
00000310: a8aa d3bd 1b41 173d e1bf f23c d048 0dbe
00000320: 228b 29bd 2c93 07be 82ee 053c 3c1b aebb
00000330: 8bac 27be 2621 babc 046a b23d 0ba5 3ebd
00000340: 6fba 873d d5dd 853d 0950 0abe 7e11 f13d
00000350: b57b c1bc d5a1 fabd b2e0 c73d a99a 9d3d
00000360: fc64 b4be 73d8 debe 4ce9 cbbd b8b1 893e
00000370: a665 56bd cb29 20bd 07e4 cd3c 97bb a6bc
00000380: 3318 01bd ca4e 7a3e b707 083e cf6e 5d3d
00000390: 591e c53d a32d 9b3d 95a8 8bbd c8fe 08be
000003a0: 6800 4bbd 4fda b13d b4dd 093e 32b3 e63d
000003b0: 89fa 66be 7ce8 11be 946d 50be 1eb3 5dbb
000003c0: d7d7 643e e804 5e3e 7896 a6be a98c 60bd
000003d0: b343 22be c57d 34bd 0830 3cbe 6e72 18be
000003e0: f9d4 6ebd bea0 f13d 4a16 5cbe de87 693e
000003f0: 20d5 a4bd 4410 863d e057 6bbe a219 c83d
-0.10739153 -0.1191038 0.19070554 0.11920783 0.14603646 -0.06656247 0.0981085 -0.012276385
0.13373792 -0.15693535 0.1640416 -0.16850597 0.07863869 -0.14221098 0.09944288 0.013459272
0.035598036 0.23120646 0.22616775 0.21342294 0.109818295 0.1116427 -0.092780516 0.06694923
-0.12849714 -0.13036482 0.016984198 -0.003134969 0.1192853 -0.016434547 -0.1564703 -0.0840617
0.10418295 -0.041456282 -0.09440253 0.03959589 0.08243676 0.1507433 -0.043900505 0.14759614
0.17908114 -0.12947932 -0.04385274 0.013641284 -0.007852046 0.15048937 -0.07196149 -0.053901993
0.1797109 0.22998056 -0.22204992 -0.121195845 0.09208528 0.017411577 -0.008084365 0.07600834
0.06682036 0.2118479 -0.01189457 -0.022213379 0.02355357 0.030678807 -0.25647345 0.04273001
-0.23030087 -0.20936291 -0.23553015 -0.1384033 -0.08925336 -0.24457519 0.097004995 0.15771143
0.2071374 0.35459962 -0.21711278 0.25645927 0.12738208 0.014014333 0.12344493 0.11818232
-0.22216643 0.14715324 -0.12934984 -0.12296932 -0.056859344 -0.09262786 0.13723701 0.07538668
0.1807528 -0.019726044 -0.044244315 0.16318037 -0.18769602 -0.105427 0.15515614 0.08561171
-0.13569088 -0.09512153 -0.045082048 0.20927373 -0.11620343 -0.11033539 -0.08110814 -0.042879943
-0.13659254 -0.06107764 -0.039852824 -0.09771413 -0.012438872 -0.045940723 0.10461326 0.18403906
-0.10731771 0.13606037 -0.1114693 0.18958159 0.14433996 0.08135538 -0.11079686 0.024869327
0.36446762 0.326861 0.04077741 0.00048774877 0.19856599 -0.13483813 0.12807323 -0.17709586
-0.12527959 0.18996857 0.08801742 0.14143753 -0.104151785 -0.026465898 -0.08651009 0.0870205
0.0107945185 0.041713715 0.07098786 0.08035195 0.14598233 -0.14513567 -0.06703407 0.14040631
0.17018731 0.052987747 -0.2614169 -0.02856003 0.08332191 0.08688812 -0.09000958 0.15097435
0.018402511 0.25515717 0.13114662 0.19947429 -0.012067006 -0.10456968 0.09055112 -0.24064457
-0.1998491 0.10119432 -0.050224353 -0.09602875 0.01779832 0.025151784 -0.122217916 0.14150393
-0.07307402 -0.13265125 0.2572064 -0.39014393 -0.101734184 0.07188875 -0.22596459 -0.10910238
-0.007338563 0.16855246 0.018777912 0.12900005 -0.078333914 -0.054740105 -0.22738601 0.05740859
-0.22513689 -0.105375856 -0.18752487 -0.25524092 -0.19860086 -0.22136696 -0.16642469 -0.0104558775
-0.15021226 0.13867605 0.06139615 0.121252984 -0.103352845 0.036927324 0.02963251 -0.13797307
-0.041392453 -0.13239735 0.0081745405 -0.005313305 -0.16374414 -0.022720885 0.08711627 -0.046544116
0.06627356 0.06536452 -0.13507093 0.117709145 -0.023618558 -0.12237898 0.09759654 0.07695515
-0.35233295 -0.43524513 -0.09956607 0.268934 -0.052343033 -0.039102357 0.025133146 -0.020353122
-0.03151722 0.24444118 0.13284193 0.054060753 0.09624929 0.07577064 -0.06819264 -0.13378441
-0.049560934 0.08684217 0.1346348 0.112646475 -0.22556509 -0.14248842 -0.203543 -0.0033828686
0.22347961 0.21681559 -0.32536674 -0.054821644 -0.15846138 -0.044065256 -0.18377697 -0.14887401
-0.058308575 0.11798237 -0.21492878 0.22805735 -0.08048463 0.06546071 -0.2298274 0.09770514

critic.0.bias f4 [72]
00000000: a5dd 33be 29a1 84bd fa50 263d 517f 26be
00000010: 488b 5cbe 0f12 1c3e 8d69 ef3d 9011 a33d
00000020: 33ae 9abd 77f6 623c c54b 813c 3e12 dbbd
00000030: eec5 8e3d 073e cfbc a471 613e 8cc7 3bbd
00000040: 3346 123c bb28 4abe 3104 4fbe 1209 a1bd
00000050: 7922 0d3e efe1 9bbd e848 403e 0a25 383e
00000060: 3af6 05bd 3826 5d3e 59b0 55be e48c 8ebd
00000070: 4366 1a3d 3b41 0cbe 4afa a4bd fff1 14be
00000080: 5d41 67bd 93a5 433e b6c3 ba3d e18c 37be
00000090: 7cf9 373c 1293 173e eed2 893d 5038 043e
000000a0: 51ef 513e 132a 8bbd 5836 133e 2dd2 19be
000000b0: 2a98 4dbd ea09 11be 8475 81bd 6f58 c23d
000000c0: c5e2 1c3e 122e 3cbd 34fc 1a3e 7b50 b03d
000000d0: 6135 1d3d 7708 b1bd f192 1f3e cc43 4b3d
000000e0: 2c98 b6bc d29f 953b d5ab 013d d88d 633d
000000f0: d847 4fbe 447d 553e f28f 203e 38c9 1e3e
00000100: 0048 9b3e 98a8 523c e11d 863e 522f 20be
00000110: 518a 613e 8ae7 273e 4f22 313e f3f3 323d
-0.1756502 -0.06476051 0.04060457 -0.16259505 -0.21537507 0.15241264 0.11690054 0.07962334
-0.07552757 0.013852707 0.0157832 -0.10696839 0.06971346 -0.025298132 0.22016007 -0.0458446
0.00892787 -0.197421 -0.20216443 -0.07863058 0.13782682 -0.07611453 0.18777812 0.1798288
-0.032705523 0.2159661 -0.20868053 -0.069604665 0.03769518 -0.13696758 -0.08055551 -0.14545439
-0.05645882 0.1910613 0.0911936 -0.17924835 0.011228915 0.14802197 0.06729685 0.12912107
0.20501448 -0.067951344 0.14376199 -0.15021582 -0.050193943 -0.14163938 -0.063212425 0.094895236
0.1532088 -0.045942374 0.1513527 0.086091004 0.038380984 -0.08644193 0.15583397 0.049625203
-0.022289358 0.004566171 0.031658012 0.055555195 -0.2024225 0.20848566 0.15679911 0.15506446
0.3032837 0.012857579 0.2619467 -0.15643051 0.2202542 0.16396919 0.17298244 0.04368968

critic.2.weight f4 [96, 72]
00000000: 1c8e 763d 7d40 833d b6dc af3d c80f f7bd
00000010: 1729 90bd 3b10 7a3d 43d8 f8bc 6783 fcbc
00000020: bba7 c73d 030b d03d 39c4 5bbd 5c0d ffb9
00000030: 4af3 0bbe 6911 5c3d 4c6d c23d 8faa 81bd
00000040: 296b 8abb 8c21 89bd 6558 ab3d 3a12 72bd
00000050: 4955 febc 40c2 8cbd 815a eabd 3a91 3bbc
00000060: 372e 2bbd a3b5 c53c 9ec6 ec3d 47f1 2abd
00000070: 3fd5 a53c 719b b33d 7cd7 b83d 342f 593a
00000080: db4f 8abc 55b7 1f3d e9d0 533d 7bfe a23d
00000090: a90e 1e3d fcaf 91bd e4a0 04bd 7aa6 cc3d
000000a0: fcc2 38bd 6748 59bd 1c6e 6f3d 033c c2bd
000000b0: ca4f 4dbd 3444 763c 7c18 a33c 1eb5 69bd
000000c0: 8460 b73d 0d26 8fbd f5c3 d43c 3e6c c83b
000000d0: 6959 a63c 8061 d33c 39a3 2a3b 6361 323d
000000e0: 5714 46bd f8ad 08bc ef91 e53d ae81 4bbd
000000f0: 3cc2 383c 644f 0ebd 7730 553d f047 473c
00000100: 7004 92bd e080 d73d ec9d 0fbd 088a 04bd
00000110: 9cc9 e33c ecdb d6bc 3629 30bd d6b1 aa3d
00000120: e955 1a3d 9088 b03d b703 733d fdb3 a33d
00000130: fa97 f8bd c3ff ddbc 1216 56bd b61f 813c
00000140: 157c d2bd d9f8 04be 4b9f 9abd 87c3 f3bc
00000150: b742 a73d cc90 9b3d b747 333d 7476 8dbd
00000160: 4ee1 83bd 716d cf3d 59ad a23c e543 75bd
00000170: 0feb 1cbd 1e9f 9f3d f57f 5fbc afa2 673d
00000180: d1ab c2bd 0e70 e73d 44a7 51bc ab63 63bc
00000190: 2177 16bb b883 e2bd b87b 5d3d f27d 0d3d
000001a0: f5a7 703d c67b 753d 1b8c 18bc 5a94 2a3b
000001b0: cfc2 b5bd 7dae 58bd afee 20bd 3eca adbd
000001c0: 0ae7 993d df23 2fbd 45e7 a03c 76cd 3a3d
000001d0: f783 803d ec7c aabd a3c5 373d 130e 053d
000001e0: 0734 25bc 82d6 c9bd eb33 11bd a8ea b9bb
000001f0: cfc4 2c3d c559 8f3c fd59 07be 727e 8fbc
00000200: 5947 d43c 72cc 913c a1f1 fabd 0bc0 053d
00000210: 21f9 493d d768 72bd f4a4 cabc e200 b4bc
00000220: 6e25 9f3d a4ee 453c 766d c83d 3ca2 6e3d
00000230: 51c0 a53d b01f f6bc 62b8 bb3d edec 57bc
00000240: deb6 11be a7c1 c33d 81b2 253e 15af c4bd
00000250: 60b1 0bbe baf6 e13b b0bd 1c3d 9b4f ff3d
00000260: 49a0 cdbd e0c6 37bd 55e0 253d 46b4 f5bc
00000270: e93d 04bd 74a9 36bd b075 393d 03c0 1d3d
00000280: 07ee 12bc 4fea fd3d b46a 083d eb0f 8f39
00000290: 7864 1abd e18a b8bd 8421 aebb a992 843d
000002a0: 04c4 0c3d 9593 51bd c4d6 c9bd fbc3 e1bd
000002b0: 22d9 b3bc 5730 23be 4f68 463b db35 2bbc
000002c0: e1be e5bd 8527 023e 6ec6 7a3d 5422 8b3d
000002d0: 4a3f 1bbe 05e6 54bd 75b5 023e 9b70 df3c
000002e0: 921d 9d3d d395 373c 98d2 b43d c248 653d
000002f0: c097 b3bd 36f5 ce3d a146 83bd 04ce 343e
00000300: b197 453d 090e 8b3d 536d 953d c522 59bd
00000310: 4e0a ab3d 70fa 9b3d 4abd 41bd a682 e13d
00000320: 08f9 183d 0b85 043b ff8c a5bd 832e b8ba
00000330: b0c3 02bd fbb4 813d 52aa b63d dac2 843d
00000340: 2caf 3cbd eb83 893d ca89 51bc 0f8e b13d
00000350: c525 efbc b004 e53d bd00 3b3d 1949 07bd
00000360: 477f 873d 07f0 c53d 4fd2 a23d e742 97bd
00000370: 67c1 c63d 8998 683d feb3 f83a 7765 693d
00000380: 6b25 f43c c44f c33d 24c9 0c3d 0967 fabc
00000390: f601 ab3d 0023 3d3d df32 833c 25e9 bd3d
000003a0: f55d 8dbc adfc 1d3d 3cf8 6abd 89f3 9f3d
000003b0: 2737 bbbd ba52 edbc 1dee cd3d 8152 0b3d
000003c0: 7312 60bb 65e6 f53c 57fb e63d 89bc 25bd
000003d0: ff63 94bd 8959 b13c 8c36 5ebd bc20 d53d
000003e0: f7af d6bb 68cd ad3d cd70 793b 2327 54bc
000003f0: 855e a8bd b05b 1b3d f330 a43d a7d4 cfbd
0.06019412 0.064087845 0.08587019 -0.12063557 -0.07039087 0.061050635 -0.03037656 -0.030824376
0.09748789 0.1015835 -0.05365393 -0.00048647344 -0.13667026 0.05372754 0.09493503 -0.063313596
-0.0042242003 -0.06695852 0.08366469 -0.059099413 -0.031046527 -0.06872988 -0.114430435 -0.011448199
-0.04179212 0.024134463 0.11561321 -0.041734006 0.020243285 0.087698825 0.090254754 0.0008284927
-0.016883781 0.0389932 0.051712904 0.079586945 0.0385882 -0.071136445 -0.03238 0.099926904
-0.045107827 -0.053047564 0.058454618 -0.094841026 -0.05012492 0.015030909 0.019909136 -0.057057492
0.08953956 -0.069896795 0.025972346 0.006116419 0.020306306 0.025803328 0.002603723 0.043549906
-0.04835924 -0.008342259 0.11209475 -0.04968422 0.011276778 -0.03474368 0.052048173 0.012163147
-0.07129753 0.10522628 -0.035062715 -0.0323582 0.027806096 -0.026227914 -0.04300805 0.08334701
0.037679587 0.08619797 0.059329715 0.079933144 -0.12138362 -0.027099496 -0.05226714 0.015762191
-0.10277573 -0.12985553 -0.07549914 -0.02975632 0.08167022 0.07595977 0.043769564 -0.06907359
-0.06439458 0.10128296 0.01985805 -0.059879202 -0.038310107 0.07794021 -0.013641347 0.05655163
-0.09505428 0.113006696 -0.012796227 -0.013878743 -0.002295919 -0.110602796 0.054073066 0.03454394
0.058753926 0.059932493 -0.0093107475 0.0026028366 -0.088750474 -0.05290078 -0.039290126 -0.0848584
0.0751477 -0.04275882 0.019641528 0.0456061 0.0627517 -0.08324608 0.044866215 0.032484125
-0.010083205 -0.09855367 -0.035449903 -0.005673725 0.04217988 0.01749886 -0.13217922 -0.017516349
0.025912927 0.017797682 -0.12253118 0.03265385 0.049309853 -0.059182014 -0.024736859 -0.021973077
0.07770811 0.012080822 0.09786503 0.058260188 0.08093322 -0.030044407 0.091660276 -0.013179046
-0.14229915 0.09558421 0.16181375 -0.09603707 -0.13641882 0.006895867 0.038266838 0.124663554
-0.100403376 -0.044867396 0.040497143 -0.029993188 -0.032285605 -0.044595197 0.04527825 0.038513195
-0.008967883 0.123982064 0.033304885 0.00027286945 -0.03769347 -0.09010864 -0.005314054 0.06473286
0.034366623 -0.051166136 -0.098554164 -0.110237084 -0.021954123 -0.15936409 0.0030274575 -0.010449852
-0.11218048 0.12710388 0.061224394 0.06793657 -0.15160862 -0.051977176 0.12764533 0.027275374
0.07671656 0.0112051545 0.0882923 0.05597759 -0.087691784 0.10105364 -0.06409956 0.17656714
0.048240367 0.06789786 0.072962426 -0.053011674 0.08351575 0.076161265 -0.04729966 0.11011247
0.03734687 0.0020220901 -0.080835335 -0.0014051948 -0.031924903 0.063333474 0.08919205 0.064824775
-0.046065494 0.067146145 -0.012789199 0.08669674 -0.029192815 0.11182535 0.045655 -0.033028696
0.06616073 0.09664922 0.079502694 -0.073858075 0.09704857 0.056786094 0.001897454 0.05698153
0.029802999 0.095366985 0.03437151 -0.03056671 0.083499834 0.046175957 0.016015468 0.092729844
-0.017256716 0.03857105 -0.05736564 0.078101225 -0.09141379 -0.028970111 0.10055182 0.03401423
-0.0034190684 0.030017087 0.11278408 -0.040463004 -0.07245635 0.021649139 -0.05425124 0.10406634
-0.0065517384 0.08486444 0.003806162 -0.012948784 -0.08221153 0.037929237 0.08017149 -0.10147982

critic.2.bias f4 [96]
00000000: 6831 ee3c 384d 673c 1341 45bd a9a4 593c
00000010: 0b35 693d d7d1 acbd 1f2d 033d b60e 88bd
00000020: 15a6 19bd c068 913d 4f51 573c c921 0fbe
00000030: f179 bdbd 12fa a03d 6f45 95bc ae2a 1f3e
00000040: d8e9 73bb 3013 123d 9d2a 07bd 54d6 95bd
00000050: d4bb 42bc e31f 06bd 2615 f9bc b345 5f3c
00000060: 4b72 8fbd 484d 443e c4ef 363d e25b ec3d
00000070: 8f59 a2bd a864 0bbd 3328 adbd 4e76 0d3e
00000080: efeb 303e 9bca b23d 9c06 d43d 53c1 113d
00000090: b39b 0abe 8389 773d 4df9 723d 343a 60bd
000000a0: a342 ae3c 05f5 453c 3594 9f3d 36ab 183b
000000b0: 2069 0b3d 5a91 f73c 6f39 23be 3b40 03be
000000c0: de52 34bd 4509 1fbd 9fc2 e5bd 7c38 263d
000000d0: 971d 87bd 3f1d 3ebc 2f2c 6e3d 5e1d cdbd
000000e0: b722 963c aa10 6b3d c7fb d63d bac8 4abd
000000f0: 9fb3 9f3d d8d7 f03b 341b debb 5cf5 13be
00000100: 6722 9ebd b618 253e f00f 263e ae50 26be
00000110: 64fa 883d 3385 053e 2602 133e 497b 013d
00000120: cea3 203d 3d14 83bd dccc a1bd ec64 36bd
00000130: 4f9c c7bd c493 063d f13d cb3d 2aa5 283d
00000140: d03b f23d a7c0 0cbd bf68 ba3d cbbc b53d
00000150: 5dd3 fabd db0a b1bc 5ef1 e6bc 5ba8 ec3d
00000160: 3a85 abbd 3db1 0cbe 75ce 64bd 2aba ca3d
00000170: 1e68 1ebd a40d b0bb 37e8 2bbd a0f0 07be
0.029076293 0.0141175315 -0.048157763 0.013283887 0.05693535 -0.08438461 0.032025453 -0.06643431
-0.037511904 0.071000576 0.013141944 -0.13977732 -0.09251774 0.07860197 -0.018221585 0.15543625
-0.003721824 0.03566283 -0.032999624 -0.073162705 -0.011885602 -0.032745253 -0.030405592 0.013627457
-0.070042215 0.19170105 0.044662252 0.11540963 -0.07927238 -0.03403154 -0.08454933 0.13814661
0.17277502 0.0873005 0.10352823 0.03558476 -0.13535957 0.060433876 0.059319783 -0.054743007
0.02127201 0.012082343 0.0779194 0.002329541 0.034035802 0.030220676 -0.15939878 -0.1281747
-0.04402434 -0.0388272 -0.11218762 0.04058121 -0.06597441 -0.0116036525 0.058147606 -0.10015367
0.0183271 0.05738894 0.104972415 -0.049507834 0.07797932 0.0073499493 -0.006778145 -0.14449066
-0.077214055 0.16122708 0.16217017 -0.16241714 0.06688383 0.13039093 0.14356288 0.031611715
0.039218716 -0.064003445 -0.07900402 -0.04452984 -0.097466104 0.032855764 0.09923924 0.041173138
0.118278146 -0.034363415 0.0910201 0.088739 -0.122473456 -0.021611622 -0.028191265 0.11555549
-0.0837502 -0.13739486 -0.055860955 0.09898789 -0.038673513 -0.00537272 -0.041969504 -0.13275385

critic.4.weight f4 [1, 96]
00000000: 1d1f 5c3d abf9 64bd eaed debd 7d7d 2b3d
00000010: 6e48 92bd 7e85 953d 8fc7 19be 987b b8bd
00000020: b5b2 15be a6d1 b4bd 50a1 893d e127 df3d
00000030: 83dc d13d b420 47bd 3adf 47bd fa05 5cbc
00000040: fa94 1dbe 6b78 6fbd 892c 98ba 8c31 853a
00000050: c721 d6bc 48b8 653d fd18 a43d 2721 b939
00000060: e225 a23a 88a1 93bd 70ba 87bd c4ab 57bd
00000070: 9753 283d 5ed9 913d 9b45 b53d 076d 7dbc
00000080: 05bd 8abd 145e 8cbd 4d8e 60bc 37b1 35b7
00000090: 439e 543d a0eb 6fbd b465 6e3d 6b1f 4f3c
000000a0: 333b 60bc 011f fabc fbad 90bd 9255 f5bc
000000b0: 4d24 44ba 493b fe3c 61ee 973d 75d2 853d
000000c0: eb28 e93c 17ca 03be f6cc 4f3d c9a7 bc38
000000d0: 233a d63d bd0c bcbd bbc5 8dbd 5010 c03d
000000e0: 5a6e 49ba 0460 423d 405d 42bd e6aa 243d
000000f0: 2ab2 10bd 1d89 853c dc6f 463d e1fc a53d
00000100: 81fc 2c3d 7ecb 3abd 8679 00be 40dc dd3c
00000110: 6bb4 25bd a3f3 a7bd a0ed 2bbd 7d4b d2bc
00000120: 0852 53b8 8aa1 383b 1925 1e3d 08eb 123a
00000130: 4fac b73d 5517 6dbd 82d1 bdbc e0a4 3eb9
00000140: b043 4dbd f81e 543d 7ebd 8d39 1d9d b339
00000150: 29eb bc3c 733e 293d 121e 8b3d dcb2 113e
00000160: 4ae1 bd3c 18ec 193d 2916 82bd d097 87bd
00000170: fc79 ab3d 7fbe c13b b1ce 193a efa8 943d
0.05374061 -0.055902164 -0.10885222 0.04186772 -0.07142721 0.07300852 -0.15017532 -0.09007949
-0.14618953 -0.0882905 0.06720221 0.10896278 0.102471374 -0.048615173 -0.04879687 -0.013429159
-0.15388861 -0.05846445 -0.0011609952 0.0010161861 -0.026139153 0.056083947 0.08012579 0.0003531065
0.0012370909 -0.07208544 -0.06627357 -0.052654043 0.041095342 0.071215376 0.08851167 -0.015467889
-0.06774334 -0.068538815 -0.013705802 -1.0829702e-05 0.051908743 -0.05857432 0.05820246 0.012641768
-0.013685989 -0.030532362 -0.07064434 -0.02994803 -0.0007482216 0.031034129 0.07418514 0.06534282
0.028461894 -0.1287006 0.050732575 8.995791e-05 0.104603074 -0.09182117 -0.0692248 0.09378111
-0.0007683985 0.04745485 -0.04745221 0.040202044 -0.03532616 0.016300732 0.04844652 0.081048734
0.042232994 -0.04560422 -0.12546358 0.027082562 -0.040455263 -0.08200767 -0.041974664 -0.025670761
-5.0382718e-05 0.0028172457 0.038609598 0.00056044804 0.08968412 -0.05788358 -0.02317119 -0.00018181233
-0.05011338 0.051787347 0.00027034798 0.000342586 0.023061352 0.04131932 0.06792845 0.14228386
0.023178715 0.037578672 -0.06351883 -0.06620753 0.08372876 0.0059126015 0.0005867286 0.07258784

mean.0.weight f4 [72, 24]
00000000: 1cea 813e cfb8 8b3d 8b90 623e 907b 8f3e
00000010: 5e0f 8d3c f55a 1c3e b56d 89bd f09a 903d
00000020: af62 1abd 6add 63be 0ae5 c8bd 20da 56be
00000030: 78e7 09be 26e4 b63d 2752 f5bd 3781 febd
00000040: 7ac6 833c e27f 2e3e 00b0 0f3e 2399 053d
00000050: 7904 c13d 970d 153d 3233 30be 35bb 4b3d
00000060: 846b 1abc 8e82 323d bc08 323d e3ee db3e
00000070: 1835 e73d 2754 17be 9456 51be fc91 4bbe
00000080: 4c78 edbd 1d94 50be 8cab 013d 0ec1 31be
00000090: b617 a23d 42b6 22be 2181 32bd 7b8a 8abd
000000a0: b5dc 253e b1ef babd 4b29 6d3d bc58 76bc
000000b0: 5782 59bd 8530 51be 5d21 f03b fd5d e53d
000000c0: 18d8 853e 771a 013f 2b80 febe 9261 b6be
000000d0: ec10 d83d 12d2 933d 0f0d 4cbe 5f77 123e
000000e0: 1419 1fbe f700 b03d a867 5cbe e378 44bc
000000f0: 5bfe 403d 0802 ffbc 2a55 043c 7d01 f0bd
00000100: a65c c13c ae90 babd 4bf6 e93d 222c ec3d
00000110: a522 aabd 3e48 eebc d733 1fbd a142 ac3d
00000120: 830e 51be 3699 30bd ff84 ed3c 2d90 393e
00000130: 8962 a23b 82b8 acbd 6c65 3d3d 6cca db3d
00000140: 8e6d c9bd f7d8 80bd f0c7 05be 91c5 aebd
00000150: 8550 f63d 90d6 3d3e bd74 703b d970 4d3e
00000160: e869 353e 4459 afbd 2ebe 76bd 4e48 753d
00000170: c2ea cb3d 4214 a5bc d638 ef3d 2ff1 1bbe
00000180: a618 e2bd e977 33be 8f78 2a3e 42ee 1b3e
00000190: ed12 edbd 770c 823d 8bbb 79bc 57d5 81bd
000001a0: 24cd 053d a4c8 a13d 5551 3cbc 2a46 6d3e
000001b0: f7ed eb3d c2d8 3e3d cc6e 17be 2822 32bd
000001c0: c386 a03d 1618 453d 8a71 85bd 4b77 323e
000001d0: c915 a6bd d717 a23d 918b 98bc 85e4 dcbc
000001e0: 9eb8 e3bd 1721 e03d ac29 eebd 14f7 763e
000001f0: 9d26 a03d 44a9 373e a07b 273e 6670 bebd
00000200: 813f 0e3e 602c 19be cc56 24be 4476 30be
00000210: 0887 d83d 124c 153c c710 cbbd 6ac8 903d
00000220: 529f 12be 0c11 8e3c 2241 703b ec9f 193e
00000230: 62eb 4bbc 8116 5f3e 64a0 083d e670 34be
00000240: 9700 b63d a6d4 5f3e 6101 adbe 6c6e 95be
00000250: 1a1b babd ab77 6d3c 3364 dcbd fcdd babd
00000260: 1f1c ccbc 4fae 673e dde2 b4bb 3344 7a3e
00000270: bee8 f43c ab92 2e3e a1a4 30be e439 38be
00000280: fe9a 4f3a 825a 883d 836a e3bb 2e14 ec3d
00000290: b12e ca3d 3f74 1bbe b02c 30be 2d90 2c3e
000002a0: 18bc b93d 9f78 813e a2ac c9bd 0e37 30bf
000002b0: 2b7c 283d a0f1 d13d 3b4d 40be 9fca d63d
000002c0: 7d6f 2fbe a0a6 b03d 3ae7 5fbd 38b8 15be
000002d0: 00bd b53d 59f6 77bd 97ce 043e 7c1f 793b
000002e0: 4d30 113c 890f a7bb 3979 213d f5c1 293e
000002f0: 45f5 fabd 5a4a 85bd 5d89 13be db66 82bc
00000300: eda9 89be 0f4e 07be 12d2 c43d f8e8 973e
00000310: ba56 353e 0374 f3bd 9416 6bbd 966a 033e
00000320: f516 d03c ddb2 8d3b f737 053e 38ca 8bbe
00000330: d8fb 02be 6e97 3a3e a310 243e 66df 203c
00000340: 5ba6 17be 4219 4b3d c625 ecbd b5a9 d9bd
00000350: 60a2 1bbc cd5d acbd 8a7e d13d 5f1b 30be
00000360: 9624 05be 2f8a d13d 98ce 8b3e 465e 953e
00000370: 2b51 53bc f3b1 a03d 2854 6ebd 34d9 88bc
00000380: c75c a13d fa4e a9bd 03e9 e2bb d102 f2bc
00000390: a135 1e3d 3944 0dbe 298d 8e3d 86b3 5e3d
000003a0: afbf 353c 0266 093e 0efc b6bc 0383 ec3d
000003b0: 27e6 23be 453b f93d 5f87 583e 66e4 b3bd
000003c0: 835f 86bd 0e8c 8cbc 488a b53d afbf 2a3e
000003d0: 2242 133e 10cb 8abd 21ed d83d f94d 023d
000003e0: 6acb 82bd 108f 0ebe 6a8b 4f3d f429 ecbd
000003f0: 0f04 7d3d 6005 3b3d 0239 b8bd 8b35 0a3e
0.25373924 0.06822359 0.22125451 0.28023958 0.017219242 0.15269072 -0.06710378 0.07060802
-0.03769177 -0.22252432 -0.09809311 -0.20981646 -0.13467205 0.089302346 -0.1197856 -0.124269895
0.016085852 0.17040971 0.14031982 0.032616746 0.09424681 0.036389913 -0.1720703 0.04973908
-0.009425048 0.043581538 0.04346536 0.42955694 0.11289424 -0.14778195 -0.20443183 -0.19879907
-0.115952104 -0.20369 0.03165774 -0.17358801 0.07914679 -0.15889838 -0.04358018 -0.06764694
0.16197474 -0.09127749 0.05790071 -0.015035804 -0.053102817 -0.20428665 0.007328196 0.111995675
0.2614143 0.5043101 -0.4970716 -0.35621315 0.105501026 0.07217802 -0.19926856 0.14303349
-0.1553691 0.08593934 -0.21523917 -0.011991712 0.047117572 -0.031128898 0.008076945 -0.11719034
0.023603749 -0.09109627 0.1142393 0.11531855 -0.08307389 -0.029087182 -0.038867798 0.08411146
-0.20415692 -0.043114863 0.028994082 0.18121405 0.004955594 -0.084336296 0.0462393 0.10731968
-0.09835349 -0.06291383 -0.13064551 -0.085337766 0.12027077 0.1853888 0.0036690675 0.20062579
0.17716181 -0.08561948 -0.060239963 0.05988341 0.09956886 -0.020151261 0.116807625 -0.15228723
-0.110398576 -0.17526211 0.16647552 0.15227607 -0.115758754 0.06350034 -0.015242468 -0.063395195
0.03266634 0.07899597 -0.011494 0.23171297 0.115199976 0.046593435 -0.1478836 -0.043489605
0.07838204 0.048118673 -0.065157965 0.17428319 -0.08109624 0.07914703 -0.018621238 -0.026964435
-0.11119197 0.109438114 -0.11629042 0.2411769 0.07819865 0.17935663 0.16355753 -0.09298782
0.13891412 -0.14958334 -0.16048735 -0.17232615 0.1057263 0.009112375 -0.099153094 0.07069476
-0.14318588 0.017342113 0.0036659916 0.15002412 -0.012446256 0.21785928 0.033356085 -0.17621192
0.08886831 0.21858463 -0.33790115 -0.29185808 -0.090872005 0.014493863 -0.10761299 -0.091243714
-0.024915753 0.22625087 -0.0055202083 0.24440078 0.029896136 0.17048137 -0.17250301 -0.17990834
0.0007919519 0.06657888 -0.0069401874 0.115272865 0.09872187 -0.15181063 -0.17204547 0.16851874
0.09069079 0.2528734 -0.0984738 -0.68834007 0.04113404 0.102511644 -0.18779461 0.10487866
-0.17132373 0.08625531 -0.054663874 -0.14621055 0.088739395 -0.06053767 0.12969433 0.003801315
0.008861613 -0.0050982875 0.039422248 0.16577895 -0.12253813 -0.06508322 -0.14407869 -0.015918186
-0.26887456 -0.1321337 0.0961038 0.2966993 0.17708865 -0.11887362 -0.05739458 0.12833628
0.025401572 0.0043243007 0.1300963 -0.27302718 -0.12791383 0.18221828 0.16021971 0.009818887
-0.14809553 0.049584635 -0.11530642 -0.10628072 -0.009499162 -0.084163286 0.102292135 -0.17197941
-0.13002238 0.102314346 0.27306056 0.29173487 -0.01289777 0.07846441 -0.058185726 -0.016705133
0.07879024 -0.08267017 -0.00692475 -0.029542359 0.038625363 -0.13795556 0.06960518 0.054370426
0.011093064 0.13417819 -0.022336986 0.11548426 -0.16005765 0.12169508 0.2114539 -0.08783798
-0.06561186 -0.017156627 0.08864266 0.16674684 0.14380696 -0.06777012 0.10592104 0.03181264
-0.063864544 -0.13921762 0.050670065 -0.115314394 0.06177145 0.045659423 -0.089952484 0.13496988

mean.0.bias f4 [72]
00000000: dabb ba3c 591d 0fbd 1064 c6bd 3aac c23d
00000010: 0015 b2bd ea3d 37be 0962 163c 271d 86bd
00000020: 8e2a 193e ba62 c83d 14ca 003e ef6b 32be
00000030: 9e3a b23d 0c22 383d 9c24 e83c 63d1 54bd
00000040: 0bd6 b2bd df6a 513d aa8e a73d 433f 8c3d
00000050: b7b5 3d3e 787a 313e c404 bf3c 90e5 b1bc
00000060: e720 b13d 4f90 1f3e 1386 e43c 6a23 72bd
00000070: 0d65 b8bd d3e1 41be 3ced 1dbe f64b 8fbd
00000080: add0 afbd c665 e9bc 33c0 82bb d074 8f3d
00000090: bca7 5dbe dcfa 22be 509f bb3d 3494 0d3e
000000a0: a2fc cdbd 781f e2bd a736 0abd a9ff 7dbd
000000b0: 596e 10be eb46 df3d 858c cdbc ad27 113e
000000c0: 359c bebd 52f6 2dbe 7351 acbd ea73 32be
000000d0: abd4 633d 5149 273e cde7 fb3c 21d1 b03d
000000e0: 2b50 703c 541e fdbd 3bb8 07be c717 e43d
000000f0: 97ef e6bd 45e8 ca3d 8b33 23be 7a2d 153d
00000100: 8dae 223e e24d c33c 2a98 a3bc f83b 25bd
00000110: 3bd1 f5bd 211b f33d 854f b7bd 5bd7 143e
0.022794653 -0.034940097 -0.09687054 0.09505506 -0.08695412 -0.17894712 0.009178647 -0.06548529
0.1495764 0.097844556 0.12577087 -0.17423986 0.087025866 0.044954345 0.02833777 -0.0519575
-0.08732232 0.05112731 0.08181508 0.06848004 0.1852635 0.17331874 0.023317702 -0.02171591
0.08648854 0.15582393 0.027895963 -0.059115805 -0.09003649 -0.18933801 -0.15422529 -0.0699691
-0.085847236 -0.028490912 -0.003990197 0.07004702 -0.21646017 -0.15916008 0.09161246 0.13826066
-0.100579515 -0.110411584 -0.033743527 -0.062011395 -0.14104594 0.109021984 -0.025091419 0.14175291
-0.09307138 -0.16988495 -0.08413973 -0.1742703 0.055622738 0.16336562 0.03075018 0.08633638
0.014667551 -0.123593 -0.13253872 0.11137348 -0.11276167 0.09907583 -0.15937631 0.036420323
0.15886898 0.023840848 -0.019970018 -0.040340394 -0.12002798 0.11870409 -0.08950714 0.14535277

mean.2.weight f4 [96, 72]
00000000: 56a1 883d e304 03be 1c71 3cbc e260 dbbd
00000010: 8f68 9fbd 6c03 0abe 2565 1fbd 2c23 493d
00000020: 39ca 0dbe e5af 0dbe 5efe 8dbb 1531 583d
00000030: dae0 c23d 44c6 043e e9ae f1bd 9144 2fbd
00000040: 9b19 96bd 9261 093e d34c 003e fe70 b33b
00000050: 4248 1c3b 7a42 e23d d2da 68bd 00b7 1c3d
00000060: 0dbe 173d 00d9 4bbd 9cc4 3dbc 0724 0ebd
00000070: 894e 453d 79fa 533d 1805 c23d 7e3c 14bd
00000080: 1027 26be 07b0 1dbd eab0 a33d d1c2 7b3d
00000090: 6c17 b53c ec86 603c 2f12 18bc bde2 17bd
000000a0: 54d0 d63d b1b8 8cbb 95ca 42bd b3e9 f73d
000000b0: 478a f03b 56d6 0dbd 0a2f dc3b 09bb fc3c
000000c0: 13b2 a1bd e32d 41bd e99f 1a3e 2a66 ce3c
000000d0: 6a23 84bd 0d63 cbbd 75ce e2bd e5b4 f6ba
000000e0: e744 483c 57f6 0b3d 4dce 503d b5e7 953d
000000f0: d922 b2bd 811f 93bd 21e5 f8bd 49e8 84bd
00000100: 846c 42bd 6278 a9bd 1fcf bcbd e2dd 223d
00000110: c603 2ebd 7fa7 213a 5ba3 b1bd 5bd4 163c
00000120: d409 95bd 0134 76bc 191d d3bd 3538 873d
00000130: 2768 293d 0ca6 f63d 7f16 9ebd 7937 d8bd
00000140: 1bac 503d 764a ea3d da0c 3a3d 9fb5 623d
00000150: 08e5 bd3d 9afb b3bd e958 9b3d 6230 733d
00000160: 9e70 f9bc 9371 323c 2834 c33d 0e87 2c3d
00000170: ec94 57bc 2efe a63d 0300 233e 60e7 4bbd
00000180: e826 0c3d 0401 883d d465 20bb a95f afbd
00000190: 3d20 fa3b 307c e63c 9b7d b13c 19c3 c9bd
000001a0: b006 133d 2cf4 a53d d033 f4bd 2654 85bc
000001b0: de26 e73d bc75 60bd 2539 e03c 1eaf 17bc
000001c0: b9cd cebd d28e 32bd 3f34 90bd cee9 f73d
000001d0: e896 5ebd 7e19 843d fc8f c63c df41 8f3d
000001e0: 434c 84bd d5ca 19bc f9f0 6fbd 6265 49bc
000001f0: 6000 debd 65a0 68bd 3bd2 edbc 3df4 1ebc
00000200: 4417 9d3d 99ab 60bd d2e9 6abd 7c72 03be
00000210: 57cd bfbc 5f3f 9e3d 5f6e 883b 8b96 313c
00000220: bf18 a0bd 40f8 e83c 403a 833c 9139 283b
00000230: d5b7 cabb 78a5 b33d a896 2d3d 8532 c5bd
00000240: 2aca 193d 9424 aa3d e569 f83d 329c 60bd
00000250: 5486 8dbd e1ed 22be 7fd6 b23c 50ff d03d
00000260: 5888 81bd 8002 4cbc 3280 963c 9919 dbbd
00000270: 9fb3 40bd 9b76 a4bd 6fd2 0dbd fe95 473e
00000280: a45b b83d 49e9 9dbd a3c3 cb3d 47df 12be
00000290: cf7c 17be 9f28 753c 844c 4bbc d9c7 51bd
000002a0: ff86 9bbd f151 ab3d d5ad 913d e4d6 913d
000002b0: e15a 9abd 57ca 0c3e b045 383e c690 43bd
000002c0: ba6a c03c 65cb a3bc c09b f73d 169a 0d3e
000002d0: 051e cb3d 3c3f e93d 0b1d cf3d bde7 bf3c
000002e0: 9a52 f53d d3e9 f9bd 39ad 29bc b0c6 d33c
000002f0: f5a9 14be a52b c1bd d7ee b3bc 4b3e 35bd
00000300: 6542 7fbd 42ab 933d d6b7 be3c d1ce e53d
00000310: fca2 863d a9b8 e9bd e432 65bd f257 19bd
00000320: a8c0 2f3d 95e7 8abd 1933 86bd 4279 2e3c
00000330: 1633 963d 7edd 11be 2c92 ccbb 1dd8 d4bd
00000340: b6d3 a83d 1cd8 ecbd 3bd6 b7bd 09bd c8bd
00000350: a8ef c23d 67f2 303d 9387 8c3d 837a 683d
00000360: ce02 c23d 6750 ae3c f314 e83d 09fe 353c
00000370: 9ec9 56bc 5252 063e 1f81 f4bd 4d53 db3d
00000380: c8e5 a93d 0636 a0bc 4103 3e3d cacf 84bd
00000390: 9cd0 d1bd f53e 97bd 8f15 773d 0261 8b3d
000003a0: 7272 04bd 5418 4f3d 8c25 0fbd 148d 73bd
000003b0: 8f72 f93d 7d0a 333d f427 9db9 bb05 e83d
000003c0: de7d 8a3d 93d9 62bd 41f4 cfbd 1b25 823c
000003d0: 85d2 ad3d f341 79bc 13f4 333c edd2 43bd
000003e0: d228 973d 8230 92bc d870 ab3d 8cdf b33c
000003f0: 2069 9b3d bae6 3b3d 5027 c8bc 1c71 59bb
0.066713974 -0.12794833 -0.011501577 -0.10711838 -0.07783615 -0.13477868 -0.03891482 0.04910581
-0.13846673 -0.1383663 -0.0043333014 0.052781183 0.09515543 0.12966257 -0.118009396 -0.04279
-0.073291026 0.13416126 0.12529306 0.005476116 0.002384678 0.11047836 -0.05684931 0.03826046
0.03704648 -0.049767494 -0.01158252 -0.034702327 0.0481706 0.05175254 0.09473628 -0.036190502
-0.16225839 -0.03849795 0.07992728 0.06146509 0.022105895 0.013704043 -0.009281679 -0.03708147
0.10488954 -0.004294478 -0.04755648 0.121051215 0.0073407027 -0.034628235 0.0067194747 0.030850904
-0.07895293 -0.0471629 0.15100063 0.0251952 -0.06452067 -0.09931002 -0.11074535 -0.0018822221
0.012223459 0.034170475 0.050977994 0.07319585 -0.08698053 -0.07183743 -0.12153078 -0.064896174
-0.04746677 -0.08274914 -0.09219193 0.039762385 -0.042484067 0.00061666215 -0.08673736 0.009205903
-0.07277265 -0.015027047 -0.10308284 0.066025175 0.041359093 0.1204339 -0.077191345 -0.105574556
0.050945383 0.114399835 0.045422412 0.05534899 0.092722 -0.087882236 0.07585318 0.059372313
-0.030449208 0.010891336 0.095314324 0.042120986 -0.013158064 0.0815395 0.15917973 -0.049781203
0.03421679 0.06640819 -0.0024474757 -0.085631676 0.0076332376 0.02813539 0.021666339 -0.09851665
0.03589505 0.08103213 -0.11923945 -0.016275477 0.1128671 -0.05479978 0.027370999 -0.00925806
-0.10097832 -0.043593235 -0.07041215 0.121051416 -0.054343134 0.06450175 0.024238579 0.06994986
-0.06459858 -0.009386738 -0.05857942 -0.012292238 -0.10839915 -0.05679359 -0.02903091 -0.009701786
0.07670453 -0.05485115 -0.057351895 -0.12836641 -0.023413343 0.07726931 0.004163548 0.010839115
-0.0781722 0.028438687 0.016018987 0.0025669078 -0.0061864653 0.08771795 0.042380005 -0.096287765
0.037546314 0.08307758 0.12129573 -0.05483646 -0.06910387 -0.15911056 0.021830795 0.10204947
-0.06324834 -0.012451768 0.018371675 -0.10698242 -0.0470463 -0.08030435 -0.034624513 0.19490811
0.09001854 -0.07710511 0.09949424 -0.14342986 -0.14793704 0.014963298 -0.012408379 -0.05121598
-0.07594108 0.083652385 0.07113234 0.07121065 -0.07536865 0.13749062 0.17995334 -0.04774549
0.023488391 -0.019994447 0.12090254 0.1382831 0.09917835 0.11389014 0.101129614 0.023425931
0.119786456 -0.122028016 -0.010356241 0.025851578 -0.14517958 -0.09432153 -0.021964474 -0.04424886
-0.062319178 0.07210399 0.02328102 0.11221088 0.065740556 -0.11412174 -0.055956736 -0.037437387
0.04290834 -0.06782452 -0.06552715 0.010649027 0.073339626 -0.14244649 -0.006243011 -0.10392783
0.08243506 -0.11564657 -0.08976408 -0.098016806 0.09518367 0.043199923 0.06861796 0.05675746
0.09473191 0.021278573 0.11332121 0.01110793 -0.013109593 0.1311734 -0.119386904 0.10709248
0.082957804 -0.01955701 0.046389822 -0.06484945 -0.10244867 -0.07385055 0.060323294 0.06805612
-0.032335706 0.05056031 -0.034947917 -0.059460714 0.121800534 0.043711174 -0.0002997514 0.11329218
0.067622885 -0.055383276 -0.101540096 0.015886834 0.08487419 -0.015213477 0.010983485 -0.047808576
0.07380833 -0.017845396 0.083711326 0.021957181 0.075884104 0.045874335 -0.024432808 -0.003317899

mean.2.bias f4 [96]
00000000: 76dd 6fbc 9755 14bd 9cc5 c4bd a6bc 8f3d
00000010: 577f ba3d 65bc dfbc fd9c e03b 2ca1 da3d
00000020: 7d96 25bc cfb9 9dbd 02d6 453d 87ba 913d
00000030: ea5e 243d e77b 963d 8752 223c e322 b23d
00000040: 788d 2b3d c285 9fba 414d 72bd 6da3 babd
00000050: 5da7 bcbd 08a4 20bc cffa cbbd 895a 593d
00000060: dedb b43d 5e87 b8bb fd24 053c cc83 1a3a
00000070: bd96 c1bc bbdd 79bd 3bcc 9fbc ab69 fc3d
00000080: 2ea9 4bbc d9e6 bfbd cacf 243d 03a0 d23d
00000090: c512 5dbd bcf7 98bd 295c 103d 6fa2 b63d
000000a0: 7bed 36bd 1fbe dabd ee9e 803d cce5 3c3d
000000b0: 67f2 ea3b 18f5 043c 527f eabc b8a2 a23c
000000c0: da2a 6cb9 9255 24bd 70ab 09bd 5204 72bc
000000d0: 608b 1e3d d0d0 e9bd fc74 7dbd 3201 143d
000000e0: 1cf8 c23d 87ff 833c d4ac d93c a779 0b3d
000000f0: cd82 c83d 8f8c 563d 8db1 203b f5d6 66bd
00000100: c18c 0bbe bfc8 35bc 366c 4b3d 6f2d b0bd
00000110: 56a4 183c c31b 1cbd 46b4 8dbc 73dc 82bd
00000120: ff05 933d 1efd d8bd 2d2c 9abd dc4e a93d
00000130: d999 59bd a968 21bd 2b6f 2d3d e3d2 ecbd
00000140: 874e 073c cf33 17bd dfac a73c 9395 a5ba
00000150: 27d2 67bd f404 f3bd 2212 a9bd d6ea d33d
00000160: dc9e 083d c650 ab3d 9daa 0bbd 98a8 0cbd
00000170: 13fc 163d 345f 933d 4bc0 89bd b6b9 733d
-0.014640203 -0.036214437 -0.096080035 0.07018404 0.091063194 -0.027311513 0.006854652 0.10675272
-0.01010668 -0.07701456 0.048299797 0.071156554 0.04012958 0.07347851 0.009907371 0.0869806
0.041882962 -0.00121706 -0.059155706 -0.09113202 -0.092116095 -0.009804733 -0.09959947 0.053064857
0.08830999 -0.0056313714 0.0081264945 0.0005894273 -0.023631448 -0.061002474 -0.019506564 0.12324842
-0.012430472 -0.093702026 0.040237226 0.10284426 -0.05397298 -0.074691266 0.03524414 0.089177005
-0.044660073 -0.10680794 0.062803134 0.04611759 0.00717001 0.0081150755 -0.028625164 0.019852981
-0.00022522677 -0.04012067 -0.03361076 -0.014771538 0.038707137 -0.11416781 -0.061879143 0.036133952
0.09519979 0.016113056 0.026571669 0.034051564 0.09790573 0.05238014 0.002451989 -0.056357343
-0.13627912 -0.011095225 0.049663745 -0.08602416 0.0093165245 -0.038112413 -0.017297875 -0.063897036
0.07178878 -0.10595153 -0.07527957 0.08266994 -0.053125236 -0.039406452 0.042342346 -0.11563661
0.0082584685 -0.036914643 0.020468174 -0.0012633078 -0.0565969 -0.11866179 -0.08255412 0.10347526
0.033354625 0.08365016 -0.034098256 -0.03434047 0.03686149 0.07195893 -0.0672613 0.05950328

mean.4.weight f4 [4, 96]
00000000: 4a98 a3bd a22a acbd da6c 14be e14a 393d
00000010: 9e88 0b3d d04e a6bc 5e5d a03d 5e3f 883d
00000020: 8a8a 273d 3b7e 5dbd 5bd5 c13c c59a 0dbd
00000030: 4271 28bd 3b91 753b c9f1 c13d ea18 243d
00000040: 7c62 babd 2da5 14bd 1aa9 a63d 3021 67bc
00000050: e29d 8dbd e284 e83c 745b 5e3c 750c 0f3b
00000060: d350 353d ada1 823d bd62 9bbd 5212 d6bc
00000070: d75a 963c 94e0 1a3d 1012 a7bd e914 be3d
00000080: 6ed4 8b3d bb17 8ebd ca86 f83d 3000 a03c
00000090: 678e 1cbc 603d 31bd 7f19 4e3d 57e1 093e
000000a0: af89 24bd 6536 51bc 033f f93c 55c6 603d
000000b0: 0524 863c ee14 043d 09d5 8a3c 091f c2bd
000000c0: f5a2 8e3d 0754 0c3d 6a63 9d3d 30a0 f3bc
000000d0: eeae e23d 71dd e1bc 5e1b 6abc 3ddd 75bc
000000e0: 16e3 e9bc 3b7e 54bc c573 673c 1c85 94bd
000000f0: 10ff 86bd 6b96 d73d f5b1 30bd 5510 90bb
00000100: 0755 c3bd 4e0d 83bd f37c d33c 3f03 a0bd
00000110: 93c9 6bbd f685 0f3c 4235 8bbd cd4b 8c3d
00000120: fcc9 ff3c 823e abbd e141 cfbb aa5e e73c
00000130: e3b5 8abd c67c 96bd e2f4 953d bdf7 12bd
00000140: 04c1 893d 0b29 a03b 917a 953d 3947 373d
00000150: 1f60 04be a2c2 b9bd 1844 113d 30da a03d
00000160: 4ab8 9abd 0512 fe3c c3da 8cbc 028e f83c
00000170: 5be6 b4bd 1b82 0cbd b2f5 24bc 0db4 633d
00000180: 99d3 a7bb e4ff 34bd 7034 aebd df53 be3d
00000190: 748f 443d 5eef 9f3a 847c 0c3d e20b c23d
000001a0: 7e9b bebd 07ac 793d d3a0 e2bc 4172 83bd
000001b0: 5224 9d3d 03dc 673d 9081 96bd d53e 873c
000001c0: b426 5fbd 9252 a7bd e165 8dbd 3be7 bc3d
000001d0: 19e9 9abd 60b6 9cbd a2db 1ebe 5056 4c3d
000001e0: e54c a6bc b427 8dbd 3c52 ed3a 1120 90bc
000001f0: 770c f2bd 9952 c1bd 2c69 23bd 44ef b43d
00000200: 8c47 cebb 4cb4 58bd 0aa3 d63c ec15 8a3d
00000210: 8c84 b83d 8e9d 623d 1162 b8bd 23e1 e53d
00000220: 5f2d 8abc 05b4 743d 5a81 8fbd 2fa2 113e
00000230: 35c0 b3bd 8246 9d3d 4b43 653d 7283 423d
00000240: 37ef 0e3d 3c54 a9bd 7106 5fbd 5dd7 c53d
00000250: 0959 883d 90cf 0abd 821d 313d c445 44bc
00000260: cd2b 393d f65a cfbd 83c1 a1bc a491 28bd
00000270: 1065 a9bd 241b 8cbd 1977 a6bc d13c 18bc
00000280: 61ed 523d d68b a73d 32d2 d63d 3de4 c4bb
00000290: b8bc bfbb fb53 e33d 7a18 803d d2eb 9ebd
000002a0: bf73 84bd 67fa 99bd 5dba 543d 692b 933d
000002b0: d1ca a0bd 055a 923d 5736 a43d f21e 65bb
000002c0: e7f8 553d d984 733c 7965 8abd 524e 4fbd
000002d0: 66cf ecbd 9280 473d aa5d 0dbc 3cab 5b3d
000002e0: d52e 8b3d 71f6 d2bd 76f0 b5bd 81d5 dd39
000002f0: ad9b 24be 6b28 623d cd9e 153e b06c 613c
00000300: db3a 6ebd 39df e13d 7d5a d0bc fd20 693d
00000310: 778f 693d 0272 a83d 9d0f 823d 6ac1 903c
00000320: ce78 823d 7e8a c53d f2cb d7bd 4a66 ae3b
00000330: 3f8f 19bd 8ccc 50bd 8d22 2e3d d60c abbd
00000340: fb86 533d f543 dcbc 831a c63c e693 18bd
00000350: 2a0c 95bd 1021 a43d 1f34 b0bd 78ed 753d
00000360: 7cc9 1c3e 120a c5bd 95e5 2a3c 218f e23d
00000370: 7c08 0ebe 2c65 a4bd f6a9 0bbd a744 22bd
00000380: 0dac e03d 8e69 b03d a74b c6bc bc7b 603c
00000390: ca55 cd3d 266a 62bd 7afd 84bb 2c11 9e3d
000003a0: 06e2 92bd 5b0b 09bd 4772 383d 4fb3 aa3d
000003b0: 897a 5a3d 5912 0a3d e5b8 9abd 7520 ee3c
000003c0: 4600 753e 2a75 9fbb cb97 60bc e66f fd3c
000003d0: 330f 70bd 4ab8 b9bb 22b2 573c 0522 8e3d
000003e0: 66e4 253d 6b1d 80bd 2d25 7b3d e3b9 683d
000003f0: eda8 11be 578e 82bd b3c6 5dbd 7514 9dbd
-0.07988031 -0.08406569 -0.14494649 0.045237426 0.034065835 -0.020301253 0.078303084 0.06652711
0.040903606 -0.05407546 0.023661306 -0.034571428 -0.041123636 0.0037470597 0.09469945 0.040062822
-0.09100816 -0.036290336 0.08137722 -0.014107034 -0.069148794 0.028383676 0.013571609 0.0021827493
0.044266533 0.063784935 -0.07587192 -0.026131783 0.018353863 0.03781183 -0.08157742 0.09281332
0.06827627 -0.0693812 0.12135084 0.01953134 -0.009555436 -0.043271422 0.050317284 0.13464867
-0.040170368 -0.012769316 0.030425554 0.054876644 0.016374597 0.032246523 0.016947286 -0.09478576
0.06964675 0.034259822 0.07684977 -0.02973947 0.110685214 -0.027571412 -0.014288751 -0.015006361
-0.028550666 -0.012969549 0.014126723 -0.07251951 -0.06591618 0.10526737 -0.043138463 -0.004396478
-0.09537702 -0.06399022 0.025816416 -0.07813119 -0.057565283 0.008759966 -0.067972675 0.06850395
0.031224243 -0.08361532 -0.006324992 0.028243382 -0.067729734 -0.073480174 0.07322098 -0.035880793
0.06726268 0.004887705 0.07298768 0.044745658 -0.12927292 -0.090703264 0.03546533 0.07854116
-0.075546816 0.031014452 -0.017194157 0.030341152 -0.08832999 -0.034303766 -0.010068344 0.05559163
-0.00512166 -0.04418935 -0.085060954 0.09293341 0.04798837 0.0012202074 0.034298435 0.09474923
-0.093070015 0.060955074 -0.027664578 -0.064182766 0.07672943 0.056606304 -0.07348931 0.016509453
-0.05448027 -0.08170046 -0.069041975 0.09223791 -0.07563991 -0.07651973 -0.15513471 0.049887
-0.020300338 -0.068923384 0.0018106173 -0.017593415 -0.11818784 -0.094395824 -0.03989522 0.08834699
-0.00629515 -0.05290632 0.02620079 0.067424625 0.09009656 0.055326037 -0.0900308 0.11224582
-0.016867338 0.059741993 -0.07007094 0.14222024 -0.08776895 0.07679464 0.05597238 0.047488637
0.0348961 -0.082680196 -0.054449502 0.09660218 0.06657607 -0.033889353 0.04324103 -0.011979524
0.045207787 -0.10124771 -0.019745594 -0.04115452 -0.08271229 -0.06841114 -0.020320462 -0.0092918435
0.051495913 0.081809685 0.1048931 -0.0060086534 -0.0058513544 0.111000024 0.062546685 -0.07759823
-0.06467389 -0.075184636 0.051935542 0.07186014 -0.07851184 0.07146076 0.08018177 -0.0034961072
0.052239325 0.014863216 -0.067576356 -0.0506118 -0.115629956 0.0487066 -0.008628288 0.0536301
0.06796042 -0.10300911 -0.08883755 0.00042311478 -0.1607501 0.055214327 0.14611359 0.013758823
-0.058161598 0.110289045 -0.025433773 0.056916226 0.057021584 0.0822487 0.06350634 0.017670352
0.06370698 0.09645556 -0.10536946 0.0053222524 -0.037490126 -0.05097632 0.04251342 -0.08352058
0.0516424 -0.026887873 0.024182564 -0.037250422 -0.07277711 0.08014119 -0.08603691 0.06004092
0.15311235 -0.096210614 0.010430713 0.11062456 -0.13870424 -0.080271095 -0.034097634 -0.039616253
0.10970316 0.08613883 -0.024205996 0.013701376 0.100261286 -0.055277012 -0.004058537 0.07718119
-0.07172017 -0.033458095 0.04503086 0.08334982 0.053339515 0.033708904 -0.07554797 0.029068211
0.23925886 -0.004866262 -0.013708065 0.030937146 -0.058608245 -0.005667721 0.013165029 0.069400825
0.04050102 -0.06255611 0.06131475 0.0568179 -0.14224596 -0.063748054 -0.054144572 -0.076699175

mean.4.bias f4 [4]
00000000: b11d 72bd 68d5 80bd 08b4 bcbc 5c30 a03d
-0.059110347 -0.06290704 -0.023035064 0.07821724

exp_avg f4 [4]
00000000: ff43 d037 d616 24b8 2270 3ab8 04ef 5438
2.4827195e-05 -3.9121915e-05 -4.4450288e-05 5.076734e-05

exp_avg_sq f4 [4]
00000000: b78d 0534 132e 0134 5bca ec33 c3f1 0734
1.2438146e-07 1.2030823e-07 1.10264146e-07 1.2660807e-07

exp_avg f4 [72, 24]
00000000: 1cc6 10b7 40a5 a0b5 bfc5 d334 8cf4 c335
00000010: babf 2db8 b7cb 2037 9163 00b8 237c abb7
00000020: 52d4 c9b7 249f ec37 9f7c 48b7 1ce7 acb5
00000030: 5df2 8a37 4921 03b8 3abd 3bb7 63a0 3bb7
00000040: f30c 3fb7 8a00 47b7 472b 55b7 2e24 6cb7
00000050: 9072 84b7 12ae 9bb7 3669 d7b7 3191 2ab8
00000060: 33de 98b6 1630 c2b4 6814 c4b4 0240 c134
00000070: 4ef5 c9b7 37a9 d536 7599 a4b7 1312 87b7
00000080: 42b6 8bb7 09c0 8037 9565 06b7 a5dc 9535
00000090: 9235 2f37 c6da 9cb7 fa7b dbb6 ef9f dab6
000000a0: 6b75 ddb6 a828 e5b6 23ae f3b6 1e1a 06b7
000000b0: 5f87 13b7 18a4 28b7 2742 68b7 a837 c8b7
000000c0: 5892 1db6 4e1b d734 8380 4db6 175a a5b4
000000d0: 6b9a 7bb7 1ffa 6ab6 fab3 e4b6 2d81 bb36
000000e0: 8aca 5eb7 596a 0b37 848c 21b6 0dc1 db36
000000f0: e077 0337 1845 05b7 6b73 87b6 1e21 89b6
00000100: 8427 8db6 a428 95b6 a666 a0b6 a323 b2b6
00000110: 23b4 cbb6 d0aa f2b6 62b3 1fb7 e540 73b7
00000120: 3781 dc37 7b04 2c36 421f f633 c7f9 8ab6
00000130: ba33 f438 aeb5 88b7 6710 ac38 ddf1 6738
00000140: 946b a938 ac3d a4b8 5b84 0d38 8b70 4eb7
00000150: 85f9 56b8 6f80 a738 e4f7 f837 836b f837
00000160: 2e80 fc37 824e 0338 5734 0c38 4fb3 1a38
00000170: 0c53 2c38 9ee4 4838 f9e6 8b38 335c ec38
00000180: f94c 42b8 2b4e 90b6 b534 cab5 c856 0637
00000190: 78e1 55b9 3d1e c837 80e5 11b9 f966 b1b8
000001a0: 09e5 0db9 8bdc 0e39 3891 6cb8 709a bf37
000001b0: d1cd be38 d059 15b9 992f 5cb8 04fe 5bb8
000001c0: f8f9 5fb8 4665 69b8 64a5 79b8 6504 8ab8
000001d0: 82b4 9ab8 55ec b5b8 89e6 fcb8 2cc6 4fb9
000001e0: d54c d6b7 476d 82b4 e225 b0b6 bfc1 0b36
000001f0: a5b1 fcb8 4d0a 6637 47e6 afb8 9845 4ab8
00000200: 279e adb8 707b a838 67b4 22b8 fede 6c37
00000210: 7819 4838 595c 9db8 9909 03b8 851e 03b8
00000220: 6bad 05b8 6a6b 0bb8 ca30 15b8 9535 25b8
00000230: 0bc0 39b8 8266 5bb8 9e61 97b8 7478 f5b8
00000240: 99aa ca36 b8aa 9935 1449 34b6 209e f3b5
00000250: 88d5 8b37 ff0e 88b6 61e8 5637 9bf3 6837
00000260: f343 1d37 f681 6fb7 81f2 9536 f8e7 1c36
00000270: 4aeb adb6 5030 3d37 0b4a 7c36 13ba 7b36
00000280: 6509 8136 de53 8736 3aaf 9236 1bdb a436
00000290: 1307 bf36 3470 ee36 1c42 2e37 b757 8237
000002a0: 16e6 f537 6242 f435 893b 1036 c605 aab6
000002b0: 7261 0539 384e b7b6 1762 ab38 94d6 ef37
000002c0: 5689 ae38 087f b9b8 432d 3338 96cf 89b7
000002d0: ed00 86b8 3649 9638 ca6b 0138 7c71 0138
000002e0: 5232 0438 9e68 0a38 4eb0 1438 9fe8 2438
000002f0: 69b6 3a38 a2d8 5e38 8841 9b38 8cd1 fc38
00000300: 8d62 87b7 d6fd bdb5 a9f2 4335 1bac 2836
00000310: b7ee 8db8 e726 1637 c88d 4db8 886f 06b8
00000320: 17b1 43b8 8b71 4438 f01a b0b7 fbc9 9c36
00000330: 9f2f f137 a878 43b8 64f1 8eb7 2f89 8eb7
00000340: 1ff0 90b7 08c8 96b7 0929 a1b7 3b0e b2b7
00000350: c101 c7b7 38d7 e9b7 d005 24b8 bb00 89b8
00000360: c2b7 3836 6dca 97b4 1167 0336 9027 bfb3
00000370: d98a a937 0de2 a133 a897 6637 1f90 5536
00000380: 8b6e 4537 4694 4db7 0382 5836 da65 35b5
00000390: 1614 81b6 e074 4e37 cad5 c436 784b c636
000003a0: 38b1 cb36 2677 d636 ac79 e736 3f1c 0137
000003b0: 8f5d 1437 23b5 3337 7ef5 6f37 54c7 a937
000003c0: 1a9f 9337 4590 2436 1c30 a6b5 f221 81b6
000003d0: f033 9d38 8e78 5ab7 a958 5338 4631 0438
000003e0: 69d8 3f38 3f63 58b8 f600 bc37 0029 d7b6
000003f0: 90cb 2eb8 d080 5638 f56a 9f37 eb5b 9f37
-8.629195e-06 -1.1969023e-06 3.9445692e-07 1.4599805e-06 -4.1424973e-05 9.584174e-06 -3.0610307e-05 -2.0442594e-05
-2.4059937e-05 2.8207498e-05 -1.1949945e-05 -1.288226e-06 1.6563741e-05 -3.1263833e-05 -1.1190126e-05 -1.11834115e-05
-1.1387502e-05 -1.186145e-05 -1.2705866e-05 -1.407512e-05 -1.5788974e-05 -1.8558498e-05 -2.567899e-05 -4.066638e-05
-4.5558204e-06 -3.6170303e-07 -3.6522692e-07 3.5995623e-07 -2.4075296e-05 6.367594e-06 -1.9621782e-05 -1.610167e-05
-1.6654962e-05 1.5348212e-05 -8.010674e-06 1.1165581e-06 1.0443286e-05 -1.8698523e-05 -6.5411414e-06 -6.515525e-06
-6.5999825e-06 -6.829465e-06 -7.2622365e-06 -7.993103e-06 -8.793401e-06 -1.0051786e-05 -1.384368e-05 -2.3867775e-05
-2.3480006e-06 4.0066737e-07 -3.0622184e-06 -3.0799194e-07 -1.4996719e-05 -3.5014307e-06 -6.8158815e-06 5.5880723e-06
-1.3279388e-05 8.309807e-06 -2.407266e-06 6.5491827e-06 7.836119e-06 -7.943505e-06 -4.03675e-06 -4.0867735e-06
-4.2067277e-06 -4.445277e-06 -4.7803214e-06 -5.308962e-06 -6.070842e-06 -7.232047e-06 -9.518904e-06 -1.4499038e-05
2.6286214e-05 2.5632605e-06 1.14609534e-07 -4.1417984e-06 0.000116444615 -1.6297065e-05 8.204654e-05 5.5299945e-05
8.078586e-05 -7.831617e-05 3.3740285e-05 -1.230476e-05 -5.125396e-05 7.987103e-05 2.9679337e-05 2.9613968e-05
3.010043e-05 3.130595e-05 3.3427346e-05 3.6883455e-05 4.108534e-05 4.7896632e-05 6.6710585e-05 0.000112705304
-4.632489e-05 -4.3006344e-06 -1.5065513e-06 8.007228e-06 -0.00020397257 2.3855939e-05 -0.00013913773 -8.459198e-05
-0.0001353213 0.00013624334 -5.640203e-05 2.284089e-05 9.098242e-05 -0.00014243205 -5.2496416e-05 -5.245024e-05
-5.3400145e-05 -5.5645847e-05 -5.952026e-05 -6.581171e-05 -7.3769144e-05 -8.674773e-05 -0.00012059237 -0.00019814883
-2.5546566e-05 -2.4293897e-07 -5.249619e-06 2.082539e-06 -0.00012049385 1.3711467e-05 -8.387543e-05 -4.8225367e-05
-8.278741e-05 8.033856e-05 -3.8791823e-05 1.4118616e-05 4.7707435e-05 -7.5035445e-05 -3.1241772e-05 -3.1261257e-05
-3.187118e-05 -3.324022e-05 -3.5569807e-05 -3.9388968e-05 -4.428629e-05 -5.2309137e-05 -7.218424e-05 -0.000117049465
6.0399293e-06 1.1449074e-06 -2.6864627e-06 -1.8150931e-06 1.6669524e-05 -4.0548616e-06 1.2809499e-05 1.3884996e-05
9.37375e-06 -1.4275769e-05 4.468777e-06 2.3380835e-06 -5.183193e-06 1.12765265e-05 3.7594025e-06 3.7510224e-06
3.8455933e-06 4.033077e-06 4.371538e-06 4.913088e-06 5.693067e-06 7.106015e-06 1.03866005e-05 1.5538053e-05
2.9313418e-05 1.8198737e-06 2.1492326e-06 -5.067067e-06 0.0001272017 -5.462931e-06 8.172186e-05 2.8590941e-05
8.3225474e-05 -8.845149e-05 4.271908e-05 -1.6428337e-05 -6.38979e-05 7.166194e-05 3.0856383e-05 3.0861687e-05
3.1518117e-05 3.2999196e-05 3.5450146e-05 3.9317292e-05 4.451574e-05 5.313068e-05 7.403182e-05 0.000120553275
-1.6139145e-05 -1.4155473e-06 7.299628e-07 2.513413e-06 -6.767868e-05 8.949754e-06 -4.9007853e-05 -3.205196e-05
-4.665655e-05 4.6835787e-05 -2.0993379e-05 4.672676e-06 2.8751614e-05 -4.6603993e-05 -1.7040125e-05 -1.69916e-05
-1.7277953e-05 -1.797454e-05 -1.9211804e-05 -2.122588e-05 -2.3723465e-05 -2.7875984e-05 -3.910606e-05 -6.532805e-05
2.7525098e-06 -2.8273226e-07 1.9580514e-06 -8.901327e-08 2.0211026e-05 7.538265e-08 1.37443785e-05 3.1823363e-06
1.1767853e-05 -1.2253475e-05 3.2262185e-06 -6.757597e-07 -3.846838e-06 1.2305769e-05 5.8661435e-06 5.9096456e-06
6.0705024e-06 6.3915677e-06 6.898501e-06 7.695576e-06 8.843271e-06 1.0711406e-05 1.4302668e-05 2.023919e-05
1.7597853e-05 2.452188e-06 -1.2381965e-06 -3.8484513e-06 7.4960175e-05 -1.3021881e-05 5.038889e-05 3.1517142e-05
4.5739496e-05 -5.1590843e-05 2.2411794e-05 -6.4122723e-06 -4.1674415e-05 5.1141542e-05 1.9004083e-05 1.899708e-05
