model/walker.pt (torch_old, 681820 bytes, 24 tensors)

logstd f4 [4]
-1.5308243 -3.3254426 -2.5508618 -2.7063494
00000000: 0df2 c3bf 0dd4 54c0 5241 23c0 d434 2dc0

critic.0.weight f4 [192, 24]
-0.009033481 -0.17498638 -0.23504354 -0.4677103 0.04879306 -0.0529019 0.08885252 -0.016174763
-0.030114166 -0.06359639 0.016327605 0.050082598 0.011938816 0.0048140036 0.22889522 -0.23745771
0.0007462631 -0.14937069 -0.2934237 -0.28256875 -0.26340362 -0.0736613 0.19432835 0.1727337
-0.27085802 0.21818879 0.09869951 -0.16846493 0.004890879 0.0062400564 0.023586418 0.00025110322
-0.014090796 -0.09886855 0.024991326 0.20534635 -0.028101755 -0.006780159 0.041010354 0.093886785
0.106132805 -0.10079962 -0.15600634 0.006796206 0.20468439 -0.13971072 0.11307494 -0.18062575
0.27315995 -0.09768369 -0.17270823 0.080908135 0.15420574 -0.033850558 0.023921901 0.017863248
0.0018925582 0.17878258 0.04078731 -0.01315645 0.03330382 0.025642639 -0.08140632 0.1344289
-0.1416879 0.038431827 0.15099627 -0.23688422 -0.25709835 0.015921053 -0.11089951 -0.015423943
-0.2569027 0.4093219 0.11262864 -0.19445474 -0.098658025 0.038538463 -0.09927835 0.029725322
-0.015461007 -0.17720687 -0.012618282 -0.040420126 0.012808572 0.007124919 -0.20456113 -0.2558021
-0.16103107 -0.16434811 0.025234757 0.050144102 -0.04780528 0.06555309 0.081539445 0.071070805
0.34648004 0.46776536 -0.70009303 0.3916019 0.018315682 -0.013842439 -0.07851608 3.3374326e-05
0.016709078 -0.16169278 0.033652317 0.059060227 0.0058318195 -0.009684961 0.22159949 0.108893886
0.0027546436 0.1676765 0.20960252 -0.0090741115 0.007243647 -0.22911114 -0.14948724 0.20814067
-0.27507222 0.022729475 0.038707763 0.045145858 -0.15502663 -0.10811922 -0.09738745 -0.0035752754
0.015438989 -0.06547587 0.06025476 -0.04152693 0.063105375 -0.04439453 0.31674126 0.12592068
0.1540938 0.1709257 -0.08183534 -0.19134098 -0.047496412 -0.24706562 0.19913536 -0.060590032
-0.40057504 0.055695802 0.168423 -0.16211365 0.27567813 0.01512479 -0.059342846 -0.00039400253
0.0046887277 0.06315793 0.021760328 0.086935475 -0.015222113 0.054440893 -0.022743627 -0.19238259
-0.17362931 -0.1951031 0.024364758 -0.24363141 -0.115852244 0.03000431 0.026660351 0.03479004
-0.41814682 -0.119146526 -0.17811291 -0.09579473 -0.05764869 -0.03322662 -0.012961626 -0.0144177
0.026401842 0.062696 -0.01555096 0.014517148 -0.04023272 -0.011943759 0.33356896 0.12305487
-0.20401774 0.0018648865 0.11038615 -0.09453889 0.1329044 0.09461551 -0.09005149 -0.17651731
0.22674128 0.19268517 -0.3957151 -0.11704903 0.039766055 0.0059514446 -0.106550865 0.0072042053
-0.016777553 -0.087796524 -0.048487943 -0.07139264 -0.013904132 0.033687152 0.11976661 0.094372705
0.024406875 -0.00649795 -0.042842954 -0.055449102 -0.21387033 -0.13728443 0.028425919 0.13313311
-0.2122463 -0.04122397 -0.29828694 -0.34407148 -0.026358586 0.035355493 0.08083054 -0.008932865
-0.030657152 -0.121833384 -0.012003214 0.039678875 0.0024338455 -0.06892351 0.010684555 -0.119391
0.16682012 0.2416932 -0.117450394 -0.052500345 -0.14651036 -0.100225024 -0.10215674 -0.025326356
-0.50266165 -0.553942 -0.21356651 -0.34938794 0.21250053 0.04286324 0.06734251 -0.009621331
-0.019454889 0.073913395 -0.1486372 -0.17377116 -0.056722432 -0.034125272 0.2629724 -0.1942074
00000000: 2a01 14bc a12f 33be 41af 70be b977 efbe
00000010: 3bdb 473d aaaf 58bd 4ff8 b53d f080 84bc
00000020: fcb1 f6bc d33e 82bd 78c1 853c 6923 4d3d
00000030: 069b 433c cabe 9d3b 8263 6a3e 1d28 73be
00000040: dea0 433a a1f4 18be a23b 96be daac 90be
00000050: d7dc 86be bcdb 96bd 03fe 463e 1ae1 303e
00000060: e7ad 8abe e26c 5f3e f822 ca3d 1282 2cbe
00000070: ab43 a03b 6379 cc3b 4e38 c13c 81a6 8339
00000080: 15dd 66bc 987b cabd 9cba cc3c 5046 523e
00000090: a735 e6bc 192c debb 79fa 273d b747 c03d
000000a0: 285c d93d 0870 cebd 20c0 1fbe b5b2 de3b
000000b0: c998 513e 5410 0fbe d693 e73d f5f5 38be
000000c0: 9fdb 8b3e 630e c8bd 6dda 30be 2ab3 a53d
000000d0: 1ce8 1d3e e2a6 0abd ddf7 c33c f255 923c
000000e0: b70f f83a c812 373e 9810 273d 278e 57bc
000000f0: 9669 083d 8310 d23c 5bb8 a6bd bba7 093e
00000100: a216 11be b16a 1d3d c49e 1a3e c791 72be
00000110: 65a2 83be de6c 823c 481f e3bd b5b4 7cbc
00000120: c088 83be a492 d13e d8a9 e63d 251f 47be
00000130: 380d cabd 82da 1d3d 7352 cbbd 8582 f33c
00000140: 2a50 7dbc b875 35be e9bc 4ebc 938f 25bd
00000150: 0bdb 513c 2778 e93b 7978 51be 7ef8 82be
00000160: 54e5 24be df4a 28be 1fb9 ce3c e763 4d3d
00000170: 78cf 43bd b340 863d 27fe a63d 928d 913d
00000180: d565 b13e f17e ef3e 4c39 33bf 0b80 c83e
00000190: c50a 963c 66cb 62bc 0acd a0bd 69fb 0b38
000001a0: 7ae1 883c cb92 25be 03d7 093d 23e9 713d
000001b0: d918 bf3b acad 1ebc faea 623e c203 df3d
000001c0: 4087 343b 63b3 2b3e 0ba2 563e 95ab 14bc
000001d0: 1d5c ed3b 1c9c 6abe 2f13 19be d422 553e
000001e0: 44d6 8cbe 2a33 ba3c 088c 1e3d ddea 383d
000001f0: 4dbf 1ebe 9c6d ddbd 1273 c7bd 2b4f 6abb
00000200: d0f3 7c3c 3718 86bd b2cd 763d 2418 2abd
00000210: 643d 813d 0ad7 35bd e92b a23e 5af1 003e
00000220: c4ca 1d3e 2607 2f3e 4999 a7bd e4ee 43be
00000230: 998b 42bd c5fe 7cbe 24ea 4b3e 412d 78bd
00000240: 2c18 cdbe 4821 643d 1477 2c3e 1f01 26be
00000250: af25 8d3e f8cd 773c 7c11 73bd 2092 ceb9
00000260: e6a3 993b f258 813d b742 b23c 3a0b b23d
00000270: 2b66 79bc 6afd 5e3d d850 babc f1ff 44be
00000280: e2cb 31be 1bc9 47be 9a98 c73c 837a 79be
00000290: f143 edbd 99cb f53c cf66 da3c 0080 0e3d
000002a0: 5717 d6be 1803 f4bd 3b63 36be 0730 c4bd
000002b0: 0821 6cbd a318 08bd 005d 54bc 3738 6cbc
000002c0: ad48 d83c c366 803d 74c9 7ebc 55d9 6d3c
000002d0: 11cb 24bd c2af 43bc 8dc9 aa3e 3104 fc3d
000002e0: 07ea 50be 356f f43a 2212 e23d 9b9d c1bd
000002f0: 1718 083e c7c5 c13d ea6c b8bd f4c0 34be
00000300: de2e 683e 434f 453e 2b9b cabe 67b7 efbd
00000310: bbe1 223d 5604 c33b 5737 dabd 4111 ec3b
00000320: 1471 89bc aace b3bd 4b9b 46bd 4e36 92bd
00000330: 28ce 63bc 8afb 093d 3248 f53d 7a46 c13d
00000340: edf0 c73c c1ec d4bb 187c 2fbd 991e 63bd
00000350: d300 5bbe 4a94 0cbe 79dd e83c 0c54 083e
00000360: 1857 59be 77da 28bd 11b9 98be 232a b0be
00000370: f6ed d7bc ecd0 103d 7b8a a53d 275b 12bc
00000380: b524 fbbc c883 f9bd 21a9 44bc 5186 223d
00000390: 2781 1f3b c527 8dbd 460e 2f3c 4583 f4bd
000003a0: e5d2 2a3e 6c7e 773e d589 f0bd 9a0a 57bd
000003b0: d006 16be c742 cdbd 8e37 d1bd 3879 cfbc
000003c0: 6fae 00bf 25cf 0dbf 2eb1 5abe fae2 b2be
000003d0: bd99 593e 5d91 2f3d dfea 893d c9a2 1dbc
000003e0: dc5f 9fbc e85f 973d 5a34 18be 11f1 31be
000003f0: c855 68bd f1c6 0bbd 52a4 863e 4ede 46be

critic.0.bias f4 [192]
0.17867595 -0.011140668 0.1360585 0.12375733 0.061837412 -0.07203282 0.14278935 -0.100524575
-0.011226815 0.21918036 0.07553706 -0.072788805 -0.048406992 0.15240586 -0.017861152 0.14086264
0.14834589 -0.06538361 0.023750475 -0.15331157 0.12663455 0.066287756 -0.10400723 -0.044067446
-0.080795795 -0.049314402 -0.06922783 0.19814357 -0.058666356 0.011479043 -0.117124155 -0.17073852
-0.031798024 -0.19702533 -0.14698288 -0.031564582 -0.09216464 -0.10398913 0.1883074 0.0408827
-0.10263937 -0.12614764 0.10792879 -0.056979787 0.08398269 0.13848059 -0.06816852 0.033385884
0.036267333 0.065823846 0.14399552 0.24056433 0.15169282 -0.098473355 0.16140136 0.09910879
-0.037104543 -0.12467005 -0.06450398 0.05144625 -0.026088903 -0.17701854 -0.1867017 -0.16719578
0.010745282 -0.21487594 -0.0065118177 0.0614177 -0.18014365 0.014737136 -0.11554058 -0.071811974
-0.01805188 0.122883864 -0.04288942 0.06705316 0.0037065484 -0.21437469 -0.0066785687 0.2423225
0.068558395 0.25655976 -0.21388459 0.11284767 -0.25098565 -0.06845696 -0.11689417 0.20569646
0.105959535 0.13783231 -0.16705069 -0.14127152 -0.27706623 0.11473381 0.0078051765 -0.26918834
0.15075932 0.19214787 -0.17500493 -0.23621534 -0.15679839 -0.17779276 -0.043020044 -0.21446545
0.10052242 0.107871674 0.08079733 -0.13400042 -0.028951196 0.119709805 0.11135181 -0.26065913
0.26507974 0.1564764 -0.1967634 -0.02677948 -0.18044564 0.1563128 -0.13601257 0.12799051
0.026978092 -0.22696376 0.010761335 0.036461473 -0.020682937 -0.05882736 0.22557555 0.16805743
0.10439532 0.02941548 0.10314349 -0.08406631 -0.012578387 0.01187279 0.20911875 -0.15059872
-0.0022744508 -0.09407536 0.2182734 -0.039139073 -0.07372203 0.025753962 -0.195237 -0.120083645
0.0991573 -0.028981563 -0.15022478 -0.1140742 -0.15445457 0.11048142 -0.12689854 -0.115234114
-0.15419059 0.19009829 0.04722884 -0.03494566 -0.06385107 -0.026237471 -0.09015334 -0.019951083
-0.15696037 0.023713307 -0.15859266 -0.2663066 0.052991506 -0.088599205 -0.041530915 0.028782602
0.19084011 -0.083314545 0.041879136 -0.02365477 -0.14893976 0.04556085 0.07487093 -0.026652807
-0.072926804 0.015142759 -0.13429461 -0.034246914 0.076814026 0.24459508 0.09498161 -0.04023074
-0.062977426 0.024645451 0.21071431 -0.0731735 -0.06501142 0.19975935 0.240608 -0.1347754
00000000: d4f6 363e 5987 36bc eb52 0b3e 7c74 fd3d
00000010: 3a49 7d3d f185 93bd 5f37 123e d4df cdbd
00000020: adf0 37bc d170 603e 2db3 9a3d 4c12 95bd
00000030: 6946 46bd 4810 1c3e 8d51 92bc 4c3e 103e
00000040: fce7 173e d8e7 85bd 5b90 c23c b5fd 1cbe
00000050: 7dac 013e e0c1 873d be01 d5bd 1180 34bd
00000060: 4478 a5bd e6fd 49bd 52c7 8dbd 26e6 4a3e
00000070: 224c 70bd 9912 3c3c cade efbd 14d6 2ebe
00000080: a53e 02bd 02c1 49be ae82 16be dd49 01bd
00000090: d1c0 bcbd 41f8 d4bd a8d3 403e 9e74 273d
000000a0: 9734 d2bd d92c 01be c509 dd3d a363 69bd
000000b0: 1eff ab3d dbcd 0d3e f09b 8bbd a3bf 083d
000000c0: 0e8d 143d a7ce 863d 9073 133e 7f56 763e
000000d0: 5d55 1b3e 66ac c9bd 6646 253e 8df9 ca3d
000000e0: effa 17bd 0353 ffbd aa1a 84bd 4eb9 523d
000000f0: 65b8 d5bc 5944 35be bb2e 3fbe 5f35 2bbe
00000100: fb0c 303c 7008 5cbe 1661 d5bb 2091 7b3d
00000110: 9477 38be 0774 713c 8aa0 ecbd 2812 93bd
00000120: 89e1 93bc 89aa fb3d d1ac 2fbd 2b53 893d
00000130: 90e9 723b 0a85 5bbe e5d7 dabb 6423 783e
00000140: 5868 8c3d cd5b 833e 9004 5bbe ae1c e73d
00000150: 3181 80be 2a33 8cbd 3666 efbd 18a2 523e
00000160: 5001 d93d ea23 0d3e 560f 2bbe 7ba9 10be
00000170: a0db 8dbe 8ff9 ea3d 91c2 ff3b 0ed3 89be
00000180: a760 1a3e 69c2 443e 7e34 33be 6fe2 71be
00000190: c28f 20be 4e0f 36be c935 30bd d59c 5bbe
000001a0: b3de cd3d d3eb dc3d 1279 a53d 6837 09be
000001b0: 0f2b edbc 6a2a f53d 6b0c e43d 1d75 85be
000001c0: 88b8 873e 593b 203e 587c 49be a460 dbbc
000001d0: bec6 38be 7610 203e e146 0bbe f20f 033e
000001e0: 2901 dd3c 3069 68be 4f50 303c a058 153d
000001f0: 436f a9bc f5f4 70bd 47fd 663e 3f17 2c3e
00000200: 37cd d53d bcf8 f03c e53c d33d f52a acbd
00000210: 9415 4ebc 1786 423c 3a23 563e 8d36 1abe
00000220: f40e 15bb 95aa c0bd 1083 5f3e 4b50 20bd
00000230: 93fb 96bd f9f9 d23c 35ec 47be 6aee f5bd
00000240: fc12 cb3d be6a edbc 86d4 19be bc9f e9bd
00000250: 5729 1ebe 1544 e23d b1f1 01be ddff ebbd
00000260: 23e4 1dbe 20a9 423e 0773 413d 2e23 0fbd
00000270: 5ac4 82bd f7ef d6bc 50a2 b8bd 7470 a3bc
00000280: 38ba 20be 6942 c23c 1d66 22be 5759 88be
00000290: 9f0d 593d 8073 b5bd 521c 2abd 7ec9 eb3c
000002a0: 976b 433e d1a0 aabd 7589 2b3d a6c7 c1bc
000002b0: aa83 18be 049e 3a3d ee55 993d fd56 dabc
000002c0: a65a 95bd 5619 783c 8784 09be 7e46 0cbd
000002d0: ac50 9d3d 2277 7a3e b885 c23d fdc8 24bd
000002e0: 4ffa 80bd 42e5 c93c 7ec5 573e fddb 95bd
000002f0: b524 85bd b78d 4c3e f261 763e 9002 0abe

critic.2.weight f4 [192, 192]
0.029779451 0.010286325 0.08048282 -0.022354575 -0.046740677 -0.020594744 -0.051236834 -0.014988723
-0.008435441 0.08010973 0.008521905 -0.049336314 0.028853275 -0.07413985 -0.025115348 0.11621216
0.001399175 -0.0029580921 -0.07846971 -0.020107131 -0.0018934113 -0.009518222 -0.0276392 -0.094673224
-0.02875943 0.06938508 0.08247172 -0.031535156 -0.04320105 0.11767063 -0.0071744914 -0.019330218
0.049771927 -0.053286787 0.036143135 -0.108779155 0.020668289 0.07127762 0.11292816 -0.14251478
0.13228492 -0.02246491 0.08590123 -0.039983336 0.04248206 0.06826201 -0.06795495 0.070762895
0.07146589 -0.06460907 0.13710405 0.10346261 0.007124177 0.038984593 0.16091284 -0.09080645
-0.04063921 -0.09146641 -0.060134497 -0.03694911 -0.0950557 -0.01073288 -0.031111503 -0.07840562
0.08097704 0.06801005 0.00232687 0.02955881 0.046152677 0.08393799 0.045444597 0.019872246
0.0062856744 -0.1118557 0.0010385495 -0.001342728 -0.015070581 -0.1173145 0.05864858 0.046880547
0.04747993 0.003719793 -0.11971027 0.012877886 0.10507989 -0.05986826 0.092344895 0.0655631
0.03696261 0.0033884603 0.026888862 -0.008500759 -0.039321948 0.02923013 0.058358602 -0.009337801
0.02891846 -0.06142584 0.08156955 -0.0384395 0.0075676413 -0.0706125 0.093014754 -0.05399789
-0.016599996 0.12511602 -0.17138617 -0.007614571 0.024737542 0.022335775 0.09360004 0.059566926
0.025003688 0.07188204 0.064685315 -0.06405585 -0.10721907 0.11288685 -0.024425609 0.046550937
-0.07344683 -0.034614123 0.113909945 -0.0025773218 -0.07347585 0.050795484 -0.0010750524 0.11456427
0.06806325 -0.06323648 -0.016446345 0.022257892 -0.08919063 -0.051722426 0.027245674 0.012892209
-0.074211024 -0.032780338 0.053442493 0.03583219 -0.018227328 0.13435431 0.037236463 -0.044212494
0.016824944 -0.007325647 -0.0425846 -0.034347802 0.08782557 -0.10821326 -0.044162102 0.06713137
0.14467236 0.040463794 -0.059072293 0.09728019 -0.09141075 0.018018978 -0.022091063 0.021794256
0.03884775 -0.004712546 0.004445816 0.03491491 -0.10851176 0.006155303 -0.0267692 -0.18917905
0.010843058 -0.07614676 -0.108715855 0.0037574545 0.021139015 0.14989616 0.086057276 0.017826492
0.007528544 0.0046864105 -0.09996966 0.043070223 0.015144923 0.036638334 0.038736787 -0.009142855
0.05967309 -0.12628742 -0.010850281 -0.04623137 0.06491264 -0.105867006 0.06252455 -0.01720786
0.010460598 -0.038341697 -0.0687171 0.09255364 -0.041118156 0.059553936 -0.019352105 0.019688025
-0.09814731 0.04820248 0.076126814 -0.019001998 -0.11377595 -0.02078339 -0.08570333 -0.0044163666
-0.004578472 0.015975859 -0.032424975 -0.069414236 0.07543985 0.0254106 0.091745846 -0.00706733
-0.09058048 -0.015690928 0.009644122 0.038945675 -0.048632693 0.05436534 0.01170959 0.018510714
0.053922992 -0.07122417 0.012018109 -0.04824283 -0.0043736226 -0.0011322786 -0.0076764273 0.02800797
-0.045652147 0.10898955 0.059517335 0.05412702 0.012240031 -0.00062655204 0.069209196 -0.08129308
-0.026041036 0.007186584 0.0124241365 0.074505664 0.063525245 0.038633343 0.047642026 -0.00819755
-0.039514847 0.00039671606 0.09998867 0.07871943 -0.019040355 0.008215695 -0.035262343 -0.06011355
00000000: 09f4 f33c f987 283c 2dd4 a43d f120 b7bc
00000010: 2773 3fbd 4fb6 a8bc b7dd 51bd 4393 75bc
00000020: ce34 0abc 9210 a43d 769f 0b3c e014 4abd
00000030: b45d ec3c a2d6 97bd b4be cdbc a400 ee3d
00000040: 8664 b73a 8ddc 41bb bab4 a0bd b6b7 a4bc
00000050: 572c f8ba 51f2 1bbc 9b6b e2bc 09e4 c1bd
00000060: e598 ebbc c419 8e3d efe6 a83d 022b 01bd
00000070: 96f3 30bd 4dfd f03d ff17 ebbb 685a 9ebc
00000080: a6dd 4b3d 3f43 5abd d30a 143d 9bc7 debd
00000090: 8b50 a93c 00fa 913d e146 e73d 65ef 11be
000000a0: b375 073e 5508 b8bc fcec af3d 91c5 23bd
000000b0: ab01 2e3d f4cc 8b3d f72b 8bbd 23ec 903d
000000c0: b55c 923d c351 84bd 0165 0c3e 34e4 d33d
000000d0: ee71 e93b 4fae 1f3d 56c6 243e bbf8 b9bd
000000e0: 4d75 26bd be52 bbbd 974f 76bd f357 17bd
000000f0: 90ac c2bd f6d8 2fbc 8ddd febc 2093 a0bd
00000100: 4ad7 a53d da48 8b3d 677e 183b 5125 f23c
00000110: 970a 3d3d aee7 ab3d 1d24 3a3d 1fcb a23c
00000120: 0ff8 cd3b 9a14 e5bd f01f 883a 7afe afba
00000130: 99ea 76bc 9642 f0bd 7e39 703d d105 403d
00000140: 517a 423d c5c7 733b a82a f5bd c5fd 523c
00000150: 2034 d73d 6c38 75bd 521f bd3d f245 863d
00000160: 1b66 173d ee10 5e3b 0846 dc3c c446 0bbc
00000170: 0d10 21bd 0774 ef3c 6e09 6f3d 93fd 18bc
00000180: 68e6 ec3c a999 7bbd f00d a73d bd72 1dbd
00000190: faf9 f73b 499d 90bd 857e be3d e42c 5dbd
000001a0: b7fc 87bc 6a1e 003e db7f 2fbe a783 f9bb
000001b0: 63a6 ca3c 84f9 b63c 61b1 bf3d 73fc 733d
000001c0: 89d4 cc3c e436 933d bc79 843d b72f 83bd
000001d0: ac95 dbbd 3931 e73d 3718 c8bc 32ac 3e3d
000001e0: 4b6b 96bd 8ac7 0dbd 9e49 e93d 49e8 28bb
000001f0: 827a 96bd ed0e 503d c6e8 8cba aca0 ea3d
00000200: bf64 8b3d 2182 81bd 7cba 86bc 2f56 b63c
00000210: 94a9 b6bd e5da 53bd 5232 df3c d839 533c
00000220: f3fb 97bd ad44 06bd 84e6 5a3d c6c4 123d
00000230: 7a51 95bc 2d94 093e 4385 183d 2918 35bd
00000240: 77d4 893c fb0b f0bb 316d 2ebd 48b0 0cbd
00000250: e4dd b33d ea9e ddbd 52e3 34bd 2c7c 893d
00000260: fe24 143e 5dbd 253d caf5 71bd d63a c73d
00000270: 8f35 bbbd 899c 933c 51f8 b4bc de89 b23c
00000280: d11e 1f3d b36b 9abb 35ae 913b f002 0f3d
00000290: 6a3b debd 6db2 c93b 154b dbbc 27b8 41be
000002a0: 15a7 313c d5f2 9bbd 6ba6 debd a03f 763b
000002b0: ba2b ad3c 617e 193e cc3e b03d dd08 923c
000002c0: 01b2 f63b 7690 993b e5bc ccbd 676a 303d
000002d0: 6922 783c 1412 163d 77aa 1e3d eacb 15bc
000002e0: c56b 743d 7d51 01be 61c5 31bc 1b5d 3dbd
000002f0: ebf0 843d cdd0 d8bd df0c 803d 7ff7 8cbc
00000300: ee62 2b3c 2f0c 1dbd 8dbb 8cbd c38c bd3d
00000310: 836b 28bd d4ee 733d 4e88 9ebc c848 a13c
00000320: 7501 c9bd f76f 453d 60e8 9b3d 14aa 9bbc
00000330: 5e03 e9bd ee41 aabc 3a85 afbd 2bb7 90bb
00000340: 0207 96bb cedf 823c 0dd0 04bd 0d29 8ebd
00000350: 3580 9a3d e429 d03c 3fe5 bb3d 1095 e7bb
00000360: 4282 b9bd 438a 80bc 6102 1e3c 8085 1f3d
00000370: 1333 47bd 31ae 5e3d 95d9 3f3c c8a3 973c
00000380: 5bde 5c3d fadd 91bd 9ae7 443c 469a 45bd
00000390: 9b50 8fbb f768 94ba 8a8a fbbb f870 e53c
000003a0: bffd 3abd ea35 df3d 73c8 733d 4bb4 5d3d
000003b0: 698a 483c 323f 24ba 8dbd 8d3d fc7c a6bd
000003c0: 0354 d5bc 707d eb3b 9b8e 4b3c 6d96 983d
000003d0: 8619 823d ff3d 1e3d 4924 433d 044f 06bc
000003e0: 52da 21bd 54fe cf39 dcc6 cc3d a737 a13d
000003f0: 85fa 9bbc 1f9b 063c 3f6f 10bd a039 76bd

critic.2.bias f4 [192]
-0.011279156 0.023057044 0.0076357564 -0.00387427 0.014120423 -0.017541943 -0.022092171 0.037314452
0.05000776 0.022643078 -0.009412295 -0.0050796326 -0.015591863 0.021161422 -0.049819704 -0.04218151
-0.009127734 0.0032195377 -0.008430955 -0.018560536 0.025303854 -0.008311928 -0.09600012 -0.035656076
-0.032919705 -0.092633255 -0.0009931169 -0.07589459 -0.033151157 0.04163225 0.01814985 -0.0646582
0.039801363 -0.039079633 0.004426987 -0.042553697 0.017091995 -0.024911882 -0.022506012 0.037177887
-0.051376913 0.019926505 0.01865553 0.0101387305 -0.037893984 -0.051624905 -0.053846065 0.013702531
0.005072296 -0.055935167 -0.01193982 -0.04015555 -0.0066145714 -0.02508866 0.0032479535 0.009334089
-0.033424024 0.011562722 -0.11636697 -0.034930013 0.0020422658 0.0239056 -0.02164724 -0.0069682314
-0.021248356 -0.05499223 -0.033995416 -0.006014155 -0.035636097 0.09722889 0.02995116 0.019070484
-0.022883497 -0.016939292 -0.013014729 -0.0043431143 0.024679407 -0.02526106 0.0034629654 0.045042258
-0.06124607 -0.031352047 -0.04865102 -0.03538682 -0.072169766 -0.055758193 -0.026866153 -0.0634096
-0.03559451 0.004059401 -0.01807478 0.010581003 -0.011500102 -0.061878115 -0.03361823 0.02293479
-0.06021329 0.013580973 0.05542348 0.0033205247 -0.019773906 -0.06176284 0.0059157787 -0.049053118
-0.010424052 0.022278586 -0.026697593 -0.05189447 -0.022990456 -0.016072735 0.015206936 -0.022386715
-0.004553265 -0.05357373 0.016984701 -0.039842088 -0.024917122 -0.047291275 -0.06280416 -0.054775823
0.019524809 -0.05468475 0.024612281 0.035701334 0.034259006 0.0046868725 0.05383073 -0.006281151
0.04436804 0.015375667 -0.06445559 -0.0497622 -0.009571426 0.053285476 -0.051268067 -0.013496999
-0.020087166 -0.04011934 -0.015758373 -0.016966857 0.027545488 -0.00017566167 -0.072942235 0.0043806997
0.010617333 -0.029903015 0.037784383 0.027732385 0.0038985847 0.007273467 -0.048866697 0.033167318
-0.019408943 0.024671115 -0.016283112 0.00840094 -0.006890027 -0.0027895847 -0.03495706 0.013568031
-0.03731261 -0.02245998 0.068341255 -0.024403423 0.017807676 0.015473241 0.0041830773 0.018100187
-0.031941827 -0.03527674 0.0077165375 2.311247e-05 -0.022832261 0.046091694 0.03818411 -0.1250495
0.06600883 0.035225283 -0.021061895 -0.040351193 0.01565157 0.020067902 0.04100983 -0.00079130905
0.032276053 -0.029455675 0.094989926 0.031813283 0.049687326 0.042294823 -0.06815654 -0.06379871
00000000: 36cc 38bc 20e2 bc3c 5e35 fa3b 77e7 7dbb
00000010: 5959 673c 1fb4 8fbc a4fa b4bc 0ad7 183d
00000020: f0d4 4c3d fa7d b93c 0736 1abc 0c73 a6bb
00000030: 0375 7fbc b85a ad3c bf0f 4cbd 85c6 2cbd
00000040: 7e8c 15bc e1fe 523b fd21 0abc 440c 98bc
00000050: 074a cf3c c12e 08bc b69b c4bd 1b0c 12bd
00000060: d0d6 06bd 81b6 bdbd 792b 82ba 9f6e 9bbd
00000070: 82c9 07bd 9486 2a3d ffae 943c 856b 84bd
00000080: c106 233d f711 20bd 4210 913b c94c 2ebd
00000090: 8304 8c3c 0114 ccbc 875e b8bc d747 183d
000000a0: 9970 52bd e93c a33c 7bd3 983c eb1c 263c
000000b0: b936 1bbd a374 53bd b18d 5cbd 9580 603c
000000c0: 8135 a63b 461c 65bd 3c9f 43bc 257a 24bd
000000d0: 0cbf d8bb bc86 cdbc 9edb 543b 02ee 183c
000000e0: a1e7 08bd 9271 3d3c ce51 eebd c612 0fbd
000000f0: 89d7 053b add5 c33c 8d55 b1bc c355 e4bb
00000100: 0811 aebc 883f 61bd c73e 0bbd 6412 c5bb
00000110: 28f7 11bd f11f c73d 235c f53c b439 9c3c
00000120: 2c76 bbbc 45c4 8abc bb3b 55bc af50 8ebb
00000130: 782c ca3c 48f0 cebc ebf2 623b 3b7e 383d
00000140: 29dd 7abd 016b 00bd 4b46 47bd c5f1 10bd
00000150: becd 93bd b462 64bd 6816 dcbc e4dc 81bd
00000160: 8dcb 11bd b904 853b 9011 94bc f15b 2d3c
00000170: ec6a 3cbc e873 7dbd 45b3 09bd bee1 bb3c
00000180: 36a2 76bd bb82 5e3c bb03 633d 299d 593b
00000190: e3fc a1bc 08fb 7cbd 26d9 c13b eceb 48bd
000001a0: a5c9 2abc 9581 b63c e9b4 dabc 4c8f 54bd
000001b0: 7b56 bcbc f8aa 83bc 8326 793c 5864 b7bc
000001c0: 8e33 95bb 2170 5bbd 8023 8b3c 7531 23bd
000001d0: fe1e ccbc 7fb4 41bd 789f 80bd 9d5c 60bd
000001e0: 7ef2 9f3c 1efd 5fbd b29f c93c 903b 123d
000001f0: 2c53 0c3d 5694 993b 9d7d 5c3d 1dd2 cdbb
00000200: 43bb 353d 39ea 7b3c 4b01 84bd 73d3 4bbd
00000210: 78d1 1cbc df41 5a3d 77fe 51bd 8422 5dbc
00000220: d78d a4bc 2d54 24bd b417 81bc 14fe 8abc
00000230: 13a7 e13c d231 38b9 bd62 95bd f98b 8f3b
00000240: 53f4 2d3c 2bf7 f4bc ccc3 1a3d 072f e33c
00000250: 667f 7f3b 4356 ee3b 7228 48bd 74da 073d
00000260: 81ff 9ebc 141b ca3c 2964 85bc 19a4 093c
00000270: bcc5 e1bb 77d1 36bb 222f 0fbd 724c 5e3c
00000280: 1bd5 18bd fefd b7bc 80f6 8b3d b0e9 c7bc
00000290: 67e1 913c 7a83 7d3c 3212 893b d846 943c
000002a0: 6fd5 02bd 587e 10bd 02db fc3b a7e1 c137
000002b0: b90a bbbc a5ca 3c3d f166 1c3d fa0c 00be
000002c0: a32f 873d 6348 103d ff89 acbc 4b47 25bd
000002d0: b937 803c 7165 a43c ecf9 273d da6f 4fba
000002e0: e533 043d 074d f1bc 148a c23d a54e 023d
000002f0: f084 4b3d 563d 2d3d a895 8bbd e6a8 82bd

critic.4.weight f4 [1, 192]
0.009499349 -0.026612869 -0.010481786 -0.01098896 0.020944078 0.025836227 0.00861034 -0.02782814
0.0003158013 -0.041723803 -0.009853943 0.018713813 -0.004105427 0.0070880926 0.015680002 -0.016096324
-0.022261467 0.017823923 0.0075183734 0.025221808 0.01024302 0.01488032 -0.04855827 -0.020627504
0.01232921 -0.053317413 -0.034676418 -0.038939074 0.01801321 0.056925945 -0.023941007 0.0071575306
-0.012890975 -0.023062756 0.010517199 0.05871402 0.02562763 0.00822437 -0.015823929 -0.037092876
0.020879911 0.038584765 -0.03812669 -0.021326408 -0.014468684 -0.01825282 0.030749377 0.023497293
-0.019245079 -0.011008623 -0.0098643415 -0.043461856 -0.013513139 -0.006881096 0.009837212 0.014786175
-0.0048793075 0.029402053 -0.0015432108 0.01383974 0.010648336 -0.021093423 0.020281484 0.02201987
-0.01301738 -0.01645116 -0.03990818 -0.012435922 0.02092036 -0.011761171 0.026608884 -0.029436236
0.021323381 0.0054398235 0.037045173 -0.026918257 0.024820117 -0.0044359365 0.021591647 -0.014983169
-0.034328032 0.004106947 -0.011392531 -0.023332357 -0.022078635 -0.014436656 0.01798056 -0.014625371
0.019477867 -0.032961898 0.015646633 -0.004767952 0.0142341545 -0.018419137 -0.017467346 -0.019173231
-0.021298697 -0.014268474 -0.037930693 -0.015273607 -0.023704832 -0.022871196 0.01760049 -0.015660914
-0.015545963 -0.014713405 0.011429743 0.020701699 -0.04194379 0.0062689907 -0.021675644 -0.044585604
-0.025922684 -0.022143917 0.017293582 -0.011399564 -0.017298207 0.026431462 -0.021158893 -0.0364903
-0.016111588 -0.005907296 -0.023095507 0.010569422 -0.02642167 0.00288755 -0.012526691 -0.014075663
0.0081440285 -0.024590768 0.0057328152 -0.025078135 0.018664923 -0.03165876 -0.020758381 0.014660985
-0.031801056 0.0050753993 -0.021221437 0.018815117 0.020028425 -0.016543115 -0.0037467366 0.008984923
-0.018495042 -0.020831266 0.021258427 -0.013583986 0.01653296 0.010463837 0.028217882 -0.013284588
-0.020423261 -0.008489412 0.013978161 0.0237124 -0.028821364 0.00014700304 -0.022112865 0.033540595
-0.021967728 -0.012381199 -0.0038414244 0.012103654 -0.032231044 -0.019342184 0.012856551 0.011332861
0.00594945 -0.00819357 0.016853308 0.017923918 -0.023279563 0.003154606 -0.035165787 -0.035208955
-0.022963576 -0.011000881 -0.021548975 0.0008782217 -0.018695036 0.018609526 -0.022494428 -0.021830387
0.017131206 -0.019609459 -0.009531715 -0.052744515 0.03762323 -0.014682976 -0.030107185 0.048716173
00000000: 28a3 1b3c 3b03 dabc ccbb 2bbc 0a0b 34bc
00000010: ea92 ab3c 7fa6 d33c 6212 0d3c d7f7 e3bc
00000020: 2292 a539 94e6 2abd 6f72 21bc b64d 993c
00000030: d186 86bb 3b43 e83b 5973 803c 70dc 83bc
00000040: ae5d b6bc 7a03 923c b05c f63b f79d ce3c
00000050: 57d2 273c 96cc 733c 09e5 46bd 03fb a8bc
00000060: 7400 4a3c 5c63 5abd dc08 0ebd 947e 1fbd
00000070: 7090 933c 2e2b 693d ee1f c4bc b889 ea3b
00000080: ab34 53bc 1bee bcbc 5450 2c3c 1d7e 703d
00000090: 09f1 d13c 82bf 063c 2fa1 81bc b3ee 17bd
000000a0: 590c ab3c 0f0b 1e3d bb2a 1cbd b8b4 aebc
000000b0: 0f0e 6dbc f086 95bc 1ee6 fb3c 657d c03c
000000c0: dba7 9dbc 835d 34bc 0c9e 21bc 0f05 32bd
000000d0: 3766 5dbc d17a e1bb 422c 213c b741 723c
000000e0: 99e2 9fbb 93dc f03c 9045 caba 14c0 623c
000000f0: 5c76 2e3c 1dcc acbc 5b25 a63c 0463 b43c
00000100: d946 55bc 95c4 86bc c276 23bd 0ac0 4bbc
00000110: 2d61 ab3c edb1 40bc e0fa d93c 4324 f1bc
00000120: 5fae ae3c 8c40 b23b aebc 173d ad83 dcbc
00000130: 8f53 cb3c 555b 91bb f7e0 b03c f77b 75bc
00000140: 8d9b 0cbd 9293 863b bda7 3abc 8023 bfbc
00000150: 41de b4bc b987 6cbc f84b 933c 419f 6fbc
00000160: 0c90 9f3c 0e03 07bd 5e2d 803c 7b3c 9cbb
00000170: 5f36 693c bbe3 96bc ae17 8fbc 2e11 9dbc
00000180: 9b7a aebc 51c6 69bc 375d 1bbd 273e 7abc
00000190: a330 c2bc 605c bbbc e72e 903c 514b 80bc
000001a0: 7fb4 7ebc 7e10 71bc d143 3b3c 9c96 a93c
000001b0: 40cd 2bbd 1b6c cd3b 1f91 b1bc 659f 36bd
000001c0: cf5b d4bc 2967 b5bc 45ab 8d3c 3dc5 3abc
000001d0: f8b4 8dbc cb86 d83c 6a55 adbc da76 15bd
000001e0: 73fc 83bc fe91 c1bb ca32 bdbc 5e2b 2d3c
000001f0: 4272 d8bc 0d3d 3d3b c03c 4dbc 9c9d 66bc
00000200: 886e 053c 9472 c9bc 57da bb3b a970 cdbc
00000210: 2ee7 983c 9eac 01bd 7b0d aabc a134 703c
00000220: d341 02bd 894f a63b 94d8 adbc 2922 9a3c
00000230: a712 a43c 6d85 87bc cf8b 75bb 8035 133c
00000240: ea82 97bc 55a6 aabc 2726 ae3c 5e8f 5ebc
00000250: 2170 873c 8370 2b3c 3029 e73c 9aa7 59bc
00000260: af4e a7bc 2d17 0bbc a804 653c 8240 c23c
00000270: c81a ecbc d424 1a39 0a26 b5bc dd61 093d
00000280: aaf5 b3bc 83da 4abc 68c0 7bbb 684e 463c
00000290: b304 04bd 8073 9ebc 49a4 523c 77ad 393c
000002a0: 9bf3 c23b 533e 06bc f30f 8a3c 2ed5 923c
000002b0: c8b4 bebc 82bd 4e3b 000a 10bd 4437 10bd
000002c0: 1c1e bcbc 0a3d 34bc 7a87 b0bc 7638 663a
000002d0: 5526 99bc 0173 983c 3c46 b8bc a4d5 b2bc
000002e0: be56 8c3c 04a4 a0bc e92a 1cbc a20a 58bd
000002f0: d11a 1a3d dd90 70bc 58a3 f6bc 9c8a 473d

mean.0.weight f4 [192, 24]
0.08707015 -0.504153 0.17549196 -0.36463 0.24098806 -0.08566908 -0.1602059 -0.04009123
-0.09832776 0.06850323 0.04619762 0.12794176 -0.09883307 -0.005475904 -0.12370931 -0.36805952
-0.23397112 -0.29743567 -0.2879148 0.004159413 0.08416351 -0.018126015 0.05938282 -0.031545132
0.47179046 -0.19396234 -0.044988457 -0.5122212 -0.15627342 -0.10573001 0.045219176 -0.08782514
0.12252786 -0.3402673 -0.025859853 0.23116745 0.14095156 0.075291626 -0.25935316 0.033856053
-0.13320321 -0.041843276 0.14168423 -0.109804116 -0.03987624 0.18268852 0.08332166 -0.1637019
0.087100275 0.58826244 -0.30112025 -0.1712948 -0.10933449 0.24422558 0.1718064 -0.1857013
-0.09717972 0.079890534 -0.25345147 -0.22118558 -0.19213103 0.008547636 -0.006600962 -0.05822009
-0.10947707 -0.07704504 0.053352956 -0.07050887 0.025553983 -0.118626185 -0.09401833 0.07549837
-0.39635727 -0.1598632 0.23819907 -0.11743964 -0.07695303 0.07196392 -0.24356775 0.055157915
0.022905698 0.045762997 0.23723309 0.33474535 -0.12663762 -0.058015905 -0.2696946 -0.17128177
-0.01190021 0.06710115 0.11249104 0.14003578 0.0014359173 -0.11203882 -0.08924655 -0.1466388
0.2311707 -0.1726007 0.3250331 0.52340895 0.11016617 -0.108777314 0.089843154 0.199627
-0.24923494 -0.24465238 0.37303963 0.13507833 0.2108004 0.10298034 0.035040878 0.047544874
-0.028127005 -0.01208645 -0.14172837 -0.023327934 0.13716269 0.14775199 -0.0988788 -0.18839194
-0.10170461 -0.00034358018 0.33576763 -0.21988478 0.009012932 -0.08679535 0.3497163 -0.10313467
0.06500689 0.077592716 0.2598165 -0.4202213 0.12839405 0.19086261 -0.08256751 -0.21014065
0.03500183 0.1274138 0.10954767 0.18188344 -0.13893619 0.13956428 -0.11244887 0.08560504
0.10755859 -0.6973533 -0.29062927 0.25248295 0.0869204 -0.13616897 -0.046905 -0.014153972
0.1259584 -0.18543142 -0.010105077 0.4085664 -0.04190433 -0.0045590224 -0.016201759 0.12691405
0.101805486 -0.16712117 0.08231166 -0.15693955 0.10912574 -0.111778386 0.07259768 0.19039783
0.36822543 0.36580122 -0.19641857 -0.1793188 -0.085737854 0.09951873 -0.07056086 -0.012477996
-0.308097 -0.17098673 -0.42867738 -0.07576778 -0.32649815 0.025189217 0.15708743 -0.03706919
-0.10095254 -0.08256237 -0.049553327 0.083150685 -0.09020264 0.009418794 0.14991881 -0.17456496
0.29469317 0.466487 -0.24984214 -0.2686456 -0.019788409 -0.15014125 0.09206343 0.14512049
0.015112046 -0.07602243 0.1256015 -0.29507217 0.16471566 -0.058391348 0.03668206 -0.10274328
0.100660734 0.12580529 -0.04826961 0.032853264 -0.015153981 -0.0921413 0.037899975 0.10051187
-0.007885235 -0.36262015 0.3242593 0.100082815 0.13006383 0.2671269 0.20212251 0.112423405
0.12748775 0.094759166 -0.048903015 -0.30213898 0.028498959 0.09665403 -0.015018729 0.132702
0.10560516 0.023832602 0.06906802 -0.13930817 0.07099603 0.09711487 -0.009024946 -0.020003878
-0.037274055 -0.20327096 0.16554607 -0.094361305 0.1482504 -0.22456607 0.17256749 -0.17656982
0.22826813 -0.26345176 -0.017173542 0.09721903 0.1896961 -0.021626802 0.21691698 0.1405589
00000000: d651 b23d 2c10 01bf 2ab4 333e c9b0 babe
00000010: 93c5 763e 4573 afbd 040d 24be b436 24bd
00000020: 1160 c9bd 6c4b 8c3d b739 3d3d 2a03 033e
00000030: fe68 cabd 366f b3bb 4f5b fdbd 4c72 bcbe
00000040: 2096 6fbe 7d49 98be 9269 93be af4b 883b
00000050: eb5d ac3d 027d 94bc 663b 733d 7835 01bd
00000060: 858e f13e 109e 46be d145 38bd ee20 03bf
00000070: 2406 20be fa88 d8bd be37 393d abdd b3bd
00000080: e3ef fa3d 8437 aebe 0bd8 d3bc 29b7 6c3e
00000090: 9b55 103e 7f32 9a3d f0c9 84be a5ac 0a3d
000000a0: 6c66 08be db63 2bbd ac15 113e fbe0 e0bd
000000b0: 4555 23bd b312 3b3e 8ca4 aa3d 79a1 27be
000000c0: a161 b23d 5e98 163f 6f2c 9abe e767 2fbe
000000d0: c3ea dfbd 4516 7a3e 04ee 2f3e 7b28 3ebe
000000e0: 2906 c7bd a69d a33d 64c4 81be 797e 62be
000000f0: ffbd 44be 620b 0c3c e24c d8bb 3078 6ebd
00000100: 8435 e0bd cac9 9dbd a188 5a3d f466 90bd
00000110: 9656 d13c 49f2 f2bd af8c c0bd e49e 9a3d
00000120: 57ef cabe 2eb3 23be 75ea 733e 3284 f0bd
00000130: 8d99 9dbd d261 933d d369 79be 44ed 613d
00000140: bba4 bb3c fb71 3b3d 3bed 723e be63 ab3e
00000150: 4bad 01be 16a2 6dbd 6915 8abe 7d64 2fbe
00000160: 19f9 42bc 546c 893d b461 e63d 8a65 0f3e
00000170: 6435 bc3a 9c74 e5bd e5c6 b6bd 7b28 16be
00000180: 03b8 6c3e 3dbe 30be bd6a a63e 21fe 053f
00000190: cd9e e13d a4c6 debd b0ff b73d 056b 4c3e
000001a0: 7237 7fbe 2786 7abe 0dff be3e f951 0a3e
000001b0: 0fdc 573e 5be7 d23d 0687 0f3d 6abe 423d
000001c0: 9b6a e6bc 3f06 46bc 3e21 11be 391a bfbc
000001d0: 6074 0c3e 4c4c 173e f880 cabd d1e9 40be
000001e0: 824a d0bd 8d22 b4b9 bce9 ab3e 7a29 61be
000001f0: faaa 133c c3c1 b1bd 040e b33e 4538 d3bd
00000200: 5522 853d eee8 9e3d ab06 853e 3f27 d7be
00000210: bb79 033e 7d71 433e 2819 a9bd 1c2f 57be
00000220: 145e 0f3d c378 023e 875a e03d a73f 3a3e
00000230: 4a45 0ebe f0e9 0e3e 984b e6bd b251 af3d
00000240: ae47 dc3d bf85 32bf 5ccd 94be 7245 813e
00000250: 5303 b23d e16f 0bbe 751f 40bd 10e6 67bc
00000260: 3dfb 003e bce1 3dbe c48f 25bc 9d2f d13e
00000270: e0a3 2bbd da63 95bb 8db9 84bc c2f5 013e
00000280: 657f d03d d021 2bbe 0493 a83d c3b4 20be
00000290: 517d df3d 11ec e4bd 18ae 943d a6f7 423e
000002a0: 0b88 bc3e 4c4a bb3e f321 49be 599f 37be
000002b0: 5497 afbd 7ad0 cb3d 3682 90bd 8270 4cbc
000002c0: e4be 9dbe 2517 2fbe 9a7b dbbe 232c 9bbd
000002d0: c42a a7be 9e59 ce3c 87db 203e ddd5 17bd
000002e0: 35c0 cebd 7616 a9bd 6ef8 4abd e84a aa3d
000002f0: 29bc b8bd 4951 1a3c 5184 193e 28c1 32be
00000300: 06e2 963e 62d7 ee3e 9ed6 7fbe eb8b 89be
00000310: 4d1b a2bc a1be 19be c08b bc3d 779a 143e
00000320: 8498 773c a6b1 9bbd ae9d 003e b313 97be
00000330: 39ab 283e c42b 6fbd ee3f 163d 126b d2bd
00000340: 3727 ce3d 1ad3 003e 5bb6 45bd 2591 063d
00000350: 6748 78bc 94b4 bcbd 013d 1b3d 2bd9 cd3d
00000360: 1331 01bc 59a9 b9be 5105 a63e 38f8 cc3d
00000370: 742f 053e dbc4 883e 34f9 4e3e 3e3e e63d
00000380: 268c 023e 1811 c23d 874e 48bd f6b1 9abe
00000390: a676 e93c 8cf2 c53d 1d11 76bc 08e3 073e
000003a0: 8547 d83d 973c c33c 8973 8d3d cda6 0ebe
000003b0: 5e66 913d 29e4 c63d 5edd 13bc 2cdf a3bc
000003c0: aeac 18bd 4326 50be e984 293e 8040 c1bd
000003d0: f4ce 173e a6f4 65be 88b5 303e b8ce 34be
000003e0: 1fbf 693e 26e3 86be 87af 8cbc c51a c73d
000003f0: b23f 423e b12a b1bc 7c1f 5e3e acee 0f3e

mean.0.bias f4 [192]
0.13222802 -0.12529354 -0.07964253 -0.044499993 -0.017707016 0.010433467 0.13197835 0.101705596
0.11349408 -0.19302475 -0.0634428 -0.13021794 0.104851805 0.13781565 -0.043701835 -0.05940505
0.0065579778 -0.13435957 0.017471962 0.107085325 -0.12689246 0.1774612 -0.15402056 0.10459112
0.008928904 -0.058963835 0.102559544 0.12316265 -0.03850168 -0.22600365 -0.0035427776 0.1548825
0.15369573 -0.055919223 0.028858872 -0.019156728 -0.0066592875 -0.0085972035 -0.18894382 0.0104873525
-0.24439895 0.011540025 -0.14389344 0.114262074 -0.23433748 -0.19658054 -0.074134246 0.16511679
0.06563674 0.06933547 -0.004940647 -0.2350445 0.0562223 -0.12540145 -0.078202546 -0.020813106
-0.15274534 -0.20684291 0.055316884 -0.113733344 0.23620106 -0.29134488 -0.045293964 -0.1992349
0.08758921 0.044540897 -0.26381195 -0.12818334 0.11904102 -0.024148183 0.18147787 -0.07475376
-0.19854464 -0.1840956 -0.0043319506 0.022391755 -0.0059167217 0.18819533 0.104927555 -0.018655924
0.08670946 -0.048478536 -0.06765791 -0.15717793 -0.11929669 0.20551579 -0.104246475 0.045888186
-0.09231707 -0.051041953 -0.09541226 -0.06532956 -0.09637063 -0.26334253 -0.1298478 -0.24907109
0.034134805 -0.1758586 -0.10720208 0.13124295 -0.1356039 -0.085051075 -0.13614082 0.14030641
-0.04506593 -0.23939466 0.20414011 0.078810036 -0.060252357 -0.14899573 -0.03179057 0.1417668
-0.030606067 -0.027130086 0.12673198 0.089600846 -0.112508304 0.20114899 -0.06142543 -0.10871648
-0.002712034 0.03866308 -0.22459462 -0.122403145 0.16661532 0.04567495 0.1761148 0.008857214
-0.16456969 -0.113828264 -0.010185105 -0.11430537 0.04761254 -0.07877245 0.131604 -0.09484254
-0.044820305 -0.06932484 -0.11511824 -0.07239139 -0.017379578 0.0070590232 -0.17553398 -0.15020342
-0.18815714 0.10302817 -0.17351833 0.013649894 -0.0046655424 -0.14056757 0.1969647 0.04833097
-0.123805374 -0.10985777 -0.046442263 0.15546286 0.08736637 -0.14176992 -0.05215538 -0.12216055
0.06702589 0.15368305 -0.03225233 0.1086662 -0.09712204 0.07404158 0.06395579 -0.11358577
-0.096362635 0.1029438 0.035497166 -0.21030502 -0.13021062 0.1411474 -0.15422179 -0.075245865
-0.2504463 0.16115339 0.116351955 0.117587626 0.16691868 -0.10352938 0.061397746 0.121043935
-0.14151944 -0.1645853 -0.03693715 0.016113622 -0.11802883 0.047085285 -0.06265934 -0.08616392
00000000: c866 073e f34c 00be 9f1b a3bd a045 36bd
00000010: 4e0e 91bc 22f1 2a3c 5525 073e 064b d03d
00000020: 966f e83d 48a8 45be 4cee 81bd da57 05be
00000030: 8bbc d63d 8c1f 0d3e b200 33bd b652 73bd
00000040: 4ee4 d63b 8e95 09be 5c21 8f3c 8d4f db3d
00000050: 19f0 01be 64b8 353e 91b7 1dbe de33 d63d
00000060: 8a4a 123c 1084 71bd bd0a d23d b33c fc3d
00000070: f0b3 1dbd 806d 67be f22d 68bb 8599 1e3e
00000080: 6a62 1d3e 8e0b 65bd 7169 ec3c 92ee 9cbc
00000090: 2736 dabb 49db 0cbc 7d7a 41be 25d3 2b3c
000000a0: b843 7abe 5f12 3d3c cd58 13be 3c02 ea3d
000000b0: 2af6 6fbe 694c 49be b2d3 97bd 6014 293e
000000c0: 8e6c 863d c1ff 8d3d 27e5 a1bb 81af 70be
000000d0: 5b49 663d 3d69 00be a828 a0bd 3f80 aabc
000000e0: 4669 1cbe a1ce 53be f593 623d 07ed e8bd
000000f0: b1de 713e 282b 95be 2a86 39bd 3c04 4cbe
00000100: f961 b33d 8470 363d 5c12 87be 7e42 03be
00000110: c7cb f33d 69d2 c5bc 56d5 393e 8018 99bd
00000120: 494f 4bbe 8f83 3cbe 09f3 8dbb ea6e b73c
00000130: 0fe1 c1bb 47b6 403e 42e4 d63d 4fd4 98bc
00000140: bb94 b13d 6e91 46bd 3b90 8abd 40f3 20be
00000150: d351 f4bd bb72 523e 2d7f d5bd 40f5 3b3d
00000160: bb10 bdbd 5e11 51bd 8167 c3bd 81cb 85bd
00000170: f75d c5bd d5d4 86be d2f6 04be 7e0c 7fbe
00000180: f0d0 0b3d 4714 34be c48c dbbd 8d64 063e
00000190: c0db 0abe 422f aebd 8068 0bbe 7cac 0f3e
000001a0: 0d97 38bd e023 75be 1b0a 513e 2867 a13d
000001b0: 2dcb 76bd 5692 18be d436 02bd 512b 113e
000001c0: 93b9 fabc ea3f debc 07c6 013e a680 b73d
000001d0: c16a e6bd 00fa 4d3e 3b99 7bbd bfa6 debd
000001e0: 61bc 31bb 2e5d 1e3d 22fc 65be 80ae fabd
000001f0: 359d 2a3e a815 3b3d 7057 343e d91d 113c
00000200: f584 28be cb1e e9bd 6ddf 26bc ef18 eabd
00000210: 5e05 433d 7353 a1bd 33c3 063e ce3c c2bd
00000220: 7f95 37bd 2ffa 8dbd 1dc3 ebbd f041 94bd
00000230: 9e5f 8ebc 614f e73b 2ebf 33be edce 19be
00000240: 44ac 40be 6f00 d33d caae 31be cea3 5f3c
00000250: 68e1 98bb f2f0 0fbe 1db1 493e b2f6 453d
00000260: ac8d fdbd 1cfd e0bd 3e3a 3ebd a831 1f3e
00000270: 24ed b23d 222c 11be e1a0 55bd 4f2f fabd
00000280: df44 893d 175f 1d3e 051b 04bd 628c de3d
00000290: ece7 c6bd 1da3 973d 41fb 823d a89f e8bd
000002a0: c659 c5bd 33d4 d23d 7a65 113d 335a 57be
000002b0: ef55 05be f288 103e 51ec 1dbe 811a 9abd
000002c0: 7f3a 80be 6505 253e ef49 ee3d c8d1 f03d
000002d0: bbec 2a3e 3607 d4bd 347c 7b3d e2e5 f73d
000002e0: 79ea 10be 0d89 28be 694b 17bd b700 843c
000002f0: 19b9 f1bd 80dc 403d 8a53 80bd b676 b0bd

mean.2.weight f4 [192, 192]
-0.037760925 -0.091573 -0.13703677 -0.2790139 0.07524989 0.019996742 -0.13927273 -0.06365577
0.05906305 0.13131255 0.024679335 -0.054286435 0.0019447615 -0.04613581 -0.06284868 0.07626733
-0.12999256 0.20142128 -0.016332185 0.18984361 -0.032586444 -0.036213916 0.029835055 -0.20599014
-0.037605483 -0.24128886 -0.07659802 -0.05730184 0.038496178 0.11692666 0.057654552 -0.03763904
-0.06680979 0.1564018 0.015294946 -0.12197827 -0.01570446 -0.05114278 0.028124625 -0.061998673
0.040631976 -0.036345076 0.03986986 0.1913695 -0.06652919 -0.057829753 0.016794639 0.074192196
-0.13891879 -0.012738619 -0.11701245 0.058743842 0.11828674 0.022193762 0.06710492 0.13777988
-0.057248738 0.123969324 -0.115943044 0.14306048 0.003155544 -0.008746646 -0.14079686 0.00063310337
0.06808283 0.04562542 0.06844953 0.14139517 -0.1082014 0.08969368 -0.16111521 -0.11827476
0.04061643 0.037902955 0.14124003 -0.07068929 -0.066824034 -0.05752766 -0.13690051 0.10722507
0.045602053 -0.05379243 0.093804285 0.1410757 -0.092104614 0.11046755 -0.0011874511 -0.055820823
0.27222592 0.08102107 -0.1279334 -0.08933797 -0.034271747 -0.06283937 -0.0838536 0.03603481
-0.15917309 -0.13752632 -0.14326535 -0.004658572 0.060137607 0.021367082 0.0650377 0.0698469
-0.03317047 0.09062002 0.0077806637 0.075848356 -0.0070904233 0.122629724 -0.066991255 0.012904699
-0.06501934 0.042893805 0.04492718 -0.088839814 0.023006065 -0.08519843 -0.06624356 0.06742421
0.037679203 0.016562192 -0.0070890067 -0.107568584 0.06778745 0.120275855 -0.12748449 0.010512734
-0.06788423 -0.022837492 -0.107617326 -0.12950999 0.124226615 -0.053685095 0.109617025 0.15150975
0.06499834 0.080991514 -0.019814322 0.00057009567 0.011943266 0.12567519 0.16994016 0.01997399
-0.121710494 0.07512248 -8.578758e-05 -0.19632973 -0.06271296 0.036610585 -0.090962864 0.17034987
0.03222095 -0.031972386 0.02874538 -0.117524415 0.045057792 -0.016545868 0.09399993 -0.0972309
-0.14641283 -0.14215964 -0.14711057 0.015392116 -0.03941054 0.009524197 -0.005854349 -0.09964347
0.09565204 -0.07788722 -0.0014525575 0.05591025 -0.13255964 -0.023155686 -0.05550892 -0.018828327
-0.021868745 0.015911676 0.07800659 0.08537427 0.03465602 -0.012879958 0.111435324 -0.14812548
0.087265044 0.20072336 0.013685451 0.12679617 0.060554467 -0.09660858 -0.19803205 -0.20630166
0.156097 -0.005727714 -0.05390456 -0.115666956 -0.11190903 0.2513055 -0.09994193 -0.048804116
0.01235745 -0.0228513 -0.063051134 0.1951674 0.1991423 -0.25296208 -0.07233925 0.32323012
0.23823221 0.24608582 -0.0858113 0.0006418704 -0.07011118 0.11170179 0.04167803 -0.10288966
-0.03216907 0.1707706 0.027436748 0.18497834 0.26526704 0.07187913 -0.05926066 0.0073193735
-0.056057964 0.123469874 0.18447544 0.002795761 -0.0068650744 0.11297939 -0.14130196 0.10969729
0.02405808 0.16386002 0.02388531 0.13479616 0.16644984 0.24750127 0.07173406 0.10179283
0.050384596 0.10634454 0.034828372 0.16440319 0.18426278 0.2317063 -0.10591572 0.08009373
-0.19886123 0.23236762 -0.13639641 -0.102461085 -0.060396973 -0.22798118 0.08367444 0.059590686
00000000: 33ab 1abd a08a bbbd 5e53 0cbe e9da 8ebe
00000010: 9d1c 9a3d 35d0 a33c 839d 0ebe f55d 82bd
00000020: 19ec 713d cc76 063e 512c ca3c 745b 5ebd
00000030: 5ee7 fe3a e7f8 3cbd cfb6 80bd 0c32 9c3d
00000040: c51c 05be 6141 4e3e 13cb 85bc 5d66 423e
00000050: 5d79 05bd 0b55 14bd a568 f43c 14ef 52be
00000060: 3508 1abd 6d14 77be 6cdf 9cbd 56b5 6abd
00000070: 2bae 1d3d 3f77 ef3d 2e27 6c3d 652b 1abd
00000080: 92d3 88bd cb27 203e a797 7a3c becf f9bd
00000090: a4a6 80bc 177b 51bd 9d65 e63c 52f2 7dbd
000000a0: b76d 263d 93de 14bd 944e 233d 5ef6 433e
000000b0: 7540 88bd e4de 6cbd e994 893c 14f2 973d
000000c0: ba40 0ebe a4b5 50bc 39a4 efbd 629d 703d
000000d0: 5140 f23d b1cf b53c 4e6e 893d 2b16 0d3e
000000e0: a77d 6abd a1e3 fd3d 8c73 edbd 727e 123e
000000f0: 3ecd 4e3b 184e 0fbc 0d2d 10be d9f6 253a
00000100: 036f 8b3d b8e1 3a3d 442f 8c3d e5c9 103e
00000110: b298 ddbd 52b1 b73d 63fb 24be 0a3a f2bd
00000120: 6a5d 263d 2140 1b3d 3aa1 103e 8cc5 90bd
00000130: 0adb 88bd 20a2 6bbd a62f 0cbe d198 db3d
00000140: 38c9 3a3d 7355 5cbd 761c c03d 2676 103e
00000150: 58a1 bcbd d03c e23d 3fa4 9bba 60a4 64bd
00000160: 3261 8b3e 60ee a53d f900 03be d3f6 b6bd
00000170: 8860 0cbd edb1 80bd 70bb abbd 3d99 133d
00000180: 45fe 22be b3d3 0cbe 27b4 12be efa6 98bb
00000190: da52 763d 050a af3c 7c32 853d e40b 8f3d
000001a0: c2dd 07bd fd96 b93d f0f4 fe3b 6256 9b3d
000001b0: c856 e8bb 4b25 fb3d b632 89bd 3b6e 533c
000001c0: dc28 85bd 6ab1 2f3d 9005 383d a6f1 b5bd
000001d0: 3777 bc3c 847c aebd b4aa 87bd b415 8a3d
000001e0: 8255 1a3d 6fad 873c e64a e8bb eb4c dcbd
000001f0: 26d4 8a3d 3053 f63d 4b8b 02be 9a3d 2c3c
00000200: e306 8bbd b115 bbbc 7966 dcbd 449e 04be
00000210: 866a fe3d e7e4 5bbd e47e e03d 5f25 1b3e
00000220: da1d 853d e1de a53d a551 a2bc 7972 153a
00000230: b0ad 433c ffb0 003e cb04 2e3e 7ea0 a33c
00000240: 5a43 f9bd d1d9 993d dbe8 b3b8 a90a 49be
00000250: a76f 80bd fbf4 153d bd4a babd 3270 2e3e
00000260: 1dfa 033d 7af5 02bd 6e7b eb3c a4b0 f0bd
00000270: 858e 383d 338b 87bc 0983 c03d fe20 c7bd
00000280: 3fed 15be 4c92 11be 27a4 16be 372f 7c3c
00000290: f26c 21bd 610b 1c3c d7d5 bfbb e011 ccbd
000002a0: 37e5 c33d 5683 9fbd be63 beba 2502 653d
000002b0: b7bd 07be feb0 bdbc 525d 63bd dd3d 9abc
000002c0: 1526 b3bc 3459 823c ebc1 9f3d b5d8 ae3d
000002d0: 79f3 0d3d 7606 53bc 3438 e43d 35ae 17be
000002e0: 04b8 b23d 6d8a 4d3e f138 603c dbd6 013e
000002f0: f607 783d b8da c5bd eac8 4abe be40 53be
00000300: e4d7 1f3e 8caf bbbb 07cb 5cbd cce2 ecbd
00000310: 9030 e5bd 1dab 803e 5bae ccbd d3e6 47bd
00000320: e776 4a3c a632 bbbc f420 81bd f7d9 473e
00000330: f6eb 4b3e 3f84 81be 9a26 94bd 6b7e a53e
00000340: 25f3 733e ecfd 7b3e d6bd afbd 3243 283a
00000350: 7396 8fbd e8c3 e43d 95b6 2a3d d0b7 d2bd
00000360: b7c3 03bd 7dde 2e3e 08c3 e03c f66a 3d3e
00000370: 15d1 873e 5e35 933d 4ebb 72bd 5bd7 ef3b
00000380: 099d 65bd c6dd fc3d 21e7 3c3e 1639 373b
00000390: 6bf4 e0bb bd61 e73d 76b1 10be f9a8 e03d
000003a0: 7315 c53c ecca 273e 20ab c33c 0108 0a3e
000003b0: d471 2a3e f970 7d3e 4fe9 923d c278 d03d
000003c0: 1460 4e3d 2bcb d93d 32a8 0e3d 4f59 283e
000003d0: 62af 3c3e 6b44 6d3e 57ea d8bd 2e08 a43d
000003e0: 47a2 4bbe c7f1 6d3e 80ab 0bbe 1ed7 d1bd
000003f0: d162 77bd e673 69be 815d ab3d 5d15 743d

mean.2.bias f4 [192]
0.04301984 -0.16343543 -0.077873744 -0.08170885 -0.0013506983 -0.021207836 0.009279983 -0.18129066
0.051961347 -0.11542605 -0.00036137307 0.012393361 -0.10568406 -0.03416951 0.004445669 -0.22933808
-0.06608611 -0.0077563324 -0.043035958 -0.1256404 -0.14947903 -0.043079622 -0.056770217 0.052671365
-0.046361525 -0.077902995 -0.18313818 -0.17409202 -0.14773805 -0.04463355 -0.036464635 -0.15144178
-0.08039698 -0.029003313 -0.10176888 -0.15091951 0.07891191 -0.034500122 -0.08852428 -0.07869437
-0.1751838 -0.14236222 0.030127129 0.013348953 -0.0513056 -0.013400925 -0.23023826 -0.23325156
-0.25585216 -0.02274279 -0.06882773 -0.042300835 -0.019257585 -0.21374942 -0.04991561 -0.023600452
-0.09499202 -0.1578109 -0.14350757 -0.10638039 0.01795486 0.0030858757 -0.0060104947 -0.08938452
0.05010504 -0.10660681 -0.07717421 -0.07890944 0.044875935 -0.015836747 -0.1435718 0.008769951
-0.06856002 -0.10019033 -0.046516437 0.041404646 0.02739934 -0.018313928 -0.0844023 -0.07861869
0.0641529 -0.06115662 -0.10610176 -0.029323237 -0.0381617 -0.092357896 -0.05494433 -0.11937208
0.08905255 -0.010860427 -0.014551657 0.023487175 -0.0628085 -0.09695245 -0.13413249 -0.12586251
-0.014906976 -0.044402782 -0.050920423 0.002384917 0.004855819 -0.023508823 -0.29500657 -0.030504929
-0.048751373 -0.04417383 -0.24590972 -0.00047570321 -0.17851567 0.0024131872 0.0806332 0.05202807
-0.078662135 -0.18130147 -0.031299077 -0.07903714 -0.098088816 -0.11733322 -0.18789937 -0.26760137
-0.09922468 -0.0426791 -0.0872724 -0.15971404 -0.11718836 -0.05133956 0.01758286 -0.030086115
-0.12481138 -0.021218542 -0.14655063 0.05252391 -0.006793271 -0.104329005 -0.12837082 -0.042074855
-0.023617191 -0.13193129 -0.1037843 -0.13832673 -0.024680886 -0.1429474 -0.15218972 -0.07551114
0.11248566 -0.04730678 -0.06615161 -0.0024996775 -0.036961135 0.025727596 -0.013338832 -0.13596825
-0.17185262 0.01010768 0.06851893 -0.11942978 -0.01704568 -0.17654337 0.002918378 -0.030449226
-0.31530294 -0.094168715 -0.04324252 0.05417594 -0.0412481 0.12120988 0.027644591 -0.114755034
-0.088891454 -0.11396767 -0.029734213 -0.072520815 -0.12822029 -0.3176724 -0.039825305 -0.065432474
-0.08337602 -0.04745074 0.010358788 -0.06284348 0.018120667 -0.08623776 -0.030285154 0.091848746
-0.012638394 -0.098005444 -0.08450642 -0.073958695 -0.101533964 -0.16525595 -0.09657417 -0.063643016
00000000: 9235 303d 9e5b 27be 457c 9fbd f856 a7bd
00000010: ea09 b1ba 0ebc adbc 120b 183c 42a4 39be
00000020: 6cd5 543d 7e64 ecbd ac76 bdb9 860d 4b3c
00000030: e270 d8bd 54f5 0bbd f9ac 913b 9ad7 6abe
00000040: 2858 87bd d528 febb 7946 30bd e1a7 00be
00000050: 0811 19be 4274 30bd e387 68bd eebd 573d
00000060: 95e5 3dbd 9b8b 9fbd 9388 3bbe 2e45 32be
00000070: a548 17be abd1 36bd f15b 15bd 8e13 1bbe
00000080: 2ca7 a4bd 5b98 edbc 346c d0bd a58a 1abe
00000090: 919c a13d 0050 0dbd 384c b5bd 842a a1bd
000000a0: 6263 33be 67c7 11be 2bcd f63c 91b5 5a3c
000000b0: d225 52bd 8e8f 5bbc 94c3 6bbe 7fd9 6ebe
000000c0: 0eff 82be 164f babc 8ef5 8cbd a443 2dbd
000000d0: 15c2 9dbc 21e1 5abe 5074 4cbd bc55 c1bc
000000e0: 2d8b c2bd 2e99 21be a6f3 12be f6dd d9bd
000000f0: 1216 933c 673c 4a3b aff3 c4bb 3b0f b7bd
00000100: f13a 4d3d ac54 dabd 830d 9ebd 469b a1bd
00000110: d4cf 373d 11bc 81bc 7c04 13be d7af 0f3c
00000120: 3269 8cbd 9630 cdbd 0588 3ebd eb97 293d
00000130: 9574 e03c 1707 96bc 1ddb acbd d602 a1bd
00000140: 9862 833d 5d7f 7abd e14b d9bd 4937 f0bc
00000150: 714f 1cbd 2326 bdbd 4e0d 61bd 5979 f4bd
00000160: 2f61 b63d efef 31bc 136a 6ebc 2d68 c03c
00000170: bea1 80bd 028f c6bd 075a 09be 1ae2 00be
00000180: 643c 74bc b1df 35bd ef91 50bd 454c 1c3b
00000190: 901d 9f3b 9395 c0bc 1a0b 97be 79e5 f9bc
000001a0: 85af 47bd 9eef 34bd c2cf 7bbe ce67 f9b9
000001b0: d0cc 36be 9026 1e3b 0523 a53d 631b 553d
000001c0: 9d19 a1bd 18a7 39be 7633 00bd 39de a1bd
000001d0: cae2 c8bd 664c f0bd b168 40be 0c03 89be
000001e0: 4f36 cbbd 48d0 2ebd dfbb b2bd 148c 23be
000001f0: 7300 f0bd 6e49 52bd ee09 903c 2877 f6bc
00000200: 1c9d ffbd 82d2 adbc 5e11 16be 5023 573d
00000210: 169a debb 72aa d5bd a473 03be af56 2cbd
00000220: d778 c1bc ff18 07be dd8c d4bd 86a5 0dbe
00000230: 922f cabc ce60 12be 9fd7 1bbe 96a5 9abd
00000240: e25e e63d c1c4 41bd 7f7a 87bd a1d1 23bb
00000250: 8f64 17bd aec2 d23c 1e8b 5abc 433b 0bbe
00000260: 22fa 2fbe af9a 253c a753 8c3d 9a97 f4bd
00000270: 62a3 8bbc c9c7 34be 4242 3f3b a870 f9bc
00000280: 636f a1be 87db c0bd 121f 31bd 97e7 5d3d
00000290: c5f3 28bd e33c f83d e976 e23c b004 ebbd
000002a0: b90c b6bd e267 e9bd 2a95 f3bc cb85 94bd
000002b0: 2e4c 03be f5a5 a2be dc1f 23bd 7601 86bd
000002c0: 0cc1 aabd b55b 42bd e8b7 293c 15b4 80bd
000002d0: cb71 943c 6c9d b0bd 9218 f8bc 321b bc3d
000002e0: 4411 4fbc 14b7 c8bd b411 adbd a877 97bd
000002f0: 0af1 cfbd db38 29be aec8 c5bd 4557 82bd
