model/walker.pt (torch_old, 681775 bytes, 24 tensors)

logstd f4 [4]
-0.084015176 -0.055096608 -0.067254044 -0.040255353
00000000: 2610 acbd fbac 61bd 7dbc 89bd cce2 24bd

critic.0.weight f4 [192, 24]
0.19433038 0.32783425 -0.14857376 0.12276693 0.15259647 -0.12081404 0.026690431 0.010439371
0.04605622 -0.08306744 0.0774172 0.04486661 0.07122147 0.1512806 -0.0747044 0.035011563
-0.17719914 -0.07561197 0.008819091 0.053482924 0.019157995 -0.13099734 0.18707404 -0.049559474
0.28186494 -0.07504427 -0.23041818 -0.11863588 -0.20216662 0.022641996 0.17421633 0.1615194
-0.14875355 -0.104193084 -0.11818988 -0.036277995 -0.1310942 -0.05211073 -0.12471045 0.21857774
0.026817208 -0.13011122 0.23929167 0.0028475006 0.052053116 0.042349815 -0.0949334 -0.14393595
0.124780044 0.30903003 -0.21103844 -0.23213749 0.09895664 0.0069197966 -0.1330382 -0.0678939
0.0024997343 0.20704158 0.15853931 -0.032249123 -0.07773945 -0.11405281 -0.12269394 0.0075723985
-0.09006385 0.109906115 0.0792282 -0.08639729 -0.02496199 0.12281753 -0.108901285 -0.16687612
-0.21949373 -0.13085642 0.13062693 -0.1739669 0.070772626 0.10066403 -0.124088205 -0.16504729
-0.056738447 0.024860369 0.04374638 0.07389395 0.096437514 -0.10453533 -0.19917685 -0.036166184
0.05184938 0.02471285 0.008901826 -0.091616385 -0.105218925 0.10759216 -0.059659418 -0.0008642239
0.092324205 0.3484585 -0.14795922 -0.15003414 0.18785998 -0.17690307 0.10770226 -0.18428288
-0.06900299 0.0018777401 -0.08220362 -0.11477574 -0.09341105 -0.11620641 -0.023908902 -0.081411906
-0.007082947 0.07734937 0.09598062 0.17663908 0.20696117 0.26040518 -0.14113589 -0.115903944
0.042046443 0.27462292 -0.26315594 0.03994081 0.00714699 -0.07924796 0.09382529 -0.007893331
-0.18860081 0.08330473 0.062225476 0.079871744 0.17968297 -0.17537646 -0.039203964 0.07116815
-0.20287077 0.11009625 0.06986545 0.060094986 -0.13401195 0.15348846 -0.029355455 -0.019938592
0.004355547 0.020362593 -0.025957156 -0.055624932 0.023841614 0.09351876 -0.000814279 -0.23295665
-0.06209481 -0.16707374 0.2470511 0.2167444 -0.05161394 0.04316925 0.036998805 -0.15119687
-0.073051475 -0.01977512 -0.11683449 0.053197324 -0.15002824 -0.04251951 0.16656244 -0.0033121672
-0.081188865 -0.18344817 -0.10317231 0.030168973 0.15280844 -0.00030871082 0.2191514 -0.008850913
-0.14605674 -0.2130175 -0.05334017 -0.0550418 -0.13420896 0.009194076 0.19528157 0.0087281875
-0.082259096 -0.11475678 0.06640008 0.06895042 -0.037925202 0.17339328 0.14907612 -0.096982315
0.015906585 -0.026358625 -0.08351489 -0.28786147 0.083674766 -0.06307055 0.16541919 -0.16348949
-0.1580838 -0.077770956 -0.08370062 -0.08545932 0.06399163 0.17412397 0.13900428 0.07806673
-0.0038899647 0.06060804 -0.040102698 -0.03254332 -0.051726576 -0.08170955 0.06443249 -0.0023189979
0.13362437 0.3662062 -0.14624509 -0.046872996 0.021284828 0.18952738 -0.09772489 0.008887605
-0.16946469 0.020489248 0.1343125 0.21691926 0.04485878 -0.18424709 -0.17863509 -0.12775697
-0.10619466 0.20795332 -0.1351925 0.033396553 -0.10340242 0.05168888 -0.19813813 0.11155432
-0.26276937 -0.30962068 0.010358156 -0.13904807 -0.11824944 -0.15049161 -0.18397655 0.09395529
0.11958979 0.16509604 0.065192215 -0.07625979 0.07229948 -0.10766291 0.108670466 -0.14956848
00000000: 8bfe 463e e4d9 a73e b823 18be 3a6d fb3d
00000010: 4042 1c3e 5a6d f7bd e4a5 da3c e509 2b3c
00000020: 72a5 3c3d 431f aabd e98c 9e3d 0dc6 373d
00000030: 90dc 913d 4de9 1a3e 9ffe 98bd 4968 0f3d
00000040: b173 35be 73da 9abd f37d 103c e910 5b3d
00000050: 3af1 9c3c 2b24 06be 5690 3f3e e0fe 4abd
00000060: 9a50 903e cfb0 99bd bef2 6bbe 5ef7 f2bd
00000070: c404 4fbe b57b b93c c465 323e 5765 253e
00000080: da52 18be 2f63 d5bd 890d f2bd 3c98 14bd
00000090: 8f3d 06be 1072 55bd 3168 ffbd d8d2 5f3e
000000a0: c3af db3c e03b 05be e008 753e 229d 3a3b
000000b0: a635 553d 0077 2d3d 716c c2bd f263 13be
000000c0: ae8c ff3d 2f39 9e3e 761a 58be 73b5 6dbe
000000d0: c7a9 ca3d 76bf e23b 2a3b 08be f50b 8bbd
000000e0: 95d2 233b b502 543e 2158 223e a817 04bd
000000f0: dc35 9fbd 8594 e9bd f646 fbbd e221 f83b
00000100: 6573 b8bd 7516 e13d 6542 a23d 10f1 b0bd
00000110: 167d ccbc c287 fb3d a307 dfbd 93e1 2abe
00000120: f7c2 60be 3aff 05be 11c3 053e 6124 32be
00000130: 3df1 903d f128 ce3d f521 febd 2802 29be
00000140: 9366 68bd f9a7 cb3c 672f 333d b655 973d
00000150: 0881 c53d 9e16 d6bd 04f5 4bbe fe22 14bd
00000160: 0460 543d 9a72 ca3c f7d8 113c 5fa1 bbbd
00000170: 057d d7bd 4759 dc3d 6f5d 74bd 168d 62ba
00000180: 7914 bd3d 2769 b23e 9f82 17be 8da2 19be
00000190: 5e5e 403e 1426 35be 0193 dc3d a7b4 3cbe
000001a0: 7151 8dbd 811e f63a 5f5a a8bd 8b0f ebbd
000001b0: 4b4e bfbd a0fd edbd 9adc c3bc 49bb a6bd
000001c0: 1118 e8bb 5969 9e3d 7d91 c43d e0e0 343e
000001d0: a1ed 533e d453 853e ed85 10be 0c5f edbd
000001e0: e438 2c3d 609b 8c3e 60bc 86be fa98 233d
000001f0: 4c31 ea3b c14c a2bd 7927 c03d 0853 01bc
00000200: 9220 41be ac9b aa3d 24e0 7e3d cc93 a33d
00000210: d0fe 373e e395 33be 5694 20bd 9bc0 913d
00000220: 5bbd 4fbe 257a e13d 9e15 8f3d 2926 763d
00000230: 6e3a 09be 142c 1d3e da7a f0bc 4256 a3bc
00000240: fab8 8e3b 74cf a63c 1aa4 d4bc f8d6 63bd
00000250: 7d4f c33c c386 bf3d 5775 55ba 308c 6ebe
00000260: 2157 7ebd 6115 2bbe f7fa 7c3e 3ef2 5d3e
00000270: 2469 53bd 3dd2 303d 0f8c 173d 5ad3 1abe
00000280: 039c 95bd 6fff a1bc ec46 efbd 70e5 593d
00000290: 01a1 19be f028 2ebd 588f 2a3e f210 59bb
000002a0: 5946 a6bd d6d9 3bbe 014c d3bd ec24 f73c
000002b0: d179 1c3e 77da a1b9 3969 603e 6b03 11bc
000002c0: e68f 15be 4221 5abe 397b 5abd 8373 61bd
000002d0: 136e 09be c0a2 163c e4f7 473e ac00 0f3c
000002e0: 7577 a8bd 9a05 ebbd c4fc 873d e135 8d3d
000002f0: 7557 1bbd 028e 313e 69a7 183e aa9e c6bd
00000300: 874e 823c 0bee d7bc db09 abbd 9462 93be
00000310: ad5d ab3d 222b 81bd a663 293e ca69 27be
00000320: b8e0 21be 6146 9fbd 3b6b abbd 4c05 afbd
00000330: 0b0e 833d 8e4d 323e 2357 0e3e 73e1 9f3d
00000340: c7ee 7ebb 2340 783d ba42 24bd 254c 05bd
00000350: 3fdf 53bd 5657 a7bd 2ef5 833d 54fa 17bb
00000360: d4d4 083e 617f bb3e 46c1 15be e6fd 3fbd
00000370: 855d ae3c 7713 423e fd23 c8bd 519d 113c
00000380: 2788 2dbe 11d9 a73c 3789 093e 1520 5e3e
00000390: d7bd 373d 45ab 3cbe 1eec 36be b9d2 02be
000003a0: 967c d9bd b7f1 543e e76f 0abe d3ca 083d
000003b0: a6c4 d3bd b8b7 533d b9e4 4abe 9776 e43d
000003c0: b589 86be 9a86 9ebe 41b5 293c 9e62 0ebe
000003d0: c32c f2bd 791a 1abe 5964 3cbe a26b c03d
000003e0: 7eeb f43d f00e 293e 7f83 853d 182e 9cbd
000003f0: c011 943d 5f7e dcbd 9f8e de3d 7b28 19be

critic.0.bias f4 [192]
0.07484862 0.010220828 0.1258873 -0.16392165 0.013120662 0.058851425 -0.08813263 -0.037652384
-0.16299738 0.19192548 -0.11465354 0.16678865 -0.035020005 0.06270375 0.16822268 0.15861863
-0.081472285 0.10945422 0.116504565 0.16407062 -0.16507559 -0.010654812 0.16898698 -0.09100326
0.21761891 0.04161483 0.216206 0.07928115 0.1384429 -0.083413064 -0.01025724 -0.12280221
0.03262407 -0.11836331 -0.050482158 0.20681718 -0.1850856 0.0692728 0.16928086 -0.13422582
0.21152559 -0.013949399 -0.07982718 -0.16841158 -0.06650121 -0.012764242 -0.063094355 0.021170342
0.23179385 -0.12093011 -0.1437707 -0.111709125 0.12954141 -0.078626156 -0.14051093 -0.09578804
0.013014906 -0.096593864 0.045279887 0.15366964 0.17709056 0.19378074 -0.04895259 -0.17872122
0.07361735 0.030028664 0.22059888 0.03208551 0.10056335 -0.1715221 -0.07586147 -0.13828267
0.0967613 -0.023554867 -0.15621305 -0.1075025 -0.13730678 0.021228397 0.1794847 0.0831244
0.14022866 0.17455254 0.12735125 0.1171795 -0.09301031 -0.11660409 0.12248344 0.067271374
-0.18882975 0.0057056397 -0.110867776 -0.016741218 -0.03079904 0.16127129 -0.105948225 0.13903919
-0.13677733 -0.0655002 -0.011775522 0.012229891 -0.03501818 0.011273612 -0.003764825 0.031765886
0.007092953 0.0041010613 -0.032322295 -0.020029355 -0.12906003 -0.07057157 0.06724278 -0.17577392
0.04184086 0.023587417 -0.017743267 -0.11594157 0.09038988 0.023336437 0.09942491 0.12126615
-0.07634058 0.21132044 0.031402826 0.019898446 0.009957972 -0.0005212192 0.14620058 -0.14173935
-0.15257813 0.11103148 -0.10699473 0.014199688 0.11626847 0.23622178 0.016987322 0.05498917
-0.15109149 -0.010407852 0.04050996 -0.09073772 -0.23610702 0.010797805 -0.06925656 -0.023875734
0.05067799 -0.02417018 -0.046284363 0.21009612 0.049887475 0.012577004 -0.17188497 -0.063285656
0.018244963 -0.18688123 -0.07611485 -0.1344854 -0.023573369 -0.14107803 -0.16636331 -0.0028731648
-0.14943466 -0.0040499656 -0.14556539 0.16610166 0.12361448 0.22005711 -0.12601212 -0.039441455
0.004521239 -0.04618808 0.09949974 0.12098138 0.030052343 0.09652887 -0.10464602 0.14236595
0.05723258 0.053427313 0.15964317 0.17379212 -0.19882184 0.22266239 0.1924181 -0.02132307
-0.10701858 0.001757489 -0.113701314 -0.17774379 0.19661285 -0.11162137 -0.099477135 -0.07608786
00000000: 3c4a 993d 4275 273c 9ae8 003e 14db 27be
00000010: 0cf8 563c 310e 713d e17e b4bd 6339 1abd
00000020: c9e8 26be 1d88 443e 7acf eabd a5ca 2a3e
00000030: 2371 0fbd d36a 803d 9142 2c3e ec6c 223e
00000040: f1da a6bd 8929 e03d f299 ee3d 2102 283e
00000050: 9309 29be 8591 2ebc ec0a 2d3e eb5f babd
00000060: 7ed7 5e3e 5074 2a3d 1b65 5d3e 285e a23d
00000070: fac3 0d3e 78d4 aabd fc0d 28bc ba7f fbbd
00000080: d1a0 053d 7768 f2bd 61c6 4ebd e2c7 533e
00000090: 1487 3dbe e6de 8d3d f657 2d3e 7e72 09be
000000a0: 2a9a 583e 058c 64bc 6f7c a3bd 1674 2cbe
000000b0: c931 88bd 1c21 51bc 9d37 81bd 6d6d ad3c
000000c0: 5e5b 6d3e 35aa f7bd a038 13be c1c7 e4bd
000000d0: 81a6 043e c006 a1bd 19e2 0fbe 852c c4bd
000000e0: 793c 553c 01d3 c5bd 6777 393d 935b 1d3e
000000f0: 3a57 353e 756e 463e 8382 48bd b202 37be
00000100: b1c4 963d acfe f53c ace4 613e 196c 033d
00000110: 28f4 cd3d 7da3 2fbe 425d 9bbd f999 0dbe
00000120: ca2a c63d 23f6 c0bc 50f6 1fbe 452a dcbd
00000130: 269a 0cbe 2de7 ad3c d6ca 373e 203d aa3d
00000140: 1a98 0f3e e7bd 323e 5e68 023e cefb ef3d
00000150: 307c bebd 20ce eebd 99d8 fa3d 93c5 893d
00000160: 965c 41be 60f6 ba3b a50e e3bd e124 89bc
00000170: 454e fcbc 4d24 253e 62fb d8bd 4a60 0e3e
00000180: 5b0f 0cbe f824 86bd 1eee 40bc e15f 483c
00000190: 396f 0fbd f5b4 383c 48bb 76bb f21c 023d
000001a0: 016c e83b 3262 863b 6264 04bd 9a14 a4bc
000001b0: 5028 04be d487 90bd 95b6 893d 14fe 33be
000001c0: 5261 2b3d 663a c13c 545a 91bc c672 edbd
000001d0: 541e b93d 0e2c bf3c 4a9f cb3d 635a f83d
000001e0: 7358 9cbd 6364 583e 40a0 003d 1102 a33c
000001f0: c326 233c 6ea2 08ba 9bb5 153e 1f24 11be
00000200: 713d 1cbe 7964 e33d 0e20 dbbd cfa5 683c
00000210: 2a1e ee3d 1fe4 713e ff28 8b3c 533c 613d
00000220: bab7 1abe b285 2abc c6ed 253d b3d4 b9bd
00000230: 0ac6 71be 47e9 303c 62d6 8dbd 0b97 c3bc
00000240: b993 4f3d 8b00 c6bc ac94 3dbd 7023 573e
00000250: cf56 4c3d c70f 4e3c 9d02 30be e99b 81bd
00000260: 7676 953c cb5d 3fbe 1ae2 9bbd 8ab6 09be
00000270: f01c c1bc c276 10be 255b 2abe b54b 3cbb
00000280: 6605 19be 93b5 84bb 180f 15be 8e16 2a3e
00000290: 9729 fd3d a756 613e 5209 01be 5d8d 21bd
000002a0: e726 943b b62f 3dbd 85c6 cb3d 16c5 f73d
000002b0: 5530 f63c eeb0 c53d a750 d6bd 61c8 113e
000002c0: b66c 6a3d 99d6 5a3d 8079 233e 90f6 313e
000002d0: f497 4bbe 9c01 643e 4009 453e b8ad aebc
000002e0: 8f2c dbbd 8c5b e63a 3cdc e8bd 7802 36be
000002f0: e154 493e bf99 e4bd abba cbbd f4d3 9bbd

critic.2.weight f4 [192, 192]
-0.033323046 0.054735135 -0.04225041 -0.084356874 0.03537101 -0.01584692 -0.114361264 0.018323576
-0.010128492 -0.010039718 -0.022002902 0.049274947 0.045993183 0.040022016 0.0004590093 -0.07348382
-0.04901493 -0.046154723 -0.015104954 0.016119476 -0.010703235 0.061529588 0.043209877 0.10108814
0.011433762 -0.018971141 0.060738757 -0.02180706 -0.020281615 -0.018989952 0.06573258 -0.017373266
-0.013842442 -0.017017374 0.057522316 -0.011992855 -0.06103774 0.004781892 0.064324506 -0.0812036
-0.0090752 -0.028224416 -0.05854538 0.020689793 -0.0042246184 0.08115687 0.067348905 -0.083132744
-0.026652712 -0.009569597 -0.09078149 0.075942725 -0.061790816 -0.027943766 -0.0054487116 -0.12254538
-0.04583492 -0.039610937 0.03826011 0.05887872 0.031324163 -0.035935584 -0.046522714 -0.031963516
0.03176 -0.024523316 -0.04625226 -0.0065104747 -0.03255089 -0.01922482 -0.04339813 -0.024724448
-0.070211425 0.06219258 0.046086997 -0.06967361 -0.009163407 0.07959544 0.008169297 0.07250658
0.025047971 0.031914536 -0.044367313 0.009049459 -0.051519454 -0.02683822 -0.098252065 0.07017048
0.03568055 -0.024692709 0.052889585 0.0064203436 0.010871906 -0.012725237 0.072578564 0.076354615
0.0015808532 -0.03805527 -0.050239958 0.006429915 -0.0056436155 0.087034404 0.035219394 0.024227832
-0.09067965 -0.04614021 -0.041274097 -0.013109623 -0.02253079 0.021399999 0.02961534 -0.06652031
-0.013300542 -0.034115344 -0.020324089 0.031383548 -0.055181634 -0.030538326 0.032774273 -0.021640748
-0.010511529 -0.0141274175 -0.01908859 -0.013013437 -0.015901687 -0.037096918 -0.020687921 -0.09596328
0.091268025 0.046286535 0.07246328 -0.031791735 0.071819335 -0.036056172 0.021183146 0.05457034
0.06832776 -0.042612694 -0.02198205 0.088625915 0.021549217 0.02807415 -0.044578686 0.015923284
-0.053688932 -0.07304432 -0.01299944 0.07126028 0.021523159 0.042038795 0.023807501 0.008071588
0.06706704 0.027993243 -0.017299978 0.0064306343 -0.01026506 0.01444529 0.047905106 0.003060071
0.00910741 -0.02701948 -0.07439634 0.0021552448 -0.06258457 0.040243976 -0.029071921 0.038945947
0.0830066 0.009041273 -0.07351707 -0.017796272 -0.016623463 -0.047714178 0.022408271 0.00074188993
0.011641216 0.05207951 0.0036397672 -0.022034973 0.048474416 0.04637717 0.025631009 0.017697848
0.010399201 -0.014859002 -0.033723373 -0.084785186 -0.04433553 -0.06004966 0.036198772 0.051971592
-0.049872678 -0.08531245 -0.042682663 -0.031056575 -0.08666749 0.0016037528 -0.0029356615 -0.06676409
-0.09491481 0.074047886 -0.017622408 -0.07345445 -0.015214488 0.023391789 -0.04858123 -0.034571175
0.0662671 -0.019365748 0.01998256 -0.02266952 0.034903243 -0.02191671 0.03803557 0.005064221
0.0341124 -0.024847472 -0.06337625 -0.007215525 -0.09448744 -0.047351956 -0.06771148 -0.08703502
-0.009260333 0.029039446 0.020588184 0.054657407 -0.025925258 -0.08185563 -0.02977018 0.017970419
0.0127400365 0.043714624 0.017923111 -0.0012310155 -0.0083128605 0.00023454415 -0.09498334 0.053647365
-0.0763421 0.022372615 0.05499135 0.06575787 0.01785305 0.004471336 0.026371833 0.02356988
-0.039072894 0.115832664 0.035473384 0.036903594 0.027598938 -0.05580032 -0.02675842 0.030987859
00000000: bf7d 08bd f331 603d c40e 2dbd 4cc3 acbd
00000010: 31e1 103d 66d1 81bc 3d36 eabd 531b 963c
00000020: f9f1 25bc a17d 24bc 6e3f b4bc 87d4 493d
00000030: 5963 3c3d 20ee 233d 2fa7 f039 af7e 96bd
00000040: e1c3 48bd bc0c 3dbd c57a 77bc fe0c 843c
00000050: 9f5c 2fbc 7306 7c3d d7fc 303d 4c07 cf3d
00000060: ac54 3b3c 5e69 9bbc 34c9 783d b8a4 b2bc
00000070: a125 a6bc d190 9bbc ce9e 863d 6152 8ebc
00000080: 69cb 62bc 0568 8bbc 859c 6b3d ae7d 44bc
00000090: b602 7abd 6bb1 9c3b 91bc 833d 134e a6bd
000000a0: 26b0 14bc e436 e7bc 48cd 6fbd a47d a93c
000000b0: ab6e 8abb 9335 a63d 39ee 893d 8041 aabd
000000c0: ca56 dabc cdc9 1cbc a5eb b9bd dc87 9b3d
000000d0: 5e18 7dbd 53ea e4bc 1b8b b2bb 12f9 fabd
000000e0: 66bd 3bbd 143f 22bd a2b6 1c3d d02a 713d
000000f0: c44d 003d 3131 13bd 9a8e 3ebd 2dec 02bd
00000100: c616 023d 1fe5 c8bc 0373 3dbd d255 d5bb
00000110: 1554 05bd 5f7d 9dbc 3dc2 31bd ed8a cabc
00000120: 02cb 8fbd a6bd 7e3d b8c5 3c3d 0ab1 8ebd
00000130: 1d22 16bc ef02 a33d 84d8 053c 547e 943d
00000140: 6731 cd3c d1b8 023d 80ba 35bd 2f44 143c
00000150: 1006 53bd d4db dbbc 6138 c9bd 8ab5 8f3d
00000160: c525 123d 5d48 cabc c0a2 583d bf61 d23b
00000170: 1420 323c 837d 50bc 12a4 943d cf5f 9c3d
00000180: a234 cf3a d8df 1bbd 6ac8 4dbd 09b2 d23b
00000190: 14ee b8bb 183f b23d 3642 103d 7279 c63c
000001a0: 41b6 b9bd 84fd 3cbd 070f 29bd bfc9 56bc
000001b0: 7e92 b8bc 0d4f af3c df9b f23c cd3b 88bd
000001c0: 84ea 59bc 88bc 0bbd b47e a6bc 098c 003d
000001d0: 2306 62bd 832b fabc 513e 063d f047 b1bc
000001e0: 8c38 2cbc af76 67bc ad5f 9cbc 5036 55bc
000001f0: 4144 82bc f0f2 17bd b779 a9bc 6588 c4bd
00000200: bbea ba3d f396 3d3d a167 943d 0d38 02bd
00000210: 0416 933d a3af 13bd 4788 ad3c 2685 5f3d
00000220: 6def 8b3d a68a 2ebd b313 b4bc 8181 b53d
00000230: fc87 b03c c3fb e53c 2498 36bd 8c71 823c
00000240: ede8 5bbd 4398 95bd 9afb 54bc e9f0 913d
00000250: 5651 b03c df30 2c3d f307 c33c b23e 043c
00000260: 725a 893d 1652 e53c afb8 8dbc 12b8 d23b
00000270: c82e 28bc f0ab 6c3c 2538 443d 798b 483b
00000280: 3f37 153c f557 ddbc 1c5d 98bd 023f 0d3b
00000290: 572c 80bd ded6 243d 3d28 eebc c985 1f3d
000002a0: 5dff a93d d921 143c 1e90 96bd 7dc9 91bc
000002b0: ee2d 88bc f16f 43bd 8d91 b73c 647b 423a
000002c0: cdba 3e3c 5351 553d 2989 6e3b b082 b4bc
000002d0: 1c8d 463d fdf5 3d3d 1ff8 d13c 14fb 903c
000002e0: 6961 2a3c 2c73 73bc 8521 0abd dba3 adbd
000002f0: 2c99 35bd a2f6 75bd 2a45 143d 2ae0 543d
00000300: 4b47 4cbd 4bb8 aebd 04d4 2ebd 5c6a febc
00000310: ba7e b1bd 0435 d23a 3a64 40bb 9cbb 88bd
00000320: b262 c2bd 6ba6 973d de5c 90bc 496f 96bd
00000330: 3046 79bc 23a0 bf3c 1dfd 46bd 819a 0dbd
00000340: 0cb7 873d eba4 9ebc 77b2 a33c 6eb5 b9bc
00000350: b4f6 0e3d ac8a b3bc 30cb 1b3d c4f1 a53b
00000360: 72b9 0b3d ed8c cbbc 68cb 81bd 3670 ecbb
00000370: a282 c1bd 20f4 41bd 51ac 8abd 6b3f b2bd
00000380: a7b8 17bc 22e4 ed3c 8da8 a83c 72e0 5f3d
00000390: 3561 d4bc eda3 a7bd 98e0 f3bc b336 933c
000003a0: 96bb 503c 1b0e 333d 7dd3 923c 075a a1ba
000003b0: aa32 08bc f7ef 7539 a086 c2bd 57bd 5b3d
000003c0: 3f59 9cbd c646 b73c 9c3e 613d 10ac 863d
000003d0: 8f40 923c 4984 923b be09 d83c 9f15 c13c
000003e0: e60a 20bd ad39 ed3d 8a4c 113d 3928 173d
000003f0: 2b17 e23c e08e 64bd 7934 dbbc 40da fd3c

critic.2.bias f4 [192]
0.025455298 -0.017800203 -0.023792394 0.0013001253 -0.06674888 0.03997884 0.04933096 -0.02372978
-0.043613657 0.05386955 -0.017970266 0.04557181 0.051857896 0.010248952 -0.03676476 0.08084383
0.009218189 0.048029356 0.013937897 -0.008179771 0.07240206 -0.021278637 -0.01180536 0.055358887
0.00013800946 0.017167516 0.057591617 -0.0036124026 -0.060285427 -0.025822075 0.05055039 -0.008011542
0.00778416 -0.03512658 0.009313051 -0.059872825 -0.02640156 0.0025578628 0.05917312 -0.0017779062
0.025339711 -0.01366517 0.043830253 -0.044734832 0.06712398 0.0029093751 0.0069699986 0.030487197
-0.02268057 0.06637458 -0.007769247 -0.02799355 0.03966324 -0.0689383 0.060751032 -0.01973639
-0.010471655 -0.06914119 0.02943993 -0.06562021 -0.06869229 -0.066850014 -0.036170322 0.044733617
0.048605997 0.014874454 -0.012708926 0.038912967 0.00782754 -0.08193579 -0.022213511 -0.038878027
-0.07825115 -0.0047447523 -0.0030286536 -0.015848147 0.08518962 0.021983339 -0.004210134 -0.054923013
0.040573902 -0.036319192 -0.022137456 -0.01249994 0.061228167 -0.005002232 0.012726852 -0.035904907
-0.04918448 0.041641388 -0.05164223 -0.004499412 -0.035088006 -0.048139386 0.0037651155 -0.018657383
0.049232647 0.054937832 -0.01954608 0.022422934 -0.0004431302 -0.01342108 0.00097556436 -0.05467265
0.08667401 0.05689065 -0.019617567 -0.02507204 0.023425149 -0.01561031 0.0072153783 0.08606598
0.03731561 0.0697368 0.0151433535 -0.031901952 0.038207166 -0.089822285 0.060937807 -0.056972947
-0.057015 -0.04218746 0.05238425 -0.015551491 -0.023532478 -0.029515335 0.06660535 0.029534038
-0.062597014 -0.056199014 0.02526301 -0.07310397 0.079360984 -0.01758979 0.065402 0.048218567
0.062577106 0.0043060193 -0.04912381 0.0011596646 0.021308485 -0.055183664 0.070090964 -0.05546281
0.0025503172 -0.03280659 0.05004667 -0.05595332 0.058719788 0.023689995 -0.013534814 0.012451907
0.019830469 0.05544765 -0.00052042346 0.03246228 -0.024188796 0.029959803 -0.03496901 -0.013859277
-0.04482713 -0.04745546 0.028446052 -0.013534706 -0.0042164437 0.09002771 -0.014841413 -0.065133825
0.0043372316 0.03016515 0.014699228 -0.01917633 0.023045363 0.022971421 0.04568635 -0.01509035
0.031704783 0.0022854083 0.045201745 0.05260562 0.06426132 0.009310956 0.018572804 -0.037705164
0.03059978 -0.015511829 -0.058103256 -0.041735206 -0.067805186 -0.032075953 0.03845363 0.021690445
00000000: a187 d03c bbd1 91bc 44e8 c2bc f768 aa3a
00000010: a3b3 88bd dac0 233d 430f 4a3d f564 c2bc
00000020: 3ca4 32bd 51a6 5c3d 6136 93bc 82a9 3a3d
00000030: f268 543d 38eb 273c a596 16bd 7391 a53d
00000040: e307 173c 6eba 443d c75b 643c 7204 06bc
00000050: 8847 943d 8950 aebc 456b 41bc 00c0 623d
00000060: a2b6 1039 e4a2 8c3c 30e5 6b3d 0fbe 6cbb
00000070: daed 76bd d188 d3bc ed0d 4f3d d842 03bc
00000080: 4412 ff3b e4e0 0fbd c495 183c 353d 75bd
00000090: 1648 d8bc d1a1 273b 835f 723d a208 e9ba
000000a0: 3a95 cf3c e1e3 5fbc 5a87 333d df3b 37bd
000000b0: 4c78 893d 37ab 3e3b 9664 e43b 49c0 f93c
000000c0: 9acc b9bc 65ef 873d 2b95 febb bb52 e5bc
000000d0: ec75 223d 862f 8dbd 13d6 783d 36ae a1bc
000000e0: 4e91 2bbc e599 8dbd 022c f13c e363 86bd
000000f0: 8bae 8cbd a9e8 88bd 5527 14bd 993a 373d
00000100: 1517 473d fbb3 733c 1939 50bc 3463 1f3d
00000110: 153f 003c f4cd a7bd 1cf9 b5bc 913e 1fbd
00000120: 2442 a0bd de79 9bbb 607c 46bb f9d3 81bc
00000130: e577 ae3d 6716 b43c 2af5 89bb f4f6 60bd
00000140: d230 263d 6fc3 14bd 9c59 b5bc 8ccc 4cbc
00000150: 63ca 7a3d c3e9 a3bb 4984 503c 0611 13bd
00000160: aa75 49bd 2990 2a3d ce86 53bd ce6f 93bb
00000170: 71b8 0fbd ce2d 45bd 28c0 763b 5ed7 98bc
00000180: 2ca8 493d 7e06 613d 1a1f a0bc 4db0 b73c
00000190: ee53 e8b9 17e4 5bbc 04bd 7f3a 6ef0 5fbd
000001a0: 2582 b13d 2c06 693d 05b5 a0bc e163 cdbc
000001b0: 19e6 bf3c 63c2 7fbc fb6e ec3b 5c43 b03d
000001c0: 41d8 183d 2bd2 8e3d d41b 783c 9fab 02bd
000001d0: 1e7f 1c3d bff4 b7bd ec99 793d 775c 69bd
000001e0: 9088 69bd c2cc 2cbd de90 563d aecb 7ebc
000001f0: 2fc7 c0bc 25ca f1bc 6368 883d 5ef1 f13c
00000200: dd32 80bd f030 66bd 5ff4 ce3c 89b7 95bd
00000210: 0388 a23d 7718 90bc 7cf1 853d d580 453d
00000220: 6d28 803d 8219 8d3b 0c36 49bd e3ff 973a
00000230: 228f ae3c 4408 62bd da8b 8f3d f92c 63bd
00000240: 3923 273b 3460 06bd bdfd 4c3d 4f2f 65bd
00000250: 2984 703d 8511 c23c 20c1 5dbc 1503 4c3c
00000260: 8273 a23c 131d 633d 076d 08ba 2bf7 043d
00000270: 9527 c6bc 436e f53c aa3b 0fbd 0512 63bc
00000280: a79c 37bd a860 42bd b207 e93c acc0 5dbc
00000290: 182a 8abb 7360 b83d 6629 73bc e264 85bd
000002a0: 561f 8e3b e81c f73c 08d5 703c ae17 9dbc
000002b0: a1c9 bc3c 902e bc3c 9c21 3b3d 843d 77bc
000002c0: e0dc 013d cac6 153b 7725 393d fe78 573d
000002d0: 709b 833d fb8c 183c fe25 983c bb70 1abd
000002e0: 64ac fa3c 5425 7ebc aefd 6dbd 89f2 2abd
000002f0: 72dd 8abd 1362 03bd 8e81 1d3d 29b0 b13c

critic.4.weight f4 [1, 192]
0.06151193 0.10239758 -0.07406493 0.037607424 0.039678343 0.042146962 0.06667417 0.113385625
-0.114317305 -0.079838194 -0.14848219 0.041163564 0.05862081 -0.10068174 0.06274255 -0.13914904
0.09555939 0.075292 0.078751795 0.052157953 -0.067468315 0.025496656 0.032235596 0.081783734
0.07209511 0.113155104 -0.07065247 0.12950619 -0.07778495 -0.23430124 0.037473995 -0.06897024
-0.07258743 -0.14347762 0.06458341 0.06192123 0.08474277 -0.10444087 -0.15742634 -0.020458799
0.023545656 -0.0996162 -0.08185322 -0.05771884 -0.07372191 -0.16742672 0.06917248 0.08453532
0.012365203 -0.09005449 0.082887314 -0.13171707 0.063690566 0.11098629 -0.05710432 -0.032545876
-0.06502431 0.021499746 0.029723017 -0.0755677 0.01568447 0.11853999 0.08878201 0.043741636
0.0591503 -0.09590669 -0.01863775 0.036870133 0.030869268 -0.11042003 0.06652771 0.06684237
-0.12301215 0.06733765 -0.052879065 -0.024368929 -0.062088683 -0.042765547 -0.09653298 -0.08441984
0.088497125 0.040861443 0.04257851 -0.110408135 0.04588965 0.07923826 -0.08725677 -0.1483625
-0.0779008 -0.05303319 0.07517785 -0.12615098 -0.050528172 0.040199652 0.06476112 0.016740339
-0.07609141 0.06539631 0.062408004 0.07824278 0.037290145 -0.0758642 0.035749014 -0.11678213
-0.08211456 0.07036744 0.067888364 0.0386524 0.07225185 0.11260089 -0.14900602 -0.019460414
-0.052387852 -0.09073742 0.09661761 0.058244415 0.06621919 0.017048365 -0.06391743 0.04442983
-0.08705616 0.08248449 -0.07046059 0.041235063 -0.069991976 0.083368465 -0.07436053 -0.087901704
-0.035405494 -0.15216228 0.051652905 0.07843225 -0.045152083 -0.12897635 -0.02165893 -0.12059662
0.06579321 -0.13296206 -0.100698695 0.088260144 -0.0137262475 0.04069901 -0.114206165 -0.044132143
-0.08024549 0.07679352 -0.08834755 0.10572335 0.07551953 -0.1682755 0.043244064 0.095706314
0.092888735 0.06585591 0.10088497 0.105172314 -0.072256714 0.11452115 0.059843365 -0.20035176
0.06544223 -0.09768698 0.045102425 0.043500964 -0.09900823 -0.026870219 -0.050557695 0.07104165
0.08295653 0.05374975 -0.13059357 -0.06000237 -0.12775575 0.03304904 0.03263642 0.04973892
0.008002335 0.060004544 0.05135157 -0.025725229 -0.047621574 -0.10264058 -0.017087186 0.039285522
-0.022289496 0.062125936 -0.18089023 0.017345324 0.09581544 0.059625167 -0.08710231 0.053528015
00000000: eff3 7b3d d3b5 d13d 5baf 97bd 3e0a 1a3d
00000010: c285 223d 4ba2 2c3d 788c 883d b936 e83d
00000020: 311f eabd 3582 a3bd b70b 18be 209b 283d
00000030: 601c 703d 3a32 cebd 2b7f 803d 167d 0ebe
00000040: a4b4 c33d b132 9a3d 9f48 a13d 94a3 553d
00000050: d42c 8abd 5dde d03c 7909 043d 3b7e a73d
00000060: 9aa6 933d ddbd e73d 3eb2 90bd 459d 043e
00000070: b74d 9fbd aaec 6fbe 557e 193d 4540 8dbd
00000080: b8a8 94bd cceb 12be 4f44 843d 1ea1 7d3d
00000090: 9e8d ad3d 18e5 d5bd 5f34 21be 3699 a7bc
000000a0: d2e2 c03c 9403 ccbd a9a2 a7bd 976a 6cbd
000000b0: 83fb 96bd e971 2bbe 4daa 8d3d db20 ad3d
000000c0: 6c97 4a3c 7d6e b8bd d3c0 a93d d7e0 06be
000000d0: 3370 823d c84c e33d 38e6 69bd d34e 05bd
000000e0: 772b 85bd 3c20 b03c af7d f33c 3dc3 9abd
000000f0: b87c 803c 18c5 f23d 58d3 b53d 6e2a 333d
00000100: 9647 723d ba6a c4bd 32ae 98bc 2305 173d
00000110: 8ce1 fc3c e623 e2bd ae3f 883d a7e4 883d
00000120: cbed fbbd 52e8 893d b897 58bd 59a1 c7bc
00000130: b450 7ebd ed2a 2fbd 15b3 c5bd 4fe4 acbd
00000140: fb3d b53d 545e 273d ce66 2e3d a91d e2bd
00000150: c9f6 3b3d ab47 a23d adb3 b2bd 57ec 17be
00000160: 748a 9fbd 5539 59bd d8f6 993d b92d 01be
00000170: a1f6 4ebd 64a8 243d 7aa1 843d 0923 893c
00000180: d0d5 9bbd 80ee 853d 899f 7f3d c03d a03d
00000190: 8dbd 183d b15e 9bbd 8f6d 123d 782b efbd
000001a0: ae2b a8bd ce1c 903d 0e09 8b3d fb51 1e3d
000001b0: c7f8 933d 4c9b e63d 0995 18be 726b 9fbc
000001c0: a594 56bd 8ad4 b9bd 74df c53d b291 6e3d
000001d0: ed9d 873d 03a9 8b3c 24e7 82bd 0efc 353d
000001e0: 804a b2bd a1ed a83d a44d 90bd 19e6 283d
000001f0: f457 8fbd 16bd aa3d 554a 98bd cf05 b4bd
00000200: 5a05 11bd 6ed0 1bbe ff91 533d 16a1 a03d
00000210: 64f1 38bd 6012 04be 126e b1bc 5cfb f6bd
00000220: 97be 863d 3527 08be 1e3b cebd bcc1 b43d
00000230: 0ee4 60bc 01b4 263d ece4 e9bd e8c3 34bd
00000240: bf57 a4bd ec45 9d3d 8fef b4bd 7c85 d83d
00000250: fca9 9a3d 6a50 2cbe b020 313d ac01 c43d
00000260: 733c be3d 77df 863d c79c ce3d 9564 d73d
00000270: 54fb 93bd 118a ea3d 511e 753d 0329 4dbe
00000280: 9306 863d 1d10 c8bd 52bd 383d 112e 323d
00000290: d4c4 cabd ef1e dcbc 9615 4fbd 497e 913d
000002a0: 1de5 a93d b328 5c3d 52ba 05be 0cc5 75bd
000002b0: 67d2 02be 6e5e 073d c4ad 053d 0abb 4b3d
000002c0: 3a1c 033c 53c7 753d 0656 523d b7bd d2bc
000002d0: d70e 43bd 3935 d2bd 6dfa 8bbc dbe9 203d
000002e0: 7698 b6bc c477 7e3d 4a3b 39be c817 8e3c
000002f0: e33a c43d 8539 743d b262 b2bd 3140 5b3d

mean.0.weight f4 [192, 24]
0.17465526 0.050000142 0.042408504 0.032410387 0.15016513 -0.10195395 -0.21001822 0.14711758
-0.10003739 -0.015585819 0.23958817 0.19990088 -0.01002724 0.09341209 0.19849724 -0.13594913
0.0881338 -0.1367213 0.022474743 -0.15622383 -0.16527288 -0.004875664 -0.078243405 -0.011274482
0.03902514 -0.13166046 -0.23085 -0.06629082 0.068769336 -0.10702862 -0.18364638 0.04262521
0.053928483 -0.068435974 -0.23416805 -0.17979753 0.18260342 -0.02493153 0.15670486 0.10249184
0.080520056 -0.14155082 -0.12968464 0.15762796 -0.040729307 -0.13100351 0.12142563 0.041067384
0.12930068 -0.03947516 -0.0789483 0.25616312 -0.08724683 -0.029918175 -0.14712341 0.0890431
-0.08971616 -0.030794458 -0.16629839 0.12677749 -0.090083376 0.027133232 -0.03372025 0.07977086
-0.06408216 -0.10903471 -0.075105436 -0.18401453 -0.05187124 -0.09083942 -0.10610326 0.0026771964
-0.053688098 8.531598e-05 -0.01846954 0.0600398 0.08567641 -0.074995786 -0.14916888 -0.03004162
-0.03756634 -0.07906166 -0.13399753 0.17949244 -0.10387263 -0.17302072 0.051965058 -0.08014021
-0.15494306 -0.15021943 -0.06644017 -0.18482699 -0.13386953 -0.15905628 -0.06673153 -0.07085756
0.039166 -0.20599583 -0.07371481 -0.10842272 0.18108825 0.033029467 -0.09063655 0.19388896
0.042313475 0.040657952 -0.13594058 0.15635307 0.19717434 -0.12584877 -0.040553357 0.02826224
-0.09481619 -0.11083085 -0.022932883 0.12666203 0.14830261 0.044310097 -0.0723144 0.1624858
-0.15839502 0.09751672 0.19918391 0.2073208 0.0036529917 -0.123106875 -0.105331026 -0.06491579
0.19181776 -0.07461192 -0.0662954 0.16011584 -0.17384489 0.035193827 -0.0041575693 0.10967417
-0.0030184777 0.12864242 0.07091224 0.11233019 -0.13288958 0.028525736 -0.08534262 -0.04189528
-0.08200237 0.04768727 -0.12944832 -0.057230342 0.058069747 -0.20621046 0.01684119 -0.018868849
0.06531128 -0.11723332 -0.14234333 0.15588218 0.1062925 -0.08182636 -0.0491808 -0.13482304
-0.12740718 -0.19116654 -0.025205618 -0.07067483 -0.14878717 -0.12923816 0.05261604 -0.16933364
0.09163913 -0.1356927 -0.14890607 0.1732179 0.027021993 -0.21875408 -0.117998615 0.11736756
0.025760682 0.005302114 -0.011479135 0.072017 0.064344086 0.124320574 0.032078065 -0.10147374
0.078513354 -0.082072936 0.009163909 0.20805545 -0.11349286 0.051895767 -0.054369956 -0.034554496
0.15801787 0.24176797 0.1564703 0.1936665 0.11980256 0.04110445 0.17666323 -0.0068717576
-0.099347055 -0.0137709 0.1062597 -0.15564322 -0.22628094 0.09319515 0.19236182 0.015996205
-0.1783885 -0.17125753 -0.014043239 0.023132099 0.19375718 -0.18123333 -0.18759574 -0.053567264
0.143756 -0.12360471 -0.14641343 0.023176197 0.1736778 0.0947273 -0.15559094 -0.123239435
0.08945035 0.124425575 0.18131311 0.0184391 0.1866768 0.14922084 0.02579404 -0.19823931
0.085171446 -0.020125171 0.14096802 0.1439404 -0.009130249 -0.02595593 0.17155874 0.083698355
0.08937172 -0.21164097 -0.1176006 -0.01655295 -0.06857514 0.1301594 0.013330524 0.009218785
0.03709313 0.08310024 -0.09889894 -0.16877346 -0.17665486 0.1925615 -0.12523648 -0.12517749
00000000: d4d8 323e f3cc 4c3d 8ab4 2d3d c1c0 043d
00000010: e3c4 193e 3ccd d0bd 040f 57be fea5 163e
00000020: 67e0 ccbd aa5b 7fbc 9a56 753e d1b2 4c3e
00000030: 4b49 24bc d64e bf3d dc42 4b3e 4036 0bbe
00000040: 7e7f b43d ab00 0cbe f41c b83c 24f9 1fbe
00000050: 4b3d 29be 09c4 9fbb 143e a0bd 9bb8 38bc
00000060: d3d8 1f3d 00d2 06be f163 6cbe 7bc3 87bd
00000070: f0d6 8c3d d231 dbbd cc0d 3cbe c697 2e3d
00000080: 1de4 5c3d 2928 8cbd c0c9 6fbe d81c 38be
00000090: 64fc 3a3e 353d ccbc 3d77 203e 3ee7 d13d
000000a0: b3e7 a43d b3f2 10be 0dcc 04be 3969 213e
000000b0: c6d3 26bd c925 06be 00ae f83d 4636 283d
000000c0: 6667 043e b5b0 21bd a5af a1bd d027 833e
000000d0: 77ae b2bd f616 f5bc 85a7 16be 3b5c b63d
000000e0: 1bbd b7bd a944 fcbc 204a 2abe f5d1 013e
000000f0: a27d b8bd 8346 de3c 3f1e 0abd e85e a33d
00000100: 823d 83bd 974d dfbd e1d0 99bd 4e6e 3cbe
00000110: f076 54bd 050a babd aa4c d9bd e773 2f3b
00000120: 0de8 5bbd abeb b238 6f4d 97bc 4bec 753d
00000130: 1d77 af3d 6497 99bd babf 18be d819 f6bc
00000140: 2adf 19bd 14eb a1bd a636 09be decc 373e
00000150: 2cbb d4bd 582c 31be 50d9 543d 8d20 a4bd
00000160: 65a9 1ebe 1fd3 19be c911 88bd 4943 3dbe
00000170: 1815 09be a6df 22be 8aaa 88bd c51d 91bd
00000180: 876c 203d 92f0 52be caf7 96bd bb0c debd
00000190: 336f 393e e849 073d a89f b9bd d48a 463e
000001a0: e550 2d3d f488 263d 0234 0bbe 051b 203e
000001b0: 12e8 493e 80de 00be 471b 26bd 3786 e73c
000001c0: fe2e c2bd 49fb e2bd bedd bbbc b1b3 013e
000001d0: a4dc 173e 817e 353d 9219 94bd ad62 263e
000001e0: 4e32 22be d9b6 c73d def6 4b3e e74b 543e
000001f0: 0867 6f3b 751f fcbd cbb7 d7bd 92f2 84bd
00000200: e06b 443e 22ce 98bd e2c5 87bd 68f5 233e
00000210: 6504 32be 6727 103d 383c 88bb da9c e03d
00000220: a7d1 45bb d7ba 033e 703a 913d 5f0d e63d
00000230: 3514 08be ceae e93c 1dc8 aebd 639a 2bbd
00000240: dcf0 a7bd ba53 433d 1a8e 04be 5d6a 6abd
00000250: 8bda 6d3d d628 53be 89f6 893c d892 9abc
00000260: ecc1 853d 0618 f0bd 73c2 11be 949f 1f3e
00000270: e2af d93d 9494 a7bd ce71 49bd 0d0f 0abe
00000280: 0777 02be 29c1 43be 037c cebc f7bd 90bd
00000290: aa5b 18be 0257 04be eb83 573d cc65 2dbe
000002a0: 4cad bb3d 07f3 0abe d57a 18be 0860 313e
000002b0: 3a5d dd3c 1201 60be 42a9 f1bd 675e f03d
000002c0: 1108 d33c 5bbd ad3b fb12 3cbc a67d 933d
000002d0: d5c6 833d c99b fe3d 4a64 033d 77d1 cfbd
000002e0: 9ccb a03d db15 a8bd 3824 163c 7d0c 553e
000002f0: f26e e8bd a890 543d 08b3 5ebd 0489 0dbd
00000300: 70cf 213e 0692 773e c039 203e 8350 463e
00000310: 0b5b f53d 245d 283d 35e7 343e 7b2c e1bb
00000320: 7876 cbbd 579f 61bc b09e d93d f060 1fbe
00000330: 31b6 67be 19dd be3d 7ffa 443e 790a 833c
00000340: 7aab 36be 225e 2fbe 9d15 66bc 877f bd3c
00000350: 4868 463e 3b95 39be 1919 40be 5969 5bbd
00000360: c634 133e 7724 fdbd 67ed 15be 02dc bd3c
00000370: 98d8 313e 6300 c23d 3b53 1fbe f564 fcbd
00000380: bf31 b73d d6d2 fe3d 25aa 393e 980d 973c
00000390: 3428 3f3e 59cd 183e 064e d33c 3fff 4abe
000003a0: 5e6e ae3d 8bdd a4bc ec59 103e 1d65 133e
000003b0: 0a97 15bc 88a1 d4bc 18ad 2f3e 0b6a ab3d
000003c0: 8508 b73d 69b8 58be 95d8 f0bd 0d9a 87bc
000003d0: 1f71 8cbd 8148 053e 4568 5a3c 630a 173c
000003e0: f7ee 173d 7530 aa3d 878b cabd f3d2 2cbe
000003f0: 03e5 34be d82e 453e fe3d 00be 872e 00be

mean.0.bias f4 [192]
0.1710883 -0.19924979 -0.16443495 -0.038102914 -0.17800504 0.21002133 0.07054502 0.22325946
0.16340889 0.02350785 0.16127165 0.035261728 -0.046617057 0.099907294 0.15494812 -0.12429813
0.024231246 0.11235274 -0.08931533 0.15699807 0.082444474 0.16950575 -0.106110305 0.12784384
-0.097747765 0.16937284 -0.15671833 -0.15521635 0.12679291 0.045895416 -0.025676316 0.09590628
0.05229431 0.16541678 0.029099068 0.19377667 0.06057846 -0.105778135 -0.086815916 0.14002544
-0.022044571 -0.16365868 -0.10247476 -0.04707675 0.0026341411 0.17150679 -0.12978229 -0.16350204
-0.046474047 -0.041685596 0.08630757 0.071261585 0.035051625 0.016686507 0.05696911 -0.076402955
0.010613288 0.14814416 -0.024624579 0.021273622 0.08738479 -0.11594462 0.204808 -0.038243
-0.03835661 0.015656747 -0.032762013 0.04798632 0.17678617 0.048836134 -0.13433053 -0.17670727
-0.13148955 0.002386047 0.036235604 -0.16496097 -0.11113096 -0.12660088 0.16227506 0.16057146
-0.06431718 0.09657749 -0.15729249 0.16626443 -0.14778183 -0.15055479 -0.13133028 0.04845371
0.07213198 0.17803758 -0.14768557 0.07860599 -0.010407681 0.031874545 0.1975578 0.18696937
-0.110044464 -0.02147932 0.06743184 -0.11452155 -0.15611494 0.13705897 -0.036870904 0.16248241
-0.16627398 0.021043567 0.039999407 0.16487913 -0.04851579 -0.08825582 0.16994433 0.03714392
-0.07157392 -0.101582736 -0.21884637 -0.17688487 0.18376927 0.0931116 0.18817325 0.019699229
0.10572334 -0.1181622 0.030447762 0.13124241 -0.07112826 0.0019143668 0.0075363987 0.18758878
0.009307125 -0.18964992 -0.14006157 -0.10495176 0.090826735 -0.009252425 -0.034746062 -0.13764855
0.13659549 0.0054648137 0.13974357 0.07558526 0.091753915 0.1257245 0.019284932 -0.17888846
-0.12035777 -0.1499782 -0.17954633 -0.07786632 0.17808853 -0.053642016 -0.063389525 0.0009735176
0.14964478 0.15098102 -0.107327625 -0.14921346 0.20232515 -0.12260484 0.034048125 -0.06491638
0.06692912 0.1961068 0.02766173 0.024403445 -0.0032352144 -0.029883573 0.18637596 -0.049978495
-0.14675109 -0.010520646 0.095507145 0.20485307 0.12722656 0.18161981 -0.052590474 0.031167483
0.16556525 0.10282134 0.09630001 0.19764793 0.10450974 -0.13137314 -0.043489113 -0.046559483
0.1450936 0.16670842 0.1971136 -0.10059872 0.027459588 -0.008605364 0.00055638026 0.14219545
00000000: c531 2f3e 2308 4cbe a361 28be cd11 1cbd
00000010: f446 36be d50f 573e e879 903d 219e 643e
00000020: a954 273e 8993 c03c 6524 253e 9a6e 103d
00000030: 87f1 3ebd 329c cc3d b8aa 1e3e 0590 febd
00000040: 9b80 c63c 3119 e63d f5ea b6bd 1ac4 203e
00000050: a6d8 a83d ea92 2d3e 5c50 d9bd 7fe9 023e
00000060: fb2f c8bd 1370 2d3e c57a 20be 09f1 1ebe
00000070: 00d6 013e d5fc 3b3d 2357 d2bc 836a c43d
00000080: 8f32 563d 0463 293e 2b61 ee3c 646d 463e
00000090: 1f21 783d 35a2 d8bd 8bcc b1bd d462 0f3e
000000a0: d196 b4bc 2496 27be 49de d1bd 8dd3 40bd
000000b0: 8ea1 2c3b 7a9f 2f3e a6e5 04be 146d 27be
000000c0: 925b 3ebd 84be 2abd 06c2 b03d 98f1 913d
000000d0: 4b92 0f3d 24b2 883c 7158 693d 2779 9cbd
000000e0: 5be3 2d3c 1ab3 173e 7cb9 c9bc 0546 ae3c
000000f0: ccf6 b23d 5f74 edbd 30b9 513e b1a4 1cbd
00000100: d21b 1dbd 9442 803c 7631 06bd 4e8d 443d
00000110: 6f07 353e 6608 483d f18d 09be c0f2 34be
00000120: 32a5 06be 3a5f 1c3b c96b 143d 87eb 28be
00000130: a198 e3bd a9a3 01be 6f2b 263e d86c 243e
00000140: bab8 83bd 6bca c53d 4811 21be 3941 2a3e
00000150: 1f54 17be 092b 1abe 727b 06be 6677 463d
00000160: eeb9 933d 7c4f 363e e33a 17be 2dfc a03d
00000170: fa84 2abc e28e 023d 984c 4a3e e674 3f3e
00000180: fe5e e1bd 66f5 afbc b419 8a3d 468a eabd
00000190: 98dc 1fbe 3059 0c3e f205 17bd ca61 263e
000001a0: ba43 2abe 8f63 ac3c 6bd6 233d 13d6 283e
000001b0: 7eb8 46bd 78bf b4bd e305 2e3e 3924 183d
000001c0: 5995 92bd 9c0a d0bd 4319 60be 4f21 35be
000001d0: 032e 3c3e 4bb1 be3d 7db0 403e 4760 a13c
000001e0: 7a85 d83d 06ff f1bd 966d f93c 6964 063e
000001f0: b1ab 91bd 7eeb fa3a e5f3 f63b 4617 403e
00000200: e97c 183c 9733 42be 4d6c 0fbe f3f0 d6bd
00000210: 5e03 ba3d 7c97 17bc e351 0ebd bef3 0cbe
00000220: b0df 0b3e 2e12 b33b f018 0f3e 72cc 9a3d
00000230: 7ae9 bb3d ecbd 003e 6ffb 9d3c 892e 37be
00000240: 227e f6bd e393 19be feda 37be 6178 9fbd
00000250: d75c 363e bbb7 5bbd 5ed2 81bd a933 7f3a
00000260: 7b3c 193e c59a 1a3e 96ce dbbd 6acb 18be
00000270: 532e 4f3e 3f18 fbbd 0c76 0b3d e1f2 84bd
00000280: 2212 893d 39d0 483e da9a e23c bce9 c73c
00000290: e405 54bb 65ce f4bc 57d9 3e3e 40b6 4cbd
000002a0: eb45 16be ca5e 2cbc 4099 c33d 01c5 513e
000002b0: ae47 023e 8bfa 393e 1c69 57bd f352 ff3c
000002c0: f089 293e ff93 d23d f138 c53d 3864 4a3e
000002d0: 3409 d63d ae86 06be a421 32bd 28b5 3ebd
000002e0: 6b93 143e 9db5 2a3e 26d8 493e b406 cebd
000002f0: eef2 e03c 83fd 0cbc 0cda 113a af9b 113e

mean.2.weight f4 [192, 192]
-0.0078035826 -0.045689642 0.009540188 0.033078153 0.011863993 -0.0001877431 0.0130025055 -0.009383797
0.048560124 0.06661935 0.006096048 0.061889336 -0.010933802 0.079319306 -0.036474593 -0.01904647
0.03887735 -0.08818644 -0.0025449786 0.0054411343 0.009693244 -0.006638839 -0.05602136 -0.013086396
0.04724481 -0.009440677 -0.07402413 0.07433975 -0.011888711 0.080387756 0.021990713 -0.018765546
-0.013588989 -0.07231916 -0.07215094 0.041963313 0.04099018 0.05366045 -0.06804905 -0.011281954
-0.08631087 -0.026636312 0.020618325 0.031745598 0.002749842 0.0076212934 -0.0205989 0.013574354
0.061624024 -0.010294317 -0.010788933 0.06309354 0.0010202441 -0.06481217 -0.008686749 0.04905995
-0.013596942 -0.037096497 0.017945796 0.017218651 -0.0048723733 0.012997081 0.06319214 0.017924152
0.00094770815 0.04245638 0.014661601 0.013192432 -0.04460721 0.024658876 0.05847697 0.06907443
0.05823579 -0.011893301 0.06269129 -0.0024610835 -0.045248352 0.0020750351 0.0035933554 0.0449636
0.044765506 0.0024233963 0.03944173 -0.0042966525 -0.0060292426 0.042910058 -0.009705156 -0.05245532
0.017356036 0.02978557 0.02840678 -0.006672822 0.013988017 -0.05481617 0.0044133966 0.058341913
0.08805741 -0.02913795 -0.013632414 0.05220455 0.081868894 0.0452934 -0.08261609 0.05713467
-0.018075664 -0.058461964 0.025629135 -0.046049446 0.017323766 0.056896605 0.00034665977 -0.009815937
0.064858556 -0.04021506 0.06976733 0.0066995095 0.07099784 -0.0014126439 -0.024685957 -0.0582724
0.063874654 0.018005146 0.05321482 0.04419846 0.03855556 -0.046604168 0.018482788 -0.027625008
0.045863636 -0.0135634495 0.02267769 0.033554032 0.0153629165 -0.061219808 0.07511699 -0.003215938
0.05870289 0.04999931 0.045117907 -0.026285307 0.018700037 0.032126598 -0.041244194 0.004873525
0.026769642 0.075696096 -0.07571825 0.013894171 -0.0669376 0.027291605 0.0724693 0.037632257
0.008256075 0.0019420424 0.049290888 0.015668346 0.051482115 -0.010094599 -0.017458668 0.07047012
-0.03200015 -0.011370577 -0.030228918 -0.0016778328 0.053825293 0.0025261561 0.0074693193 0.017584033
0.05813318 -0.05933817 -0.005912495 0.05772483 -0.04653099 0.012684107 0.06678494 0.07204585
-0.022920791 -0.04055319 -0.036887456 0.055371296 0.028386608 0.051634453 0.008118955 -0.036747742
-0.023355477 -0.028143262 -0.02043509 -0.042458337 0.02114639 0.06568768 0.069935925 0.007857752
-0.017631952 -0.014614857 -0.00804951 0.05419846 0.015469129 0.026556617 0.01585653 -0.049243588
-0.027419847 0.0034366727 -0.009035874 -0.0137756625 -0.025580864 0.036056053 8.683551e-05 0.04638474
0.024983615 -0.021633664 -0.031105736 -0.0106997 0.009216411 -0.0028358984 -0.02669293 0.022573581
-0.048424374 0.026540667 0.064858854 0.04298427 0.014812995 -0.06431665 -0.003991481 -0.014582002
-0.023222165 0.09675765 0.042351194 0.040244456 0.10172975 -0.0732767 -0.057701908 0.06488014
0.00055535027 -0.010277905 -0.055952117 0.00037182803 0.04818735 0.053170916 -0.028255643 0.032952975
0.035030942 -0.010092385 -0.061535764 0.07793133 0.063617714 0.053165946 0.097119436 0.07555315
0.07215079 0.029298464 -0.005706599 -0.010171822 0.0048613143 -0.012804472 0.034056168 0.03231834
00000000: 32b5 ffbb 1025 3bbd 734e 1c3c f57c 073d
00000010: 3161 423c e8dc 44b9 7608 553c 7fbe 19bc
00000020: fbe6 463d ba6f 883d 5bc1 c73b ac7f 7d3d
00000030: b123 33bc 2972 a23d 6266 15bd 5807 9cbc
00000040: db3d 1f3d 189b b4bd a8c9 26bb 8b4b b23b
00000050: 69d0 1e3c 9e8a d9bb a776 65bd 5368 56bc
00000060: c683 413d 12ad 1abc f799 97bd 703f 983d
00000070: dec8 42bc 56a2 a43d de25 b43c 34ba 99bc
00000080: 5aa4 5ebc 111c 94bd dfc3 93bd b9e1 2b3d
00000090: 52e5 273d 0fcb 5b3d 4d5d 8bbd f2d7 38bc
000000a0: c1c3 b0bd 6534 dabc c3e7 a83c ac07 023d
000000b0: b136 343b 0bbc f93b 06bf a8bc f866 5e3c
000000c0: 7969 7c3d 7fa9 28bc 11c4 30bc 3037 813d
000000d0: b6b9 853a 3ebc 84bd de52 0ebc 16f3 483d
000000e0: b5c5 5ebc 7ff2 17bd 1003 933c 210e 8d3c
000000f0: 6ea8 9fbb b5f1 543c e16a 813d acd5 923c
00000100: 9e6f 783a bee6 2d3d 3637 703c 1225 583c
00000110: 0db6 36bd 6901 ca3c 8c85 6f3d e576 8d3d
00000120: a788 6e3d 1fdc 42bc 4b64 803d 214a 21bb
00000130: 5656 39bd 50fd 073b 807e 6b3b c02b 383d
00000140: 095c 373d d8d1 1e3b a78d 213d efca 8cbb
00000150: f490 c5bb 75c2 2f3d 6002 1fbc 64db 56bd
00000160: 3f2e 8e3c de00 f43c 56b5 e83c b0a7 dabb
00000170: ff2d 653c ec86 60bd 419e 903b eef7 6e3d
00000180: 7257 b43d b6b2 eebc 7d5a 5fbc 70d4 553d
00000190: e1aa a73d 9285 393d a032 a9bd 0b06 6a3d
000001a0: 6a13 94bc d075 6fbd 31f4 d13c 589e 3cbd
000001b0: 92ea 8d3c 6a0c 693d e3bf b539 06d3 20bc
000001c0: 90d4 843d 8cb8 24bd 2de2 8e3d 8f87 db3b
000001d0: 5167 913d 7728 b9ba 343a cabc 0aaf 6ebd
000001e0: b7d0 823d 877f 933c c8f7 593d 7209 353d
000001f0: 6fec 1d3d 03e4 3ebd 3769 973c d74d e2bc
00000200: 82db 3b3d 3b39 5ebc 90c6 b93c f46f 093d
00000210: beb4 7b3c 9fc1 7abd f0d6 993d 7dc2 52bb
00000220: 7172 703d 14cc 4c3d 8ecd 383d 4954 d7bc
00000230: d230 993c 2e97 033d acef 28bd 17b2 9f3b
00000240: 024c db3c 8e06 9b3d 2b12 9bbd 61a4 633c
00000250: 9516 89bd a592 df3c c96a 943d 4824 1a3d
00000260: 7d44 073c 218c fe3a 3ee5 493d e75a 803c
00000270: e9de 523d d163 25bc 7b05 8fbc a352 903d
00000280: 9712 03bd a84b 3abc a3a2 f7bc baea dbba
00000290: e977 5c3d de8d 253b 31c1 f43b 640c 903c
000002a0: 0f1d 6e3d 950c 73bd 9abd c1bb df70 6c3d
000002b0: 4897 3ebd 00d1 4f3c 8bc6 883d c68c 933d
000002c0: 62c4 bbbc 1a1b 26bd 4d17 17bd 03cd 623d
000002d0: 088b e83c a67e 533d 5e05 053c cd84 16bd
000002e0: fc53 bfbc b38c e6bc 7d67 a7bc cbe8 2dbd
000002f0: 323b ad3c 4387 863d 913a 8f3d cdbd 003c
00000300: e270 90bc 2773 6fbc 18e2 03bc 34ff 5d3d
00000310: 3b72 7d3c 438d d93c 8ee5 813c a5b3 49bd
00000320: 969f e0bc cd39 613b 340b 14bc 51b3 61bc
00000330: f68e d1bc 83af 133d 761b b638 edfd 3d3d
00000340: 70aa cc3c 1539 b1bc 75d1 febc cb4d 2fbc
00000350: 6e00 173c 7bda 39bb 22ab dabc 3bec b83c
00000360: a358 46bd d06b d93c b8d4 843d 4610 303d
00000370: 34b2 723c 73b8 83bd f8ca 82bb 59e9 6ebc
00000380: 693c bebc e028 c63d 7278 2d3d 5fd7 243d
00000390: b057 d03d 1812 96bd d658 6cbd e1df 843d
000003a0: ed94 113a a864 28bc 0c2e 65bd eaf1 c239
000003b0: 1960 453d bfc9 593d 6178 e7bc b3f9 063d
000003c0: 9b7c 0f3d 885a 25bc ed0c 7cbd 769a 9f3d
000003d0: 014a 823d 89c4 593d 8ee6 c63d 9cbb 9a3d
000003e0: cbc3 933d 5503 f03c 6cfe babb b7a7 26bc
000003f0: a94b 9f3b d9c9 51bc 7b7e 0b3d 3c60 043d

mean.2.bias f4 [192]
0.0012290922 0.02999199 0.015921975 0.03559467 0.06001512 0.051268596 0.01704766 0.0057571637
-0.022919318 0.0501031 -0.035665993 -0.002023026 -0.05063286 -0.049308255 0.051002625 -0.024049498
0.072320655 0.034577496 -0.0113747325 0.057590693 -0.029435737 -0.021025632 0.054187365 0.029677039
0.011290979 0.061355107 -0.029250419 0.06374996 0.019501526 0.014503838 0.054331254 0.05790403
0.044254437 0.020378185 0.012407407 0.049158033 -0.0014694601 -0.041853007 0.07091309 -0.043264493
-0.022762094 0.02254783 0.027174748 0.0018833532 0.03522579 0.055053223 0.039912704 -0.058911383
0.048063762 -0.038790867 0.042073652 -0.030743796 0.09020349 0.024497468 -0.069213934 -0.036398564
-0.034522284 -0.011145911 0.037852503 0.049235824 0.040823188 -0.037600946 0.012356378 0.041273072
0.056046456 0.07729144 -0.062692806 -0.05235083 0.07012836 -0.013448043 0.027151475 0.027938815
-0.032680206 -0.06913585 0.017847933 -0.05181152 0.03521642 0.033816736 -0.03815273 0.019459391
-0.021736847 -0.010040318 0.028278034 0.06805503 -0.0035775823 -0.055563405 -0.051898573 -0.034164928
0.012080282 0.02259826 0.07324988 0.06104341 0.008494103 -0.06751347 -0.02385664 -0.0013839675
0.030252153 0.015241418 0.012188898 0.025283705 -0.050420124 -0.0698695 0.08517605 0.08072521
-0.030646807 0.03544146 -0.023512146 -0.015963394 0.058276344 0.04188355 0.010027308 0.033657957
-0.002046229 0.024784343 0.04255227 -0.05415717 -0.02798289 0.05724944 0.06308876 -0.033080414
-0.0026391665 0.044664048 -0.002355167 0.034702804 -0.014402737 -0.028489705 0.02511072 0.011261089
0.07155593 -0.007021752 -0.05147367 0.06361811 0.046616815 -0.054937586 -0.03858608 -0.043657493
-0.00059338135 -0.035490092 -0.02379677 0.06292644 -0.025826376 0.019125989 0.056102082 -0.025967255
0.06762878 -0.062639475 0.013472783 0.07412844 0.027329173 -0.027770942 0.03698552 0.01459054
0.042685833 -0.004891398 -0.047910586 0.014888403 -0.013915184 0.07608442 0.070212044 -0.061219897
-0.053445887 -0.04341168 0.0012819276 0.021721572 -0.050739132 0.0049340436 -0.021630883 -0.0423336
-0.02413275 0.0133478455 -0.040148493 -0.020698303 -0.030063238 -0.017596228 0.027626688 -0.01578872
-0.07491428 -0.07115133 0.008697039 -0.007656172 0.012560652 0.044889618 0.05658508 -0.022418382
0.0011326963 -0.02511728 0.068459004 0.01995167 0.02361286 0.04638755 -0.038636487 0.052816685
00000000: 7e19 a13a c3b1 f53c cd6e 823c b7cb 113d
00000010: 6ad2 753d 05ff 513d 89a7 8b3c 97a6 bc3b
00000020: 4bc1 bbbc e838 4d3d 8116 12bd bf94 04bb
00000030: 6764 4fbd 74f7 49bd 21e8 503d 7403 c5bc
00000040: da1c 943d 22a1 0d3d 165d 3abc 38e4 6b3d
00000050: 3723 f1bc f23d acbc 92f3 5d3d 431d f33c
00000060: ccfd 383c 7e4f 7b3d 939e efbc 578f 823d
00000070: aac1 9f3c 81a1 6d3c 738a 5e3d c72c 6d3d
00000080: 2444 353d 27f0 a63c 7048 4b3c ef59 493d
00000090: e69a c0ba 0f6e 2bbd e23a 913d 1c36 31bd
000000a0: 9277 babc 3ab6 b83c 949d de3c d9da f63a
000000b0: eb48 103d 7d7f 613d 817b 233d 104d 71bd
000000c0: 82de 443d 2ce3 1ebd 6c55 2c3d 6ada fbbc
000000d0: 9bbc b83d eaae c83c 09c0 8dbd a916 15bd
000000e0: 3d67 0dbd 579d 36bc 3a0b 1b3d 81ab 493d
000000f0: 3736 273d 7303 1abd 6872 4a3c f40d 293d
00000100: f890 653d f94a 9e3d 1665 80bd d36d 56bd
00000110: 759f 8f3d 2e55 5cbc c56c de3c f1df e43c
00000120: aedb 05bd 1997 8dbd d435 923c 5138 54bd
00000130: 183f 103d 6b83 0a3d 0946 1cbd 4d69 9f3c
00000140: 7911 b2bc 2580 24bc 56a7 e73c 7060 8b3d
00000150: df75 6abb 7496 63bd 9993 54bd 86f0 0bbd
00000160: 60ec 453c fc1f b93c 0804 963d a808 7a3d
00000170: da2a 0b3c 8144 8abd 006f c3bc 3e66 b5ba
00000180: 5dd3 f73c 24b7 793c f2b3 473c c61f cf3c
00000190: 5585 4ebd be17 8fbd c870 ae3d 4253 a53d
000001a0: 030f fbbc 102b 113d 8b9c c0bc aac5 82bc
000001b0: 2db3 6e3d 168e 2b3d 9449 243c eddc 093d
000001c0: 071a 06bb 8908 cb3c 4a4b 2e3d e9d3 5dbd
000001d0: 603c e5bc 647e 6a3d ae34 813d 547f 07bd
000001e0: def5 2cbb a6f1 363d 2559 1abb 8724 0e3d
000001f0: 75f9 6bbc 3e63 e9bc ffb4 cd3c 6e80 383c
00000200: ea8b 923d ba16 e6bb 0ed6 52bd 364a 823d
00000210: 46f1 3e3d 3c06 61bd 700c 1ebd 33d2 32bd
00000220: 268d 1bba 0f5e 11bd 72f1 c2bc 94df 803d
00000230: d691 d3bc 1bae 9c3c 4ccb 653d 48b9 d4bc
00000240: f580 8a3d 2049 80bd f3bc 5c3c a7d0 973d
00000250: 6ee1 df3c e37f e3bc 217e 173d 290d 6f3c
00000260: 57d7 2e3d 0548 a0bb e43d 44bd 7dee 733c
00000270: 83fc 63bc 26d2 9b3d 55cb 8f3d b7c1 7abd
00000280: 13ea 5abd 72d0 31bd 5a06 a83a 70f1 b13c
00000290: d6d3 4fbd c2ad a13b 4033 b1bc ff65 2dbd
000002a0: 0cb2 c5bc ecb0 5a3c bf72 24bd 7d8f a9bc
000002b0: 2e47 f6bc f725 90bc 5d51 e23c 5957 81bc
000002c0: a86c 99bd cab7 91bd 077e 0e3c a0e0 fabb
000002d0: 31cb 4d3c 2dde 373d c2c5 673d c1a6 b7bc
000002e0: fb76 943a c1c2 cdbc 3c34 8c3d af71 a33c
000002f0: c26f c13c df00 3e3d 4b41 1ebd 4f56 583d
