model/walker.pt (torch_old, 681766 bytes, 22 tensors)

critic.0.weight f4 [192, 24]
000000 fe 83 86 be 10 55 af bd 0b 1f 57 be 83 61 cc be
       -0.26272577 -0.08561146 -0.21007936 -0.39918146
000010 97 17 fc 3d 5e d2 20 3d f8 09 19 bd ca c3 03 3d
       0.12309187 0.03926312 -0.037363023 0.03216914
000020 1a 54 e3 bc c5 ee 50 3e a6 a2 38 bc a5 f3 3a bd
       -0.027750064 0.20403583 -0.011269247 -0.045642514
000030 24 80 31 bd 62 76 bc 3b 77 6f d7 bd 57 96 95 bd
       -0.043335095 0.005751417 -0.10519307 -0.07304066
000040 b2 8b 12 be 4b e4 58 3d 22 5a 26 be 29 c8 bf bd
       -0.14311102 0.052952092 -0.1624532 -0.093643494
000050 72 26 aa bc a4 12 a7 bc ec 34 97 bd 3f 7d c5 bd
       -0.020770285 -0.02039463 -0.07383141 -0.096430294
000060 0a 3d 00 3f 85 28 b4 3c 31 a7 e9 bc a4 f5 21 3e
       0.5009314 0.021991977 -0.028522106 0.1581636
000070 96 ac f6 3d d3 0b 7d 3b 2b f5 2b be 9e a9 ad 3c
       0.12044637 0.0038611784 -0.16792743 0.021199044
000080 d9 51 7c bd 9f 3b 39 3e f7 8e d3 bc 14 48 14 be
       -0.061601494 0.1808915 -0.025825007 -0.1448062
000090 ea b4 05 bc 8f dd 89 3b 16 a3 63 be ca f2 16 3d
       -0.008160809 0.00420732 -0.22230181 0.036852635
0000a0 5c 40 6b be 6a d3 4f be df 04 f5 bb dc f8 27 be
       -0.2297377 -0.20295492 -0.0074773873 -0.16403526
0000b0 79 ae fd bd 39 4d 3c 3e 7e d5 05 be 56 01 d1 3d
       -0.12386794 0.18388833 -0.13069722 0.10205333
0000c0 e2 94 a7 3d 49 c9 fe be 2c e8 46 be a7 c3 16 be
       0.08182694 -0.49762943 -0.19424504 -0.14723073
0000d0 c2 fe c7 3d a9 e8 bf bd dc b9 ba 3c 1a d4 a7 3c
       0.09765388 -0.09370548 0.022793703 0.02048688
0000e0 f4 d0 c3 bd ec 82 ff 3d 73 88 3a bc 30 31 25 be
       -0.09561339 0.12476143 -0.011385071 -0.16132045
0000f0 2e 6f d2 bc ba 0f db bd 43 b8 06 3e 61 f8 15 3e
       -0.02568778 -0.10696359 0.13156228 0.1464553
000100 92 ab 52 3c af 8a 06 3e 5e c2 a9 bd 18 31 b8 3d
       0.012858288 0.13138841 -0.08289026 0.08993739
000110 68 ba 10 3e b0 04 41 be 90 b5 58 bd 39 61 b4 bd
       0.14133608 -0.18849444 -0.052907526 -0.08807606
000120 cc a8 df be b7 d1 cb bd 00 66 4d bd 57 f1 ec 3e
       -0.4368347 -0.09952109 -0.050146103 0.46277878
000130 c6 8c 6e bd 6c 99 d2 bc 32 03 61 3d 29 c4 3c bc
       -0.05823972 -0.025707923 0.054934688 -0.011521378
000140 a0 72 66 3c 02 9b 8d bd b1 b4 cf 3c 72 86 14 be
       0.014065415 -0.06914331 0.025354715 -0.14504412
000150 89 b5 39 3c ff 48 80 3b 85 0f 3b be 52 e2 03 be
       0.011334785 0.003914952 -0.18267639 -0.12879303
000160 82 e4 88 bd 90 d8 aa bd 52 fb 7a be 4a ff 05 be
       -0.066842094 -0.08342087 -0.24509934 -0.13085666
000170 2e 2c fc bc da 00 12 bb 3e e1 31 3e ce 2c 6d 3c
       -0.030782785 -0.002227834 0.1737108 0.014476014
000180 95 54 a8 3c fd e7 11 be 3b 0b 23 be d4 00 61 be
       0.020548144 -0.14248653 -0.15922253 -0.21972972
000190 a4 03 01 be 95 5f 6d b9 f7 ab e5 3d be 8c 21 3d
       -0.12599045 -0.00022637688 0.1121444 0.039440863
0001a0 60 bf 94 3c 16 da 98 bd bc 42 b5 bc 6d fe 76 be
       0.018157661 -0.074634716 -0.022126548 -0.24120493
0001b0 bc ac 12 bc a6 3c 61 bc 04 03 0e be 06 17 09 be
       -0.008952316 -0.01374737 -0.13868338 -0.13387689
0001c0 e0 dc 81 be 59 72 46 be bc 03 77 3d af 8c 1a 3e
       -0.25363827 -0.19379558 0.060306296 0.15092729
0001d0 73 87 23 3d 35 8a e7 bd e3 d7 1e be 27 a7 e7 3d
       0.039924096 -0.11305658 -0.15512042 0.11311179
0001e0 35 bf b6 be 77 06 00 3f 06 c8 37 be cf a6 68 3f
       -0.35692754 0.50009865 -0.17947397 0.9087953
0001f0 a2 26 dd 3d 38 47 78 bc 60 a7 9f 3d 76 b5 9d bc
       0.10798384 -0.015153699 0.07795596 -0.019251566
000200 c1 98 d5 bc a9 e2 ef bc 2a b9 7a 3b 36 dd 12 bc
       -0.026073815 -0.029282885 0.003825734 -0.008963874
000210 9c fc 32 3c ee ab 09 bb 3c 5b 91 3c 8f a8 03 be
       0.010924485 -0.002100702 0.0177437 -0.12857269
000220 68 aa 8d bd ff d6 f4 bd c9 61 87 3e 20 5d 8e bd
       -0.06917268 -0.1195507 0.26441792 -0.06951356
000230 d9 74 0b 3e 35 93 1e 3e 59 90 76 3e ff 1a 58 be
       0.13618793 0.15485843 0.24078502 -0.21104048
000240 87 d9 fb 3d b6 91 15 bb da 76 c4 bc f2 34 33 be
       0.122973494 -0.0022822446 -0.023982454 -0.17500666
000250 dc 15 b9 3c f0 34 0f bb 5b 55 4d bd 60 6e 5b 3c
       0.022593431 -0.0021851622 -0.05013023 0.013393015
000260 8f ea 8e 3c 1e 31 27 be d2 5a 08 3d c3 93 dc bd
       0.01744583 -0.1632733 0.033289738 -0.10770371
000270 f8 1e 06 3c 06 07 e4 3c bd 73 2e bd 59 f0 af bc
       0.008186094 0.02783538 -0.042590845 -0.021476911
000280 5a 20 c6 bc 00 31 59 be 8d 36 32 be 55 71 12 3c
       -0.024185348 -0.21210098 -0.17403622 0.008938153
000290 20 50 8d 3d 1d 3e 16 be 91 78 40 3d 0a f4 af bc
       0.06900048 -0.14672132 0.04698998 -0.021478672
0002a0 b8 07 e6 bc e2 1d f3 be 6b 60 29 3e fe 15 ef 3e
       -0.028079852 -0.47483736 0.16540687 0.46696466
0002b0 03 2f 52 bd ce 11 57 bd 34 c6 fe 3d 76 bc 61 bd
       -0.051314365 -0.052507214 0.12440148 -0.05511137
0002c0 51 61 9a 3c 18 09 9e be 9b 1b b1 3c 5f a6 b2 bb
       0.018845232 -0.30866313 0.021619609 -0.005451962
0002d0 32 5d f2 bc 7e 72 c7 ba 28 5b c4 3d fe 05 12 3e
       -0.029585455 -0.0015216616 0.09587699 0.14260098
0002e0 38 c2 41 be 9a 12 5e 3d 1d f0 21 be 57 8e 82 bd
       -0.18921745 0.05421696 -0.15814252 -0.063748054
0002f0 32 5a 67 bd 62 2a db 3c bc 9a f0 3d b9 4a fc bd
       -0.0564825 0.026753608 0.11748263 -0.1231894
000300 f2 99 99 bb 52 50 42 3e 62 29 19 bf 31 64 1c 3f
       -0.004687541 0.18975952 -0.5982877 0.6109038
000310 c5 a4 c1 bd 20 a0 cf bb 35 af a4 bc 44 b4 07 ba
       -0.094552554 -0.006336227 -0.020103076 -0.0005176703
000320 6a 5d 9d 3b 4e 5b 4d be a1 dc d7 bc cd 96 d2 bd
       0.0048023956 -0.20054361 -0.026350321 -0.10282669
000330 5d 8e 6a 3c c9 2c 54 3d c7 4a ae bd a4 cb 68 3e
       0.014316169 0.051800523 -0.085103564 0.22733933
000340 43 9f 00 3d aa f5 02 be bc 23 ef bd c4 b2 19 bd
       0.031401884 -0.12789026 -0.11676738 -0.037524
000350 a9 2b ea 3d e6 da d7 3d bb 63 97 3d e9 4b 26 bd
       0.11434109 0.105397984 0.07392069 -0.040599737
000360 bd 31 89 3e 2a 7d 83 bf 77 53 98 bd e8 a9 62 3d
       0.2679576 -1.0272572 -0.07437795 0.055337816
000370 6e 69 b3 bd 31 8a 83 bd 16 3b 8c bd 60 fa 70 3a
       -0.087603435 -0.06422842 -0.06847207 0.0009192582
000380 13 70 5e bc b9 84 97 be 5e 0c 7b bd d6 18 84 bd
       -0.013576525 -0.29593447 -0.06129109 -0.064500496
000390 03 73 fd bc 00 a4 0b bd b9 0a c4 3d 25 b8 20 be
       -0.03093863 -0.03409195 0.09572358 -0.15695246
0003a0 d4 4d 01 bd f7 b9 93 bc 51 55 ac bd 71 f2 8c 3d
       -0.031568363 -0.01803301 -0.0841471 0.068821795
0003b0 ea 16 62 be 78 c1 28 3e c0 23 15 3e 78 71 e2 bc
       -0.22079054 0.16480052 0.14564419 -0.027641997
0003c0 a5 b6 2c bd e6 d2 92 be a2 51 c9 3b 61 0b 14 3e
       -0.04216637 -0.28676528 0.0061437646 0.14457466
0003d0 d4 78 d5 3c 38 92 91 bc 23 8d f0 3b e8 85 1f bc
       0.026058592 -0.017769918 0.0073410436 -0.009736516
0003e0 7e 58 a7 bb 33 7e 30 3e 9e f8 ce bb 52 91 56 bb
       -0.0051069846 0.17235641 -0.0063162586 -0.0032740426
0003f0 fe be e5 3b b5 a3 2f bc 5a 6b 57 3e a5 27 ba 3d
       0.0070112934 -0.010720183 0.21037045 0.09089593

critic.0.bias f4 [192]
000000 43 b1 09 3e da 4f 5b 3e b8 d7 cd bc 2c d0 84 3e
       0.13446526 0.2141718 -0.025127277 0.25940073
000010 db 0c 21 3e 7c 63 02 be fc 46 bc ba b6 57 ae 3d
       0.1572756 -0.12733263 -0.0014364417 0.08512823
000020 71 0c c5 3d 42 c6 34 be 83 4a a1 3e fc b6 f6 3d
       0.09621514 -0.17653754 0.3150216 0.1204662
000030 0a 73 e5 bd bd 37 49 bd 56 25 ef ba b1 dd f3 bc
       -0.112035826 -0.04912542 -0.001824538 -0.029768797
000040 6c be 89 3e d5 42 e6 3d f4 5b db bd c3 12 f6 ba
       0.26903093 0.11243216 -0.10710898 -0.0018773902
000050 2a 0a df bd fa 46 91 bd b6 d3 1d 3e 92 4a 1f 3e
       -0.108906105 -0.07093616 0.15412793 0.1555579
000060 79 5d 16 be 65 d9 3b 3e de be e1 3c ce 4c 93 bd
       -0.14684094 0.18344648 0.027556833 -0.07192384
000070 d7 69 62 bd d5 20 d4 bc bf 19 fc bc ce a0 ab bd
       -0.055276718 -0.025894562 -0.030773995 -0.083802804
000080 6a 1d 4d bd b6 86 c1 bd 9c 21 0d be b8 29 19 3e
       -0.05007688 -0.09449522 -0.13782352 0.1495732
000090 0d 77 9c 3d 0e e6 9c 3d e2 2d 21 be ce fd 21 3e
       0.07639895 0.07661067 -0.15740159 0.15819475
0000a0 73 d3 a2 bd 59 03 a9 3c 33 9a 36 3e f7 c3 f0 bd
       -0.07950487 0.02063148 0.1783226 -0.11756127
0000b0 83 e4 e0 bd cf b9 8e 3d 82 43 ae 3d d8 47 bd bd
       -0.10981085 0.06969034 0.0850897 -0.09242219
0000c0 f1 aa 29 3e 30 cd 90 3c b8 c9 80 3d 8c 91 41 3e
       0.16569115 0.017675966 0.06288475 0.18903178
0000d0 67 92 63 bd fb 5b ef 3d 4e 38 45 3e 5f 36 00 be
       -0.055559542 0.11687466 0.1925976 -0.12520741
0000e0 c6 de 0a be eb 97 b4 bd ae c3 85 3e 6f 00 55 3e
       -0.13561544 -0.088180386 0.26125854 0.20800947
0000f0 3a db 65 be cf 5b 0d 3e c3 dc 8f bd 98 43 df 3d
       -0.2244691 0.13804553 -0.07024529 0.10901564
000100 f0 e5 81 be bc 6d 0d 3d 11 35 8f 3d 7f c0 51 3e
       -0.2537074 0.03452848 0.069925435 0.20483588
000110 b5 4f 5a 3e 4a a9 05 3d d1 d5 40 3e 89 b0 e4 bd
       0.21319468 0.03263215 0.18831564 -0.11166484
000120 1c 90 80 3e d0 ea 40 be db db 90 3d b9 84 ac 3d
       0.25109947 -0.18839574 0.07073184 0.08423752
000130 5c 4a 05 be ce 78 46 3d 63 47 14 be 77 a1 f1 bd
       -0.13016647 0.048455052 -0.14480357 -0.11798375
000140 91 53 c6 3d 63 74 6e bd 3c 6e dd bd 53 e2 4e 3e
       0.09683908 -0.058216464 -0.10812041 0.20203523
000150 23 99 77 3d bb 58 b4 3d 44 92 3c bd cb d4 8c bd
       0.060448777 0.088059865 -0.046037927 -0.068765245
000160 9d 8d 66 3d 0e 23 0b 3e e4 9d b9 3c 9d 90 1e be
       0.056287397 0.13587591 0.022658296 -0.15484853
000170 a5 39 3e 3e 57 fa 0c 3e f0 92 51 3e 78 07 0b be
       0.18576677 0.13767372 0.20466208 -0.13577068
000180 c9 3a 3f be d2 12 5e bd a4 cc a4 bd 56 2a 37 be
       -0.18674769 -0.054217167 -0.080468446 -0.17887244
000190 9f ee 25 3d 27 cd be bd e8 2f dd 3c ca f0 1a be
       0.04051077 -0.093164735 0.027000383 -0.15130916
0001a0 dc 88 9b 3d e1 0d 1d 3d 8e 53 f4 bd a2 46 d9 bd
       0.07594463 0.038343314 -0.11929999 -0.10609175
0001b0 1b a7 a0 bc df ec 9d bd 1e 15 e0 3c 34 bb 1c bc
       -0.019610932 -0.07711195 0.02735382 -0.009566117
0001c0 8f 89 64 3d 95 4f 26 be ee 7b bf bd a1 74 9a 3e
       0.05579525 -0.16241296 -0.093498096 0.30167106
0001d0 13 06 8b be 4f 59 1b be d0 05 61 3e 62 b4 3d be
       -0.27153072 -0.15170787 0.21974874 -0.18525842
0001e0 7e 40 ac bc bd 6b 88 3e 12 e4 2a 3e 76 80 ed bd
       -0.021026846 0.26644698 0.16688564 -0.115967676
0001f0 f9 a5 d6 3d 8e 63 93 3e 86 42 23 bc 17 71 ba bd
       0.104808755 0.28786892 -0.009964591 -0.091036014
000200 22 ae 73 3e 55 db d3 bd 97 bf 9c 3d d7 70 c4 bd
       0.23796895 -0.10344569 0.0765373 -0.09591835
000210 8c 0b a3 3e 47 e1 c6 bd d8 c9 02 3d 8e cd 6b be
       0.31844747 -0.09710937 0.031930774 -0.23027632
000220 e9 7a 09 be c6 a2 1d be 21 46 a1 3d 70 0c 09 bd
       -0.13425793 -0.15394124 0.07874704 -0.033459127
000230 49 c8 3a 3e 07 20 0f be bf df 0a be cd d0 13 be
       0.18240465 -0.13977061 -0.13561915 -0.1443512
000240 9a c0 37 3e e6 9d 8d be 50 82 35 bd 17 af 50 3d
       0.17944565 -0.2765953 -0.04431373 0.05094823
000250 71 f6 a7 3c 0e f8 a1 bd 56 ce d4 bc 1e c2 fe 3d
       0.020503255 -0.07908641 -0.025977295 0.12439369
000260 6e 93 93 3b 37 ad ce 3d 31 09 fc bd 1f 6d ee 3d
       0.004503659 0.10091632 -0.123064406 0.11641907
000270 d8 e7 9d 3d a2 0c cb bd e8 35 51 be 31 0c 88 bd
       0.07710236 -0.09914519 -0.2043072 -0.0664295
000280 c0 b8 2b be 59 02 9e 3e 45 65 af bd 8b 2a 75 3e
       -0.16769695 0.30861166 -0.085642375 0.2394201
000290 d8 25 85 bd 61 08 48 be 65 67 17 be 4b 35 83 bd
       -0.06501359 -0.19534446 -0.14785536 -0.06406649
0002a0 aa 95 d3 bd 08 30 27 be 70 40 c7 bc d2 cb 98 3d
       -0.103312805 -0.16326916 -0.024322718 0.07460751
0002b0 8c 66 71 3d 14 5a 18 bc 54 ef e4 bb 45 f8 66 bd
       0.058935687 -0.00929882 -0.006986538 -0.056389112
0002c0 a0 74 19 3e d6 b0 34 bd ce 0d 78 be e1 ae 22 be
       0.14985895 -0.044113956 -0.24224016 -0.15887024
0002d0 0d f4 d3 bd 9e 71 50 be c5 41 0b 3e 74 3f 4a be
       -0.10349283 -0.20355842 0.13599308 -0.19750768
0002e0 64 47 0b 3c 8d c8 05 3d 58 4d 6c bd 67 50 71 bd
       0.008500908 0.032661963 -0.05769095 -0.05891457
0002f0 be dd ff 3d d3 52 49 be 4c 05 76 3d 88 8b 0e bd
       0.12493466 -0.19660501 0.060063645 -0.034801036

critic.2.weight f4 [192, 192]
000000 2d 99 a3 3d 97 3c a5 3c 1b 69 3e bd a6 74 fc 3d
       0.079882 0.020170493 -0.046486955 0.123269364
000010 ea 2f d1 3d 53 1f 61 be 8e 2d 3c be 86 c4 a6 bd
       0.10214217 -0.21984605 -0.18376753 -0.081429526
000020 ea 0c 05 3d 6b 76 30 be 88 fa 6a 3e 9d c4 e5 bd
       0.03248302 -0.17232673 0.22947133 -0.11219142
000030 ec e3 54 bd 5d cc 28 be 19 3f e7 bb 48 28 8a be
       -0.051975176 -0.16484208 -0.0070570824 -0.26983857
000040 fb 80 0c 3e 0f 93 c2 3c c3 71 cd 3c 35 77 04 be
       0.13721077 0.023751764 0.02507866 -0.12936099
000050 aa 5b 5c be d7 d6 f7 bc 4b 0c 32 bd ce a0 6c bc
       -0.21519342 -0.03025381 -0.043468755 -0.014442636
000060 27 33 a2 bd 15 83 06 bd de 91 8a bb b0 e1 72 3d
       -0.07919913 -0.032839853 -0.0042288145 0.059297264
000070 09 07 ee bc 56 05 96 bd 7d d4 d2 bd 6f 47 04 be
       -0.029056089 -0.073252365 -0.10294435 -0.12917875
000080 9d 76 80 bc 90 c3 d5 bc 77 60 1a be fb bd 92 bd
       -0.01568156 -0.026094228 -0.15075861 -0.07165142
000090 23 7f e9 3c ea c9 f1 bc af 8a bd 38 2e fc da bd
       0.028503006 -0.029515225 9.038054e-05 -0.10692631
0000a0 60 c7 ab bd 06 80 65 3c 5c 45 07 3d bc 18 9a bd
       -0.08387637 0.014007574 0.03302513 -0.07524249
0000b0 b4 93 54 bd 84 85 c7 bd f3 92 27 be f0 98 03 be
       -0.051898673 -0.09742263 -0.1636465 -0.1285131
0000c0 41 31 87 3d e5 c0 00 3e dd 18 60 bd dc 6e 18 3d
       0.06601191 0.12573583 -0.05471121 0.0372151
0000d0 47 8e 20 3d 08 58 96 bc 52 1c e4 bb 54 03 3c 3d
       0.039198186 -0.018352523 -0.006961384 0.04590161
0000e0 bd 16 36 3e cc 58 0a 3d b1 fa 72 bd 52 90 aa 3d
       0.17782111 0.03377609 -0.05932111 0.08328308
0000f0 7b 5a f7 bd 99 3c cc bd 3e de 14 3e bf d8 e1 3d
       -0.12077805 -0.099724956 0.14537904 0.11027669
000100 f7 48 9d bd 14 3a 2b be 06 59 41 3e 1b c1 af 3d
       -0.076799326 -0.16721374 0.18881616 0.08581754
000110 a3 05 38 3d 99 5d 8c 3c 88 8c d1 bd c2 a0 6f 3d
       0.04492725 0.017134475 -0.10231882 0.05850292
000120 8d d6 85 3c a2 1b 81 bc d8 45 32 bd 39 df 25 3b
       0.016337657 -0.015760247 -0.04352364 0.0025310053
000130 65 20 39 be 7e 32 7c bd 08 bd ec bd f4 d6 a6 3d
       -0.18078764 -0.06157159 -0.11559492 0.08146468
000140 3e 95 ed bc ab 28 c4 bd d8 a1 3c bc 91 68 d0 3d
       -0.029001828 -0.09578069 -0.011513196 0.101761945
000150 21 34 1f be cb d5 9b 3d a8 35 89 bd 9e 5c 4c be
       -0.1554723 0.07609137 -0.06699687 -0.19957206
000160 d3 40 95 bc 21 46 b2 3d 28 e3 cb bc 44 aa 7b bd
       -0.018219387 0.08704782 -0.02488859 -0.061441675
000170 5a 01 76 bd fc f8 83 3d 9e e0 cb bd 02 0a 2c bd
       -0.060059883 0.064439744 -0.09954952 -0.04200173
000180 a1 8a 17 be b7 29 17 bd 05 7a 4c 3c 49 f1 dc 3c
       -0.14798976 -0.036905017 0.012480264 0.026970522
000190 8f 94 92 bc b9 7c 6b be d4 11 b4 bc 02 18 f9 bd
       -0.017893104 -0.22996797 -0.021981157 -0.12162782
0001a0 b0 47 8d 3d ff 71 70 bc 60 bf 2b be 35 33 89 bd
       0.06898439 -0.014675616 -0.16772223 -0.0669922
0001b0 15 54 8b 3d 47 0b 0a be bd fb 50 3d 88 fd 24 bd
       0.06803147 -0.13480864 0.051021326 -0.04028085
0001c0 b3 23 40 3c 40 ef 48 be 2b 5b 17 bc a0 e1 0f 3e
       0.011727261 -0.19622517 -0.009238045 0.14050913
0001d0 d4 77 33 3d 05 5a 31 3c 43 70 09 3e 91 89 1c be
       0.04381545 0.010824685 0.1342173 -0.15286852
0001e0 3d e5 9c bb 2a 64 cb 3d 56 e9 0d bd 71 f2 10 be
       -0.0047880695 0.09931214 -0.034646355 -0.14154984
0001f0 af 8d 41 3e 4a c9 e3 3c 4a aa ea bc 97 07 54 be
       0.18901704 0.027805943 -0.028645653 -0.2070602
000200 33 c0 e7 3b 95 e8 5e bd d1 34 4d 3d 6a 42 aa bd
       0.0070724725 -0.054421026 0.050099198 -0.08313449
000210 7f ff 17 bc 91 ce d2 bd 9a 6e 2b be be 13 e7 bd
       -0.009277224 -0.10293306 -0.1674141 -0.112830624
000220 31 89 8c 3d 82 c7 eb bd 1c 18 03 3d b7 71 8c 3d
       0.06862105 -0.115126625 0.032005414 0.06857627
000230 58 12 18 3d 2d c7 9a bd 59 a5 f3 3b e3 d5 4e bc
       0.03712687 -0.07557521 0.0074354825 -0.012624237
000240 a0 60 12 3e 72 08 56 3d b2 2f e6 bd 43 4e 0a be
       0.14294672 0.052254148 -0.11239566 -0.13506417
000250 40 a4 91 bd aa 3c af 3c 94 8c 06 bd 3f ea 96 bd
       -0.07111406 0.021391232 -0.03284891 -0.07368898
000260 ca ea 1b bd fa e1 9e 3c a7 e2 96 bc 6b 96 16 be
       -0.03806571 0.019394863 -0.018418623 -0.14705817
000270 de 26 3d 3c d2 34 33 bd e3 53 22 3c 2d 3e a8 bc
       0.011544911 -0.043751545 0.009907695 -0.02053746
000280 83 d2 25 be 4f d0 0c bd 4a 31 d9 bd aa 9a 89 3d
       -0.16193585 -0.034378346 -0.10605104 0.06718953
000290 10 1c 6a 3d 4c 9d 23 bc 04 d6 0b be ea b5 85 bb
       0.05715567 -0.009986233 -0.13655859 -0.0040805237
0002a0 d8 42 d4 bd 92 3e 2e be 83 ec 64 be 7d 6e 09 3e
       -0.10364312 -0.17016056 -0.22355847 0.13421054
0002b0 3e cc 94 3d 18 ca 35 3d a6 a9 84 bd f4 e3 b2 bd
       0.072655186 0.044382185 -0.0647767 -0.08734885
0002c0 dc fa 3d 3d f9 4a 7b bb 98 3f ed bd cb 0a 11 bd
       0.046381816 -0.0038344248 -0.11584395 -0.035410684
0002d0 38 99 d2 bd 84 72 87 3d f9 e8 ff 3c 43 ba dc bd
       -0.102831304 0.06613639 0.03123902 -0.10777714
0002e0 d2 14 7e be 38 31 d6 bd d4 3c fe bd f1 c1 96 bd
       -0.2481263 -0.104586065 -0.12413946 -0.0736121
0002f0 7e b4 8d 3c d6 43 95 bd 05 c1 ff 3d 54 02 bc bb
       0.01729798 -0.07288329 0.124879874 -0.005737582
000300 8c fd 45 3d bd 9c a8 3d 97 f8 0d bd e1 66 22 bb
       0.048337504 0.082330205 -0.034660902 -0.002478056
000310 f1 85 67 bd 5e ef 9b bd eb 91 71 3d 04 0a 1b 3d
       -0.05652422 -0.07614015 0.05897705 0.03785135
000320 04 90 d4 bc 91 39 00 bd 84 dd 3a 3e dd 8d 1a 3d
       -0.025947578 -0.0313049 0.18248564 0.037732948
000330 87 78 af bc d4 b8 97 3d 57 b8 26 3e 96 cc a6 3b
       -0.021419777 0.074083 0.16281258 0.0050903065
000340 e8 fc 95 3d ef 01 09 3e f0 94 6c bd 7e 89 f7 bc
       0.07323629 0.13379644 -0.057759225 -0.030216929
000350 e1 70 43 3e 69 64 12 bd 48 a3 96 3d ba a2 a1 bd
       0.19086029 -0.03574029 0.07355362 -0.07892366
000360 81 42 92 3d 05 91 1d 3c f4 81 bd 3d 0a 9e a6 bd
       0.07141591 0.009617095 0.09253302 -0.08135612
000370 31 ae 86 bd 98 5f 6e 3a 8a 39 72 3d 02 2b a1 be
       -0.06576193 0.0009093224 0.059136905 -0.31478125
000380 ab 62 8f 3e c4 79 29 be fb 46 fd bd 38 ce 5d bd
       0.28004965 -0.16550356 -0.12367054 -0.054151744
000390 1a 42 28 3e b6 ec 48 3e fa 37 b6 bd ae b4 12 3e
       0.16431466 0.19621548 -0.088973954 0.14326736
0003a0 ae b0 45 3d ba 56 87 3d 4b bc 70 3e e1 00 20 be
       0.048264198 0.06608339 0.23509328 -0.15625335
0003b0 25 99 01 3d c2 8c 1f bd 63 61 ea bc 1c 79 08 bd
       0.03164019 -0.038952596 -0.02861089 -0.033318624
0003c0 fc c1 3b 3e 39 98 9f bd 3d 37 26 3d 45 c3 39 be
       0.18335718 -0.07792706 0.040580023 -0.18140896
0003d0 d1 9e 16 bd aa d2 4d 3d 82 36 bf 3d 30 67 17 bd
       -0.036772553 0.050249733 0.093365684 -0.03696364
0003e0 10 ef d9 3c 4c 20 c6 3b 4b 76 e7 3d 2d f1 93 3b
       0.026603252 0.0060463306 0.113018595 0.0045148344
0003f0 b6 76 21 be ef 97 b1 3d a1 c9 1f 3e 75 67 5d bc
       -0.15767941 0.08671557 0.15604259 -0.013513436

critic.2.bias f4 [192]
000000 59 38 aa 3d d8 4d 78 be 85 0c 29 3d fa d6 85 3d
       0.08311529 -0.24248445 0.041271705 0.06535144
000010 3b 78 27 bd 95 f0 8b 3d e5 eb 8e 3d 44 51 ad bd
       -0.040886145 0.06832997 0.06978587 -0.08462766
000020 03 80 0c bd e0 86 8f 3c 71 49 b9 bd cd 33 9d bc
       -0.03430177 0.017520368 -0.09047211 -0.01918974
000030 bd 27 cd 3c 47 85 20 3c 58 6e 05 3e cb d6 52 bd
       0.025043363 0.009797401 0.13030374 -0.051474374
000040 6d a6 41 3d 8f 48 89 bb 95 80 26 3c 36 17 5d bc
       0.047277857 -0.004189558 0.010162492 -0.013494303
000050 c7 57 62 bd 06 7c f9 3d bd 28 aa 3b d3 5e c7 3c
       -0.055259492 0.12181859 0.0051928447 0.024337208
000060 80 ce 83 3b 79 00 97 bd ff cf 0b be 32 48 7a 3c
       0.0040224195 -0.07373137 -0.13653563 0.015276002
000070 17 bc 59 3d c4 a7 3f bb 07 6a 43 3d d1 16 87 bd
       0.053157892 -0.0029244283 0.047708537 -0.06596149
000080 9c e7 ed 3d c3 2e 28 3d ff a3 84 bd 87 f7 50 bd
       0.116164416 0.04106022 -0.06476592 -0.05101731
000090 ae a3 22 bd 7c 57 00 bd 65 e5 e3 bc aa 66 12 bd
       -0.03970688 -0.03133343 -0.027819345 -0.03574244
0000a0 3d 24 ac 3c 61 0b 9f 3b 49 5e 25 3d da 16 71 3c
       0.021013374 0.0048536514 0.04037312 0.014714921
0000b0 6c 2e 33 3d 28 9b e0 ba 01 00 eb 3d c0 cf e6 bb
       0.043745443 -0.0017136084 0.1147461 -0.0070438087
0000c0 f4 ff 9e bd e7 65 51 bc 45 91 66 3b e3 c2 9d bd
       -0.07763663 -0.012780643 0.0035181802 -0.07703187
0000d0 9c 62 15 bc af 24 11 bc 00 7b b9 3d 8d 3c 70 bd
       -0.009117749 -0.008858844 0.090566635 -0.058651496
0000e0 9e c7 be 3b 47 c0 0a 3e 92 a4 00 bc 1f 21 5e 3d
       0.005822136 0.1354991 -0.007851737 0.054230805
0000f0 f1 d3 64 3b 47 63 c9 bb 23 a5 f9 bc 44 78 42 3d
       0.0034916366 -0.006145868 -0.030474251 0.047477975
000100 05 c2 3d 3d c1 23 74 bd bd 63 61 3b c2 32 8f 3c
       0.04632761 -0.05960441 0.0034391724 0.017480258
000110 a9 ee ad bc b6 be 02 3d 42 aa c3 bc a5 c4 34 bd
       -0.021231966 0.031920157 -0.023884896 -0.044132847
000120 65 63 c6 bc 34 90 d4 bc 25 3b 0a 3d be 8a 03 be
       -0.024217317 -0.025947668 0.03374781 -0.12845895
000130 59 25 15 bd ea 4e a9 bd ab 62 06 3d 12 71 31 3d
       -0.03641257 -0.08267005 0.03280894 0.043320723
000140 d8 92 c1 3c 22 39 89 3d 7d ff 87 bd 62 66 0c bd
       0.02362959 0.0670035 -0.066405274 -0.034277327
000150 de a0 89 3c 8e 12 fd bc 2c 16 b4 bb 4f 0f f0 3c
       0.01680034 -0.030892637 -0.005495807 0.029304175
000160 f8 90 50 3e 25 64 9e 3d 38 bd dd 3c 5a ee 60 3d
       0.20367801 0.07733945 0.027067766 0.05491481
000170 03 fe 6d bd 35 b1 79 3d 57 c5 c4 3d 1a 34 a5 bc
       -0.058103573 0.060960013 0.09607952 -0.020166446
000180 45 9a 48 bd d1 8c b9 3c b8 38 d8 3c 6e a0 6a 3d
       -0.048975248 0.022650154 0.026394233 0.057281904
000190 3a e9 81 3d 91 29 db 3d d5 7b 15 3d a9 a4 2f be
       0.063433126 0.107012875 0.03649505 -0.17152657
0001a0 a8 5b 69 3c 42 70 9e 3d 86 92 1b bb 3f 0c 99 3d
       0.014243044 0.07736255 -0.0023738458 0.07473039
0001b0 3f 52 7c bd 4e 68 8e 3c 2b 4c 25 bd 6b cd 00 be
       -0.061601873 0.01738372 -0.040355843 -0.1257836
0001c0 36 0e a6 3d 2b c2 57 bc a7 43 d4 3c 1d 9a cd 3d
       0.08108179 -0.013168852 0.025911165 0.100391604
0001d0 2d 95 5c 3c 21 f2 82 3c 99 a2 bb bd 14 54 9b 3b
       0.013463301 0.015984597 -0.091618724 0.0047402475
0001e0 1d 8f 44 bd 41 10 2f bd ba 98 52 bd e9 89 ba 3b
       -0.047988046 -0.04274011 -0.051415183 0.0056927097
0001f0 60 93 71 3b 3a 89 31 bd 62 09 e6 bb c1 ac bc 3c
       0.0036861524 -0.04334376 -0.0070201615 0.023031594
000200 49 25 10 bd 6a d9 3c bd d2 8a 83 3d b9 6a e7 3c
       -0.035191808 -0.04610578 0.06422962 0.028249132
000210 be da dd 3a e3 72 af 3c 2b 1a dc bc 2b e9 66 bd
       0.0016926152 0.021417087 -0.026867947 -0.05637471
000220 d9 4f 95 bd e7 9f 4b 3d 94 54 1c 3d ce 11 e6 bd
       -0.0729062 0.04971304 0.038166597 -0.11233865
000230 25 2b 01 3e 5e 22 07 bc db 58 6d bd 88 8e c5 bc
       0.12614115 -0.00824794 -0.057946067 -0.024115816
000240 c1 b2 a6 bd 4b e6 2c 3e 63 1c ce b9 02 2f 33 bd
       -0.08139563 0.16884725 -0.00039312532 -0.043746002
000250 1c 1b 65 3c 2a 51 20 3c 08 e3 e1 bd 7b 31 4a bd
       0.013983514 0.009784976 -0.11029631 -0.049363595
000260 2a 5e 19 bd ce 32 d8 bd 1d 29 66 3d a8 40 08 be
       -0.037443317 -0.10556565 0.056191552 -0.13305914
000270 0b c0 cc 3d 9c be 0f bd cb a8 6a bc 79 0d da bc
       0.09997567 -0.03509389 -0.01432247 -0.026617752
000280 c4 45 14 bd 24 c5 20 bd 5f 1c 57 bc 63 18 c4 3c
       -0.036199346 -0.039250508 -0.013129323 0.02393741
000290 0f 31 98 bc 95 6f 88 bd dd df 68 3d db 41 60 3c
       -0.01857808 -0.066619076 0.056854118 0.013687576
0002a0 bd ac d6 bc ff ee 61 bc 14 22 52 3d 91 f8 4b 3d
       -0.026205415 -0.013789891 0.05130203 0.0497976
0002b0 e9 d2 83 3c 5e 4e d8 3c 3d d8 8b bb 69 6c 0f 3b
       0.01609178 0.026404556 -0.004267721 0.0021884686
0002c0 58 a6 1e 3d d2 21 2a 3d a2 53 93 bb b2 c3 17 3d
       0.038732857 0.04153616 -0.004496054 0.037051864
0002d0 d9 f4 81 3d d1 8e a0 bd bc 25 86 bd eb 9f fb 3c
       0.06345529 -0.0783974 -0.06550166 0.030715903
0002e0 b9 81 b7 bb ce 30 06 3d 1f 09 23 3e f7 ce 54 3d
       -0.005600181 0.032761388 0.15921448 0.05195519
0002f0 52 d3 c4 3c 4c 03 43 bd 49 3a 78 bb 12 28 2e bb
       0.024026547 -0.047610566 -0.0037876538 -0.0026574177

critic.4.weight f4 [1, 192]
000000 af e9 d5 bd 4d 83 76 3d 62 6b 96 be 1e a5 d2 bd
       -0.10444962 0.060183812 -0.29378802 -0.102854
000010 d2 c7 71 3d ce 78 c4 bd 00 2c 14 be c6 9b 28 3e
       0.059028454 -0.09593354 -0.1446991 0.16465673
000020 0e 17 3e 3d ab 76 98 bd 32 9a 80 3d 9b 43 82 3d
       0.046408705 -0.07444509 0.062794104 0.06360551
000030 f7 69 fc 3d 12 7f 09 3e 78 27 f7 bd 68 8f 6c 3d
       0.12324899 0.1342738 -0.12068075 0.05775395
000040 1b 79 cb bd a1 05 93 3d 6b c8 04 be 38 89 1a 3e
       -0.099352084 0.07178808 -0.12967078 0.15091407
000050 cc 4e 0f be c0 08 c2 bd 7a 26 24 be 0b a5 ff bd
       -0.13994902 -0.09474325 -0.16030303 -0.12482651
000060 be 7b 59 be d5 09 6f 3d d1 0d 2d 3d 5d cb f5 3d
       -0.2123861 0.058358986 0.042249504 0.12001679
000070 d4 66 e2 bd 08 a9 78 3e 79 de 4c 3e 39 f9 0e 3e
       -0.11054769 0.2428323 0.20006742 0.13962258
000080 21 8b 8e bd 14 da 58 be 4b 58 1b 3e ca 40 b6 3d
       -0.069601305 -0.2117694 0.151704 0.08899076
000090 b1 6e 85 bd 44 f3 f4 bc a4 8f 0b 3e 61 97 00 3e
       -0.06515253 -0.029901154 0.13629013 0.12557746
0000a0 a4 c5 2f be b7 df 1d be 2d 41 56 3e 20 5b 2d 3d
       -0.17165238 -0.15417372 0.209233 0.04232323
0000b0 76 32 20 be a7 71 ca 3d a9 72 18 be bc fe 3f 3e
       -0.1564425 0.09884959 -0.1488749 0.18749517
0000c0 4d b5 6d 3d 41 85 19 3d 26 0b 26 be 39 31 01 3d
       0.05803423 0.037480596 -0.1621519 0.031541083
0000d0 0d 3c 38 3e 25 36 38 3e 6c bd 8c 3d 0d 87 65 be
       0.17991658 0.17989404 0.06872067 -0.22414799
0000e0 e0 30 06 3e 7e 79 07 be 9d 03 5d be 40 f1 90 bd
       0.13104582 -0.1322994 -0.2158341 -0.07077265
0000f0 f8 94 0a be dc f6 0c be bf bf de bd d5 b0 07 be
       -0.1353339 -0.13766044 -0.108764164 -0.1325105
000100 1d a2 4c bd 98 ea f6 bc 25 3f 0b be 7b 11 20 3e
       -0.04995929 -0.03014116 -0.13598306 0.15631668
000110 7f bd 34 3d 92 9c 00 be 4d 5f 3f 3e d4 17 f5 bd
       0.04412603 -0.12559727 0.18688698 -0.119674355
000120 53 66 0c 3e 11 2d 4e be 88 45 1a be ab e1 99 3d
       0.13710909 -0.20134379 -0.15065587 0.07513746
000130 d9 7e 3a be a5 a8 8e 3c 2d 8e 8f bc 6c 48 34 bd
       -0.18212451 0.0174144 -0.01752385 -0.04401438
000140 6e 39 69 3e b1 8f d0 3d 93 9f 5b 3d dc 58 ff 3d
       0.22775814 0.10183657 0.05361898 0.124681205
000150 25 a4 29 be 7b a7 75 bd 86 a1 62 be d0 0a 6c 3d
       -0.16566522 -0.059974175 -0.22131929 0.0576275
000160 80 52 d1 bd 50 ea f8 3d f4 33 0c 3e ee 8b 08 be
       -0.10220814 0.121540666 0.13691694 -0.13334629
000170 2e 5a 1f be da e9 6d 3d 15 7b 27 3e f6 c6 9d 3d
       -0.15561745 0.058084346 0.16355546 0.077039644
000180 f0 d5 3f 3d 22 00 80 be 74 ea 2b 3e 4b 84 21 be
       0.046834886 -0.250001 0.16788656 -0.15773122
000190 2e bf 66 bd f9 17 18 be 7d 96 4e bd 2c b1 24 3e
       -0.056334667 -0.14852895 -0.050436486 0.1608321
0001a0 d8 e5 e3 bd 73 6a 09 be 67 e5 02 3e 5c ab 4a bd
       -0.111278236 -0.13419513 0.12782823 -0.049479827
0001b0 3b 8a 91 bd 2c de 27 be 48 30 84 3d a7 74 1b be
       -0.071064435 -0.16393346 0.064545214 -0.15181218
0001c0 93 44 c4 bd 06 2c 9b 3d 32 50 15 3e 8b 22 eb bd
       -0.09583392 0.07576756 0.14581373 -0.11481198
0001d0 0f a3 94 3d a6 06 06 3d 91 e0 9f 3d bb ce 05 3e
       0.072576635 0.032721184 0.078065045 0.13067143
0001e0 4c f9 25 3d f5 ff c5 3d 3e 47 43 3d 0a 16 c8 bd
       0.04052095 0.096679606 0.047675364 -0.097698286
0001f0 b6 76 1e bd 7c 26 b7 3d 3e e5 a2 bd cc 20 19 3e
       -0.03868743 0.08942887 -0.07953881 0.14953917
000200 de 67 07 be c8 1f 5a bd 7b 00 66 3e 30 e9 6e 3e
       -0.13223216 -0.053252965 0.22461121 0.23331141
000210 3e 73 16 3e 14 d3 0c be 7f 52 08 bd f7 86 3e 3d
       0.14692399 -0.13752395 -0.0332818 0.04651543
000220 84 8a a2 3d 0a f9 1f be e2 dd 82 bd 7b ee 0e be
       0.07936576 -0.15622345 -0.06389977 -0.1395816
000230 dc 7c b9 bd bd 5d fb 3d 4f 2d 55 bd 59 2d ed 3d
       -0.09057018 0.122737385 -0.052045163 0.11580915
000240 41 52 a5 3d 09 d8 e4 bd 63 38 ea bd c5 91 8b 3d
       0.08072329 -0.11174018 -0.11436536 0.06814913
000250 35 00 57 3d fd 41 9d 3d 90 c4 36 3e cd a3 b0 bd
       0.05249043 0.07678602 0.1784842 -0.086249925
000260 f9 30 07 3e 33 3d d0 3c 48 dc 86 bd fb 8d 65 3d
       0.13202275 0.025419807 -0.06584984 0.056043606
000270 87 09 bc bd af c6 ff 3d 6d 73 22 be 07 2d ad 3d
       -0.09181505 0.12489068 -0.15864344 0.08455854
000280 35 85 c6 3d 7b 7c d0 3d c7 02 89 3d 14 eb 82 bd
       0.09693376 0.10179993 0.06689983 -0.06392494
000290 28 99 94 bd d5 00 d2 bd 9f c7 4b bd a1 db 1e bd
       -0.07255775 -0.10254065 -0.04975092 -0.038783673
0002a0 35 33 27 bd 58 6e 94 bc 53 b3 5a 3e f3 f1 84 bd
       -0.04082032 -0.018119022 0.2135747 -0.06491461
0002b0 4d e7 fe bd d8 d3 01 3e 88 06 04 3e 00 ae 8b be
       -0.12446461 0.12678468 0.12893116 -0.2728119
0002c0 6c b1 46 3e f5 e5 d4 3d 68 aa 75 bd be 54 23 be
       0.19403619 0.10395423 -0.059976965 -0.15950295
0002d0 38 8c 48 3d ee ed c2 3c 47 30 0c 3e f9 71 93 bd
       0.048961848 0.023795094 0.13690291 -0.07199473
0002e0 26 36 18 be b4 42 cf 3c 7a 76 ae bd 26 2b 21 be
       -0.14864406 0.025300361 -0.08518691 -0.15739116
0002f0 37 22 0d be 11 db 9f 3d 7e 01 55 bd 1a f9 03 3e
       -0.13782583 0.078054555 -0.052003376 0.12887993

mean.0.weight f4 [192, 24]
000000 dd 26 fd 3e a6 93 74 3f 39 1f c6 be e8 c4 07 3e
       0.49443713 0.95537794 -0.38695696 0.13258708
000010 b9 c3 7f 3e 54 df 23 be 6f c9 d5 bd 5d ad b4 bd
       0.24977006 -0.16003162 -0.10438811 -0.08822129
000020 c8 f3 c4 3c 6b 71 d8 bb df ed 1e be 7f c9 fb be
       0.024042025 -0.0066053174 -0.15520428 -0.49177167
000030 e2 3c 11 be 53 22 09 be 73 22 74 3d f8 1a b4 3a
       -0.14183381 -0.13392 0.059603166 0.0013740947
000040 ca 98 5f 3e 28 72 dc bd 90 8d c9 3d 5c 42 9c 3d
       0.21835628 -0.10763961 0.09841454 0.076298445
000050 1e 1f 57 bc 58 aa 1f 3e a4 5f 81 3c fc 47 60 3d
       -0.0131299775 0.15592325 0.015792675 0.05475615
000060 35 1d 77 3e ec b9 9c 3f 29 77 82 be ef 33 fb 3e
       0.24132235 1.2244239 -0.25481537 0.4906306
000070 f9 be cd 3e a9 ee 94 3e 81 a9 5b 3d aa 17 34 3e
       0.40184763 0.29088333 0.05362845 0.17587152
000080 fc 63 69 bd 06 1e 29 be de d9 58 bd 63 39 8b be
       -0.05698012 -0.1651536 -0.05294215 -0.2719222
000090 62 11 aa bd 98 f9 17 be d0 37 50 3e f0 cd 8b bd
       -0.08304097 -0.14841306 0.20333791 -0.06826389
0000a0 b0 47 8d bd 5a 79 68 3e 97 a3 a8 3d d7 ff 00 3e
       -0.06898439 0.22702542 0.08234327 0.12597595
0000b0 63 d5 16 3e de 9d 43 3e 01 63 60 3e 76 95 37 be
       0.14729838 0.1910319 0.21912767 -0.17928109
0000c0 9e 75 a3 be 59 f2 9d bd b6 1a 08 3f 07 c3 bc 3f
       -0.31925672 -0.0771224 0.5316576 1.4747018
0000d0 95 e3 89 3c 1f 55 fb 3d 23 bc f4 3e 11 f9 f9 3d
       0.016832152 0.12272095 0.47799787 0.12205709
0000e0 7d 0e 35 3e 58 e3 43 3e 3f 24 fd 3d 60 35 08 3d
       0.17681308 0.19129694 0.12360429 0.033254027
0000f0 fa 30 df bc 9d 13 b6 bd 52 9a 24 3e 05 b6 72 bd
       -0.027245034 -0.0889046 0.16074494 -0.05925562
000100 43 23 0d be 5b 5b ee 3c 60 5d 20 3d 83 2f 75 bd
       -0.13782983 0.029096296 0.03915155 -0.059859764
000110 0f 41 28 be bb 1f 23 3e a2 ea 45 be 01 8f bc bd
       -0.16431068 0.15930073 -0.19327787 -0.09206963
000120 44 4b 1d 3e 55 50 c2 3e 58 57 d2 be 5a 36 ac be
       0.15360743 0.37951913 -0.41082263 -0.33635217
000130 a4 7b ab 3e b3 39 a3 bd 6f 28 a1 be 38 5a b2 3c
       0.33492768 -0.0796999 -0.3147616 0.021771535
000140 3c df 55 3e 91 cd 34 3e 09 07 9c 3d 3a 05 43 3e
       0.20885938 0.17656542 0.07618529 0.19044963
000150 a2 3b 6d bd 69 a8 cf 3d 43 95 9f bd 21 01 36 3e
       -0.0579182 0.101395436 -0.07792141 0.17773868
000160 c3 a8 16 3e a1 2b 22 be 3a 33 e3 3d 2e de ad 3d
       0.14712815 -0.15836956 0.11093755 0.08489643
000170 0f 29 44 be 6e 0c 7d 3a 63 57 c8 bd 24 99 3a 3e
       -0.19156288 0.0009653036 -0.09782293 0.18222481
000180 d2 f1 d2 bd 71 c2 94 3d a6 d0 d4 3e 2b 4d 2e 3e
       -0.1030003 0.07263649 0.41565436 0.17021625
000190 19 7d 7c 3e 99 c4 a1 3d fd 9b fb bd 57 05 05 be
       0.24657096 0.07898826 -0.12285612 -0.12990318
0001a0 c7 77 b8 be b8 ea 7e bd a3 12 97 bd a7 a5 ce bd
       -0.36028883 -0.062235564 -0.073766015 -0.100901894
0001b0 07 b2 47 3e dc 78 8f be c8 7b 1a 3d 3d 35 02 3e
       0.19501506 -0.28021896 0.037715703 0.12715621
0001c0 27 bf 8c 3b 72 7b 23 bc 80 ed df 3c be f7 63 3c
       0.004295248 -0.009978162 0.027334929 0.013914047
0001d0 18 9b f9 bd d8 b7 22 bd b3 ae 57 bc 4d e8 be bd
       -0.12187785 -0.03972611 -0.01316421 -0.093216516
0001e0 c9 7f c3 3e 5b 92 88 be 23 2c 8a 3d d8 db b8 be
       0.3818343 -0.2667416 0.067467 -0.36105227
0001f0 cd 64 33 3e fd 14 b6 bd a9 df 42 3e e6 c1 2d be
       0.17518921 -0.08890722 0.19030632 -0.16968498
000200 90 e7 d3 bd 3c a2 59 bd 76 d8 ae be 80 98 2a 3e
       -0.103469014 -0.053133234 -0.34149522 0.16659737
000210 a7 81 a9 3c e9 77 95 3e 40 1d 21 be 06 d3 48 3a
       0.020691706 0.29193047 -0.15733814 0.00076608395
000220 50 56 84 bc ff 05 86 3c 46 5a 17 3e 2a 8d 97 3c
       -0.016154438 0.016360281 0.1478053 0.01849993
000230 6f c9 d6 3b 50 8c 36 3d 02 ee 0a be b0 cc 7a be
       0.0065547745 0.044567406 -0.13567355 -0.24492145
000240 d7 57 b6 3d dd 4e 72 3e ed 1e 7a be 8e 5c c6 3e
       0.08903473 0.23662896 -0.2442586 0.3874249
000250 14 d0 1b 3c ad 62 e6 bd 9b b4 fe bd 14 45 ca 3d
       0.009510059 -0.1124929 -0.124367915 0.09876457
000260 f3 30 a9 3e 3c 0f 46 bd 3a 0b d8 be ca 51 54 be
       0.33045158 -0.048354372 -0.42196065 -0.20734325
000270 42 48 67 be dd fa 90 bd 5f 22 26 be fa 35 21 3c
       -0.22586158 -0.070790984 -0.16224049 0.009839529
000280 35 3a 44 be d3 e4 f3 3c 3f 21 9c 3d df 5d d5 3b
       -0.19162829 0.029772198 0.07623529 0.0065114344
000290 84 b6 97 3d bc 50 17 bc 18 26 3a be 7a 59 2b 3d
       0.07407859 -0.009235557 -0.18178594 0.04183338
0002a0 c6 4d ab 3d 9d e8 cd 3f 83 d6 6a be f4 cd da 3e
       0.083644435 1.6086613 -0.22933392 0.42735255
0002b0 62 c2 72 bd 4b 2f 59 be c4 b4 0d bf 4a ab bd be
       -0.05926741 -0.21209447 -0.5535395 -0.37044746
0002c0 08 93 b2 3c d9 39 8e bc d4 62 1a 3e fb af 2f 3e
       0.021798626 -0.017361568 0.15076762 0.17156975
0002d0 b5 d8 8b 3d 2b 74 24 be b9 3b 50 3e 45 09 ca 3d
       0.06828443 -0.1605994 0.20335282 0.09865049
0002e0 1b 54 53 3e 3b 76 e2 3d 06 85 20 3e 1f 30 a5 bd
       0.20637552 0.11057707 0.15675744 -0.08065819
0002f0 2a 20 38 bd 65 44 0a be 65 fb 12 be 8b 33 1e 3d
       -0.04495255 -0.13502653 -0.14353712 0.038623374
000300 bb ff a3 bd 56 0d 54 be 5c 35 90 3c 78 2b ce 3e
       -0.08007761 -0.20708212 0.017603569 0.4026754
000310 5f 7c 20 3e d9 bd 50 bd 5f 46 25 be 7c 25 84 3d
       0.15672444 -0.050962303 -0.16140126 0.06452462
000320 8c 7a 63 be 07 c1 c3 bc 1e b1 17 be 65 88 5b be
       -0.22214717 -0.023895754 -0.14813659 -0.21438749
000330 dc c9 29 3e 6c 74 93 3e 52 03 b2 bd a4 49 d7 bd
       0.1658091 0.2879976 -0.086920395 -0.10512093
000340 3f 0c 63 3d e5 d0 36 3e 53 82 af 3d 73 9f 0a bc
       0.0554316 0.17853124 0.08569779 -0.008460867
000350 db 2f 94 3d 90 24 36 be 17 02 03 bd dd 96 02 38
       0.0723569 -0.17787385 -0.031984415 3.1134918e-05
000360 97 58 5a 3d e8 e0 ef 3e 16 6c 2f bf 9b c5 15 be
       0.053307142 0.46851277 -0.685243 -0.14626162
000370 39 df d7 be b0 65 51 be 34 14 84 3e ed e3 50 bd
       -0.42162493 -0.20448947 0.25796664 -0.050998617
000380 8a 98 70 bd fb 84 30 3c 77 cd 33 3e e3 04 a0 3e
       -0.058739223 0.0107738925 0.17558847 0.31253728
000390 96 e9 5a 3e 4a b4 13 3e f7 de 22 be 99 fd 61 bd
       0.21378168 0.14424244 -0.15905367 -0.05517349
0003a0 a4 d3 e8 bd 72 10 4a be 08 eb 36 3d f8 dc ce 3d
       -0.11368492 -0.19732836 0.044657737 0.1010074
0003b0 2c c1 00 be 4c a4 3a bd 08 e5 bd bd 29 24 2b bd
       -0.12573689 -0.045566842 -0.092722 -0.041782532
0003c0 66 5c 81 3d 68 e2 58 bf 0f de cc 3e 70 af 58 3f
       0.06316452 -0.8472047 0.40013167 0.84642696
0003d0 ad d8 08 be e5 8d 53 be 81 4f d2 bb b0 bd 82 bd
       -0.13363905 -0.20659597 -0.006418169 -0.06383836
0003e0 a0 5c 13 be a9 f5 90 3d 2f 3f 95 be bd e3 6e 3e
       -0.14390802 0.07078106 -0.29149768 0.23329063
0003f0 d2 5a 2b be db 52 49 bc 01 1f f5 3d c4 73 51 be
       -0.16733864 -0.012287821 0.11968804 -0.20454317

mean.0.bias f4 [192]
000000 b7 08 f7 3d 56 6f 43 3e 40 25 e1 bd f7 34 ec 3d
       0.12062209 0.1908544 -0.10993433 0.1153354
000010 b3 50 68 bd 2c a1 a1 bc 70 b1 a1 be 0b dd 8d bd
       -0.056717586 -0.019730173 -0.31580687 -0.06926926
000020 e8 23 e2 bd 5b 20 85 3e 91 c0 d6 3c ef 20 8b bd
       -0.11042005 0.26001248 0.02621487 -0.06793391
000030 d8 02 0c 3c de ba 86 3e ea b1 fa bd 05 6d 2f be
       0.0085456 0.26314443 -0.12240966 -0.17131431
000040 58 ff 38 be b8 84 8f be 06 ec 30 bd cc 70 15 3e
       -0.18066156 -0.28030944 -0.04319384 0.1459381
000050 d4 73 cb bd 04 0b e3 3d a5 cf a7 3c 16 3e 8a be
       -0.09934202 0.110860854 0.020484755 -0.27000493
000060 6f 83 42 3c 79 7b 8b be 7f 03 41 be 84 c8 e6 3d
       0.0118721565 -0.2724264 -0.1884899 0.11268714
000070 2d b3 2d 3d 50 d5 c1 bd 3a fb 9e 3c 03 e2 cc 3d
       0.042407203 -0.09464514 0.019406904 0.10004046
000080 de 94 23 bb ad 9e 89 be 03 fd 9d bd 2b d0 48 3e
       -0.0024960558 -0.26878873 -0.07714274 0.1961066
000090 26 61 ec 3b dc 88 c7 bd cd 2a 37 3e 65 6f 6f be
       0.0072137294 -0.09742901 0.17887421 -0.23382337
0000a0 cb 77 08 be 9a b8 fd 3d 0f a5 ce bd 84 43 ab bd
       -0.13326947 0.123887256 -0.10090076 -0.08362487
0000b0 ff 6c 93 be 1d 69 82 3e c2 97 52 be 27 b7 8d bd
       -0.28794095 0.2547082 -0.20565704 -0.06919699
0000c0 aa ed 68 be 73 ad bd 3d 9b 5f 0a 3d cb 9d 88 3e
       -0.22746912 0.092615984 0.033782583 0.26682886
0000d0 7d 53 5e bd 83 18 9d 3d 54 e6 ac 3d cd 8a f2 3d
       -0.05427884 0.07670691 0.08442369 0.118428804
0000e0 ae c9 55 be b8 a3 4f bd 36 d2 39 be 8b a1 82 be
       -0.20877716 -0.050693244 -0.18146595 -0.25513873
0000f0 b6 72 3b be a7 ba 61 be a7 6c 61 3e 36 b2 ac bd
       -0.18305477 -0.22043858 0.22014104 -0.084324285
000100 ca 3e a5 3d e3 15 81 be 1b f8 58 be ed 7b 98 bd
       0.08068617 -0.2521201 -0.21188395 -0.07445512
000110 fb d0 ee 3d 73 d2 59 be b1 be d9 bd b2 32 84 bd
       0.116609536 -0.21271686 -0.106320746 -0.06454982
000120 60 06 1f 3e e2 09 81 3e 50 06 d3 3d 59 cf 6e bd
       0.15529776 0.25202852 0.103039384 -0.05830321
000130 5b 0c 2a be e2 fa 56 bd eb d0 f1 bd b6 28 01 bd
       -0.16606276 -0.052485354 -0.11807426 -0.031532966
000140 bc 1d 97 bd cc 6b 5c be fe 08 14 3e 20 0e b7 3d
       -0.07378718 -0.21525496 0.14456555 0.08938241
000150 c2 89 0f be bf d2 92 3d 31 e2 cb 3c e0 19 c3 3d
       -0.14017394 0.07169103 0.02488813 0.0952642
000160 f0 a8 05 bb d0 ed be bc 60 1f fd bd 62 a4 49 be
       -0.0020394884 -0.023306757 -0.123595 -0.19691613
000170 c1 6b f8 3d b9 c1 38 3e b8 75 bf 39 db cf ad 3d
       0.121299274 0.1804265 0.00036518066 0.08486911
000180 50 f0 12 be c3 c9 81 3e 14 a3 8a be a8 a3 1a bd
       -0.14349484 0.25349244 -0.27077544 -0.03775373
000190 9f cb ff bc 21 fe 8c be 68 47 48 be 8b 1a df 3b
       -0.031225024 -0.27537635 -0.1955849 0.006808584
0001a0 97 08 10 3e 07 d7 96 be 32 6b 11 be b7 2a 97 bd
       0.14065777 -0.29460928 -0.14201048 -0.07381194
0001b0 b7 be b4 3c 26 b9 06 3e 5a 6e db bd ad b9 27 3d
       0.022063596 0.13156566 -0.10714407 0.04094856
0001c0 59 1c a8 bd 15 35 8d 3d d1 e2 be 3d 3a 80 39 3d
       -0.08208532 0.0689489 0.093206055 0.045288302
0001d0 0c 2c 47 3e 9c 29 65 3d 61 49 73 be f7 d3 cf 3d
       0.19450396 0.055947885 -0.2375846 0.10147851
0001e0 f2 dc ef bd b0 41 44 bd 63 86 6b be e9 e6 d9 bd
       -0.11712064 -0.047914207 -0.23000483 -0.10639746
0001f0 78 21 3c be 80 8b 88 be 67 8d 0d be b4 7a 69 3d
       -0.18372142 -0.2666893 -0.13823472 0.057001784
000200 e6 6b f3 bb dd 40 2f 3d f8 b4 b6 bd 50 f6 b4 3d
       -0.007428634 0.042786468 -0.08921236 0.08836043
000210 28 05 da 3d e7 58 4c be 2b 4e 4a 3e 14 39 4b 3d
       0.10645515 -0.19955789 0.19756381 0.04961498
000220 f2 b8 2c be 73 2e 84 3d b7 ac c4 3c 00 1c b2 3d
       -0.16867426 0.06454172 0.024008138 0.08696747
000230 3f 9b 28 bd 35 a3 92 bd e8 e3 92 be 73 42 39 be
       -0.04116368 -0.071600355 -0.28689504 -0.18091755
000240 12 39 2e bd 9d 39 04 be 3e 5c e9 bd 18 4f c4 3d
       -0.042534895 -0.12912603 -0.11394547 0.095853984
000250 94 c3 a6 be 00 7c 52 3e d2 f1 7d 3e 7a 1b 9c 3d
       -0.3257109 0.20555115 0.24799278 0.07622428
000260 81 86 01 3e 69 ef 32 3e d3 99 8a be 96 72 9a bc
       0.12648965 0.1747414 -0.27070484 -0.018853467
000270 3e 01 75 3d b4 cc 97 3e c1 21 ef 3c 41 75 9c 3d
       0.059815638 0.29648364 0.0291909 0.07639552
000280 da 58 65 3c dd 22 5b be eb c8 e9 bd 68 df 40 3e
       0.013998235 -0.21400018 -0.11415275 0.18835223
000290 74 77 ba bd 4e 32 bd bd ab d8 60 3d e1 a9 32 be
       -0.09104815 -0.092381105 0.05489413 -0.17447616
0002a0 bd e8 0f 3d cc 57 42 be e3 7f 1d be b8 2d e0 ba
       0.035134066 -0.18978804 -0.15380816 -0.0017103469
0002b0 d0 48 42 be 54 3e 40 bd 8e bb 2e 3e 1e d6 d2 bd
       -0.18973088 -0.04693444 0.17063734 -0.10294746
0002c0 a6 15 9e bc 5b a7 38 3e e0 c3 8c bd 55 49 be bc
       -0.019297432 0.18032591 -0.06873298 -0.023228327
0002d0 89 44 ef 3d 2a 73 7e 3e a3 25 27 be 7b 18 02 be
       0.11682994 0.24848619 -0.16322951 -0.12704651
0002e0 40 23 51 bd 50 ac a4 3c b7 c6 4a 3e ba 15 88 bd
       -0.051059008 0.020101696 0.19802366 -0.06644769
0002f0 60 74 c8 3b e9 a0 0e 3e 51 8e 06 be b2 a3 34 3d
       0.0061173886 0.1392857 -0.13140227 0.044101425

mean.2.weight f4 [192, 192]
000000 1b 46 14 3d d4 a8 8a be 27 e8 79 be 2b 57 76 3d
       0.03619967 -0.2708193 -0.24404965 0.060141724
000010 da 23 47 be bb e9 2f be d7 bf 76 3e 2b a1 a5 be
       -0.1944727 -0.17179005 0.24096619 -0.32349524
000020 b1 79 4f 3d 52 8d 6d bd a9 fd 86 3c e7 a5 1d 3e
       0.050653163 -0.0579961 0.016478376 0.15395318
000030 6e 45 83 3d 2b 8c 83 3d d0 bd 38 be c6 00 e5 bc
       0.06409727 0.06423219 -0.18041158 -0.02795447
000040 df e4 1a bd 19 22 0d 3e e1 94 0d 3e d4 c5 74 be
       -0.037815925 0.13782538 0.13826324 -0.2390359
000050 e7 c0 10 be f6 19 79 bd fa 33 04 3d 8f b0 29 bd
       -0.14136086 -0.060815774 0.03227613 -0.041428145
000060 e7 c3 93 bd 15 b6 9d bd d2 b6 30 3d 94 1b 7a 3d
       -0.072151 -0.07700745 0.0431431 0.061061457
000070 75 1f cd bb 0a 9f 9e 3b 0d 87 6e 3d da 5f ed 3c
       -0.0062598535 0.0048407363 0.058234263 0.02897637
000080 77 39 36 bd cb 5f 60 be 72 ec a2 be 4f 52 94 bd
       -0.044488396 -0.21911542 -0.31821018 -0.072422616
000090 a8 67 13 3e 22 f3 d6 bd e2 59 bc 3d 67 d4 c8 bc
       0.1439501 -0.10495593 0.09196831 -0.024515344
0000a0 c2 74 20 be ce 1f a0 bd 31 87 f3 be 86 b7 89 bd
       -0.1566954 -0.07818566 -0.4756408 -0.067244574
0000b0 50 ee 37 3e fc c7 39 3e 68 89 15 be 0d 58 14 3d
       0.17962003 0.18142694 -0.14603198 0.036216784
0000c0 07 19 12 be 52 6f 61 3e b9 56 ad 3b 0c f6 16 3e
       -0.1426736 0.22015122 0.005289879 0.14742297
0000d0 6d 70 f8 3d aa 72 54 be 81 0a 05 bd 8e 54 61 bc
       0.121308185 -0.20746866 -0.03248072 -0.01375307
0000e0 9a 93 98 be 2b 34 b9 be a0 7f ef bd aa 3a 66 bd
       -0.2980011 -0.36172614 -0.116942644 -0.05620829
0000f0 1c 30 07 be f7 05 91 bd e7 05 15 be fb fb f8 bd
       -0.13201946 -0.07081216 -0.14553033 -0.121574365
000100 23 75 cc bd 31 e0 9a bd e9 36 ab 3d d9 ab 9f bd
       -0.099832796 -0.07562292 0.08360083 -0.07796449
000110 03 ee c8 be e7 33 5f be 63 d6 fa 3d 51 6c d6 3c
       -0.3924409 -0.21797143 0.12247922 0.026174696
000120 13 8e aa 3b 30 ec 8d 3d c6 33 01 3d c1 6e f1 bb
       0.005204925 0.06929815 0.031543516 -0.007367939
000130 33 44 25 be 13 d0 93 be 29 a5 62 3d bd 4a 94 be
       -0.16139297 -0.28869686 0.05533329 -0.2896327
000140 e9 7c 07 be 25 6e 22 3c dc e5 91 bd ee b6 d6 3d
       -0.13231243 0.009913956 -0.0712392 0.1048411
000150 fd b8 3c 3e de f9 77 3d f5 50 a9 3b be 59 5c be
       0.18429942 0.060541026 0.0051671215 -0.21518609
000160 f6 28 54 3d cf 0a 8b bd f9 dc d4 bd 69 9b 81 bd
       0.051796876 -0.06789171 -0.1039371 -0.0632847
000170 40 fd 03 3e a0 67 b7 3d af 04 d7 bd 42 f8 49 3e
       0.12889576 0.08955312 -0.1049894 0.19723609
000180 55 a8 c2 be 28 85 85 3e bb 31 b6 bd 16 ad a4 be
       -0.38019052 0.26078153 -0.08896204 -0.32163304
000190 5a 4a 9a be 91 96 00 3e c5 d0 a7 be bf 46 36 3d
       -0.3013485 0.12557437 -0.32776466 0.044501062
0001a0 bc 27 68 3e 55 76 34 be 14 6a 91 bd 3a 1d f6 bc
       0.22671407 -0.17623265 -0.07100311 -0.030043233
0001b0 b2 76 dd 3d 6e b4 de ba d3 60 af 3d 05 4f 11 be
       0.10813655 -0.0016991028 0.0856339 -0.141903
0001c0 c7 d6 42 be 72 3b db b9 69 7f b4 be 96 be ef bc
       -0.19027244 -0.00041815225 -0.35253456 -0.029265683
0001d0 d6 79 86 3e 58 98 33 bd 13 85 03 bf b9 90 e7 3d
       0.26264828 -0.04384646 -0.5137493 0.113069005
0001e0 17 96 e0 bc d2 90 a8 3d dd 69 01 3e a7 d1 f9 3d
       -0.027415318 0.08230747 0.1263804 0.12198191
0001f0 7f 3c 10 be e5 98 01 3e 55 2b 39 be 7a 23 98 bd
       -0.14085577 0.12655981 -0.18082936 -0.074286416
000200 b8 b2 eb be 39 c4 2f 3e 3d b4 08 3e 60 1a 83 3d
       -0.4603479 0.17164697 0.13350005 0.06401515
000210 4c 30 ec bd 08 8c 2b 3d f4 e4 1c 3c f0 8f 90 be
       -0.115326494 0.04188159 0.009576071 -0.28234816
000220 bc 42 7a be 50 d1 9f bd 92 3d 23 be 99 77 92 bd
       -0.2443952 -0.07803595 -0.15941456 -0.07151718
000230 ef 08 98 bd 44 53 25 3e 2e 46 90 3d 73 2c 25 be
       -0.07423579 0.16145045 0.07044636 -0.16130237
000240 57 84 31 3d cf c0 06 be 3c 2b b5 3d 9f 84 4b be
       0.0433391 -0.13159488 0.08846137 -0.1987481
000250 78 17 f3 3d 36 18 cf 3d ca 0f a9 3d c8 b3 8d 3d
       0.11869711 0.1011204 0.08254965 0.06919056
000260 40 6b d4 3d 7a 97 00 be c5 be 12 3c f9 89 b5 bd
       0.10372019 -0.12557784 0.008956616 -0.08864207
000270 22 fd 65 3e ed 81 a9 3e 77 46 05 be 7d 2f 94 3c
       0.22459844 0.33106938 -0.13015161 0.01808905
000280 03 c8 b8 3d c9 23 64 be 8a 29 4c 3e de 15 82 be
       0.09022524 -0.22279276 0.19937721 -0.25407308
000290 f8 2f 1e be 73 28 b1 be 53 6b a6 3c 01 68 0d be
       -0.15447986 -0.34601173 0.020314848 -0.13809206
0002a0 98 c1 46 bd 6a ac fd bd d1 62 5e bd 37 3d 84 3c
       -0.04852447 -0.12386401 -0.054293457 0.01614247
0002b0 ca f8 08 be 09 a9 81 be 42 24 4a 3e 9e 51 e0 be
       -0.13376155 -0.25324276 0.19740394 -0.4381227
0002c0 96 3c 57 be 35 20 ad bd fc 64 0b 3e 5f 6e 26 3d
       -0.21019205 -0.08453409 0.13612741 0.0406326
0002d0 8b 26 14 3c 65 dc 97 bd 88 dd 26 be 8c 8c 41 bd
       0.0090423925 -0.07415084 -0.16295445 -0.047253177
0002e0 11 6d d9 bd bb ae 86 3e cb 3e b9 be 82 c9 f3 3c
       -0.10616506 0.26305184 -0.3618072 0.029759172
0002f0 51 34 26 be a1 88 30 3e 9a a4 e6 bb a8 5a 8f 3b
       -0.16230895 0.1723962 -0.007038665 0.0043748207
000300 4e fa 49 be ed e6 06 be 64 69 04 3e 6f 70 76 be
       -0.1972439 -0.13174029 0.12930828 -0.24066328
000310 ef 2e 26 3e e9 a7 4f bd 20 d4 6f bd 23 c1 bd 3d
       0.16228841 -0.05069724 -0.058551908 0.092653535
000320 fc 78 b7 bc ab dc 17 be 65 98 9a 3e cd 72 db be
       -0.022396557 -0.14830272 0.30194393 -0.42861024
000330 ea 06 5c be 8f 94 a5 be 9c fa 0d 3e 4d 48 7e 3c
       -0.21487013 -0.32339904 0.13865131 0.015520168
000340 99 a4 fa 3d 0f 32 06 be 17 59 fc bd 95 98 31 3d
       0.12238426 -0.13105033 -0.1232168 0.043358404
000350 ea a8 02 3e b0 f3 e7 bc a1 ba 03 be 87 ed 93 3e
       0.12759748 -0.028314441 -0.12864162 0.28892156
000360 13 4b cc bd 6d 62 a2 3d 75 c5 42 3e 3f 60 40 3d
       -0.09975257 0.079289295 0.19020636 0.046966787
000370 f4 13 d3 3d d0 fa 69 be 3e 1e 8a bd 90 70 43 be
       0.1030654 -0.22849584 -0.067440495 -0.19085908
000380 49 22 b0 3d b7 60 c6 3e 9b 4e 62 3e 33 78 10 bd
       0.086002894 0.38745663 0.22100298 -0.03527088
000390 4d 0a e2 bc ba ba cf 3d 1b 55 88 bd 18 ac 46 3e
       -0.027592802 0.10143037 -0.066568576 0.19401586
0003a0 d4 20 2b 3e a1 87 69 be ee d9 82 3e 79 f9 c4 3e
       0.16711742 -0.22805645 0.25556892 0.38471583
0003b0 ff 44 4d 3e 98 ad 04 be 59 06 96 3e 34 cc 18 be
       0.20045851 -0.12956846 0.29301718 -0.14921647
0003c0 2e 55 ed 3d 5f 22 7a bd c6 de b7 3c 34 9e 13 be
       0.11588512 -0.061067935 0.022445094 -0.14415818
0003d0 71 2f 7e 3e f1 36 31 3e 5d f2 1a bd ea 24 75 bc
       0.24822785 0.17306115 -0.037828792 -0.014962414
0003e0 61 f3 80 3e 7a 15 0b 3d 86 39 1e 3e 09 56 f1 3d
       0.25185683 0.03395603 0.15451631 0.11783988
0003f0 42 e0 3a bd f4 8c 73 3e d2 20 1d be a3 93 10 3d
       -0.045624025 0.23784238 -0.15344551 0.035297047
