model/walker (copy).pt (torch_old, 74943 bytes, 11 tensors)

critic.0.weight f4 [72, 24]
00000000: ec63 7d3e 2d40 13be 707c 99bd d656 73bd
00000010: 372a e13d c6e5 d83c 1420 8dbc ba11 a73d
00000020: 54aa db3d aff3 493e 3e6a 713d aa30 a93d
00000030: c2b8 d83c 163e 503d e23f f53d 9183 7d3d
00000040: e1d0 233d 0178 95bc 1bec 3abd 4f47 8abc
00000050: 4801 d03d ab6e 1a3e 1ac6 673d e673 12bd
00000060: c6ad 8d3d 1afb 313e b310 123d c130 b23d
00000070: 08be 3e3e b3e2 cbbc 594c b8bc 89f6 013e
00000080: a523 26be 990b 113c b940 173e f99f 5dbe
00000090: c952 29be 4769 20b8 a5c0 68bd 93fa 4d3e
000000a0: 41d0 96bc 6cce 9c3b 47a9 6a3c 5d25 e6bb
000000b0: 86d9 f43d 6b1e 733c ac0b 053e 8930 a53d
000000c0: a624 413e 1bfa ebbd f584 9bbc f4c0 12be
000000d0: a640 e7bd d0a5 1d3d 3dab 3d3e d53a 4b3a
000000e0: 5509 95bd 01f9 c63d f7ff 47be 696c d8bd
000000f0: 388a 253e e7b8 443d a3be 7cbd c95a 00be
00000100: 108b 5dbd a799 a23d 064f cb3c afc9 04be
00000110: 1612 373e f4fe 533d 3297 cfbd c1ab 04bd
00000120: 31fd 34bd cf91 14be d969 853d 4bf9 53bd
00000130: 476e 67bd 1d47 14be 6ab7 02be 14c5 b8bd
00000140: 0974 31be 2347 eabc 1839 203d 973a 523e
00000150: edd1 063e f09b d5bd c768 743d 6b88 d7bc
00000160: fcf4 36be 08f3 bdbb 4215 013e dca2 173e
00000170: 76cd e0bd ca27 fbbc fcba 40be 9054 e5bd
00000180: 0194 8abd 9e1f 01be 7212 fdbd 9e85 25be
00000190: 4b55 09be 3250 11bd 3eba 273e e41b debd
000001a0: 5270 37be c5c3 fabd 71cf 23be b197 b03c
000001b0: c529 133e 57c3 023d de6b 083c 58c0 c23d
000001c0: 48b5 983d 76d3 ba3c 7398 3d3e 55f1 273d
000001d0: acef 1bbe da02 163e 2dc9 00be 58c5 02be
000001e0: 18b3 26be 537c 0d3e 64b1 533e b909 243d
000001f0: aed9 a1bd e3d6 2d3e 9f15 febd f7fb d8bd
00000200: d880 46bd 968f 04be 8f02 1e3e 338a a13c
00000210: 85df e3bc 2bc9 e43d 867f 693e c327 02be
00000220: 80e1 763c a44f d73c 8bc4 5f3e b86d 603e
00000230: f3c0 1abe c3f1 fbbc 2184 0c3e 3081 6e3d
00000240: a08e 0bbc 2cd6 b73d 3e1f b3bd 01b4 10bd
00000250: 4187 4c3e ade3 053d 3cb3 683c 76f1 f9bd
00000260: 0969 d93d 8fec 1e3e 5a19 e03d 5841 56bd
00000270: 43bd b0bd 3457 073e 0799 2abe 1197 7c3d
00000280: 34fb 4cbe 958b 4f3e bd10 b83d 65fd 8fbc
00000290: 76e7 e0bd afab 8c3d 5624 18be 7431 1fbd
000002a0: cc2e 2cbe d89d 13bd a04b 4cbe c0cd 79bc
000002b0: 379d 4b3e 3c5a 0b3d f295 96bd 07f2 893c
000002c0: 8c5d d6bd b468 3a3e 3dfa 36bd 4541 c9bc
000002d0: dd0b 213b 8169 e83d 9736 c4bd 471d efbd
000002e0: cadd 083e 15b9 c0bd 9406 413e b05c d03d
000002f0: c7e5 333e 680b 29be 45bb 4e3e e0c1 5b3c
00000300: c9c3 253e 2be5 0cbe 76cb 993d 8d5e 0d3d
00000310: 2698 bb3d a325 00be e9d1 083e b662 153d
00000320: 9139 41be 44e2 24bc 868f 313d c979 57bc
00000330: f75a c03d 2d93 03bd 77d6 5b3c 0f57 adbd
00000340: 3985 1fbd a5d0 11be a47c b43d 6592 37be
00000350: f4b2 c13d 2047 3dbe b519 343e 6773 8d3d
00000360: c94a 123d afbb 8ebd 89e3 aebd c80e 683e
00000370: 276e 0fbe 5b98 a5bd 7c1f fc3c f562 44bc
00000380: fead 123e 5913 27be 0b11 a9bd 913d 00be
00000390: d27b 003e cf29 483d 4644 a1bc cbaf 233e
000003a0: 74a5 d93c 74da 343e 0d43 17bd 01c0 4bbe
000003b0: 1473 eebc c784 c7bd 589a ce3d d84a fbbc
000003c0: db45 ccbc 5f86 4e3d 46ff b0bd 98b5 0cbe
000003d0: c9a2 88be b864 043e 58cf 90bc 2b08 c0bd
000003e0: c5cb 353d 0b4f 643e 30f0 663d b5bd 363e
000003f0: 4a1a 0dbe e057 4d3e 2e86 cd3d 7e49 8ebc
0.24745148 -0.1437995 -0.07494438 -0.059408985 0.1099438 0.026476752 -0.01722721 0.08157678
0.10725847 0.19721864 0.05893921 0.08261235 0.026455287 0.05084046 0.11975075 0.06189305
0.039994124 -0.018245699 -0.045635324 -0.016879706 0.101564944 0.15081279 0.05658541 -0.03575506
0.0691791 0.17380944 0.035660457 0.08700705 0.18627179 -0.024888372 -0.022497343 0.12691702
-0.16224535 0.008852863 0.14770783 -0.21643056 -0.16535486 -3.824502e-05 -0.056824345 0.20115118
-0.01840985 0.0047853496 0.014322585 -0.007023497 0.11955552 0.014838795 0.12992734 0.08065898
0.18861637 -0.11522313 -0.018984297 -0.14331418 -0.112916276 0.03848821 0.18522353 0.0007752602
-0.072771706 0.097154625 -0.19531237 -0.105675526 0.16166008 0.0480279 -0.061705243 -0.12534632
-0.0540877 0.07939463 0.024817955 -0.12967561 0.17877993 0.051756814 -0.1013626 -0.03239036
-0.044186775 -0.14508747 0.065143295 -0.051751416 -0.056501653 -0.14480253 -0.1276528 -0.09021965
-0.1732942 -0.028598374 0.03911695 0.20530163 0.13166018 -0.10430133 0.059670236 -0.026310166
-0.17866892 -0.005796794 0.12605765 0.1480822 -0.109766886 -0.030658621 -0.18821329 -0.1119777
-0.06766511 -0.12609717 -0.12357034 -0.16164252 -0.13411443 -0.03547687 0.1637964 -0.108451635
-0.1791394 -0.12244371 -0.15997101 0.021556707 0.14371403 0.03192457 0.008326499 0.09509343
0.07456452 0.02280591 0.18515186 0.041001637 -0.15228146 0.14649525 -0.12576742 -0.12770593
-0.16279256 0.13816957 0.20673138 0.040048335 -0.07902847 0.16976504 -0.12406468 -0.105949335
-0.04846272 -0.12945399 0.15430664 0.019719219 -0.027816543 0.11171182 0.22802553 -0.1271048
0.015068412 0.026283093 0.21852319 0.21916854 -0.15112667 -0.03075493 0.13722278 0.05822867
-0.008517891 0.08976397 -0.08746193 -0.035327915 0.1997347 0.03268783 0.014202889 -0.12204258
0.10615737 0.15519927 0.109423354 -0.05230841 -0.08629849 0.13216859 -0.16659938 0.061667506
-0.20017701 0.2026809 0.089875676 -0.017576883 -0.10981648 0.068686835 -0.14857611 -0.03886552
-0.16814727 -0.036039203 -0.19950724 -0.0152468085 0.19884191 0.0340216 -0.073528185 0.01683904
-0.104670614 0.18204004 -0.04467224 -0.024567256 0.0024573721 0.11348248 -0.09580725 -0.11675506
0.13365856 -0.094103016 0.18850166 0.10173929 0.17568122 -0.16508257 0.20188625 0.013412923
0.16187967 -0.13759296 0.0750951 0.034514 0.091598794 -0.12514357 0.13361324 0.03647109
-0.18869616 -0.010063712 0.043349765 -0.013151594 0.0939235 -0.03212278 0.013417832 -0.08463871
-0.03894541 -0.14239748 0.08812836 -0.17926939 0.09457961 -0.18484163 0.17587931 0.06906777
0.035715852 -0.069693916 -0.08539493 0.22661889 -0.14006864 -0.080857 0.030776732 -0.011986484
0.14324185 -0.16315974 -0.08255204 -0.12523486 0.12547234 0.048867997 -0.019685876 0.15985028
0.026568152 0.17661458 -0.03692918 -0.19897462 -0.029107608 -0.09742122 0.100880325 -0.030675337
-0.024935653 0.050421115 -0.086424395 -0.13741148 -0.26686695 0.12929046 -0.017676994 -0.09376558
0.044383783 0.22295777 0.056381404 0.17845805 -0.1377956 0.20053053 0.10035358 -0.017369028

critic.0.bias f4 [72]
00000000: 1e2e 30bd b308 3b3e e943 043e 8e80 7d3d
00000010: d282 f73b bb32 08bd 832f 15be 32e1 0f3e
00000020: c05b dfbd 4d1d 28be b182 683e d69c cfbd
00000030: c7ed 19be 181a c53d 4a8c 18be b974 333c
00000040: 8f30 0bbe 57c6 c0bc dd42 243c e4ac 36be
00000050: 365e 2ebe 5b10 853d 6ad6 fa3d 7eda 973c
00000060: 1ff2 883d 4d09 ccbd c436 9d3d 0a9f 82be
00000070: e366 fbbd 1dd8 4ebe f630 febc 30dd 973c
00000080: 9724 42be 6a42 253e 06c0 c8bd dff4 ef3d
00000090: eb56 3dbd c704 a63e 2b5c 163e e6a4 013e
000000a0: a895 18be 3153 043e a8eb bd3d c611 b93d
000000b0: 0032 f3bd 2c8a 713d f410 123e 7134 8dbe
000000c0: c4a5 b23d 143c dd3d a200 86be 49dc 8f3d
000000d0: 548d 9e3d f78c 203e 5aa2 42be 3089 eebd
000000e0: 7a78 55be 8dfe 533e 1a65 963d 9d85 a63d
000000f0: 1259 c83d 813c 0abe befd 5ebd c581 1cbe
00000100: 0abc 35be 4e3a 913d 3fd9 e6bd 249b c33d
00000110: f6e0 e6bd 9eb5 a9bd 2e00 15bc a4e0 01be
-0.04301273 0.18265037 0.1291653 0.061890177 0.007553437 -0.033251505 -0.14568906 0.14050749
-0.10906172 -0.16417427 0.22706105 -0.10137336 -0.15032111 0.096241176 -0.14897266 0.010953122
-0.13592742 -0.023532076 0.010025707 -0.1783939 -0.17028126 0.0649726 0.122479275 0.018536802
0.06686806 -0.099627115 0.07676461 -0.25511962 -0.122754835 -0.20199628 -0.031029206 0.018538088
-0.1895927 0.16138616 -0.098022506 0.11716627 -0.04622547 0.3242552 0.14683597 0.1266056
-0.1490084 0.1292236 0.092734635 0.09036593 -0.11874771 0.05896966 0.1426428 -0.27579072
0.087230235 0.108024746 -0.26172358 0.07024438 0.077418 0.15678774 -0.19007245 -0.1164726
-0.2084674 0.20702572 0.07343502 0.081309535 0.09782614 -0.13499643 -0.054441206 -0.15283878
-0.17747512 0.07091199 -0.11271905 0.09551075 -0.11273377 -0.08286594 -0.009094281 -0.1268335

critic.2.weight f4 [96, 72]
00000000: 8a1f d0bd 5c68 8d3d 867b 59bc 1944 b73c
00000010: a680 433d 1ed3 f23c 16f0 83bd d060 c5bd
00000020: 371f d23d 9a7e 2f3d a452 433d 9c1c 9dbd
00000030: 0699 5eba b35f 9f3d 431a 933d f9cd 57bd
00000040: 2dee 9cbc c87d 263b d5cc 84bd d1ce e2bd
00000050: 073d 30ba da49 debc 73ae e2bd 3e82 63b8
00000060: 029b 33bc b045 ba3d b5e0 38bc d6a0 c1bd
00000070: 38b3 e13d a9ff f2bd 748f c8bc eb68 a63d
00000080: abc9 163c d3f6 193d 9a41 96bb 53c0 703d
00000090: 3336 cc3d a99d 06bd f7ab 1bbd 4cbb 38bd
000000a0: fbbb b23d 9858 f33c 72b2 d9bd efb9 31bd
000000b0: 083e 67bd 006b 573d a12c 3e3d b530 efbc
000000c0: 143b b2bd 6221 b73d 325a da3d 521b 08bd
000000d0: a013 c63c 0626 653d 2642 25bd 62b5 ec3d
000000e0: 1443 6dbb 1105 dabd 6a0e 1fbd 27f1 43bd
000000f0: e79b a13d a963 7abd e084 ca3d 3f96 d53d
00000100: db3d ac3d c0a5 6d3b 079a 4f3d 66a6 0fbc
00000110: 3bcb 05bd 50ac b23d 57c6 453d 2529 dcbc
00000120: b3af adbd 3c2c cabc 2758 2bbd 524d cf3c
00000130: 0782 af3d f5ed 933d 8065 333d f497 96bd
00000140: a75e e33d 545d d03d ef30 7c3d 677a 0e3c
00000150: fb99 283d e668 b33d 24b9 cfbd bcae 1c3d
00000160: 5390 b43d 9885 80bd 0813 4f3d cab0 fdbc
00000170: 796e 513b f39f b8bd 11b3 d83d 5e0b d7bd
00000180: 510e de3d 566b 5d3d c4cb a83d b94a c7bc
00000190: dc75 a5bc 00b8 77bd bdd5 85bd 4f4d e6bc
000001a0: a6a3 89bd 99b5 cebb 3f4d e1bc 13ee cfbd
000001b0: 1e82 d4bc e7e7 afba 101c bfbd c6da 9bbd
000001c0: cbfa 2ebd 921f 86bd 2943 623c b8f0 4a3d
000001d0: af88 babd c868 da3d d204 9d3b 907f 573d
000001e0: 3fd3 f3bd 747c 82bd cea4 79bd 3901 89bb
000001f0: 6ae3 efbc 74f3 c3bc 3329 ddbd 3619 26bd
00000200: 0a6a 933d 3a09 a2bd a6cf cfbc 15a8 e23d
00000210: cec3 473b e1ef 90bc af6c b7bd 933d 393d
00000220: e9de a2bd 1720 e5bc d5ea 853d 0e6d 483d
00000230: d659 7a3d 929d a03d 5dcb acbd 310b 843d
00000240: 6998 e03d 0868 b53d 680c fd3c 1a6c 82bd
00000250: 3886 79bd 3831 0f3d 1224 3f3d b714 cebd
00000260: 009a 5ebc f04a d53d 87a0 7dbd 5766 ee3b
00000270: 0818 dcbd b584 fcbd 3522 b1bd c27c fa3c
00000280: 7e8c d73c f455 39bd f92c 9fbd c308 a63d
00000290: 8449 703d 891e b4bb 0ade ebbc 84db e53d
000002a0: 5e54 533d b4c9 0dbc da29 ae3d ad3a 763d
000002b0: 56c2 dc3d 6f43 dd3d f1bc cf3c e443 033d
000002c0: 6137 ddbb 7969 8bbd 2de8 e8bb f389 d53c
000002d0: 7098 94bd 6894 29bd d49e 263d f559 dabd
000002e0: 4ab0 ab3d c04b 52bd 8244 9fbd a36e 8c3d
000002f0: bfde eb3d c117 383d cb15 9cbb 7778 0cbd
00000300: c835 513c e993 e4bd f14b 0bbc c975 863d
00000310: e1d0 23bd a6e3 ebbc 0653 25bd 0f60 9d3d
00000320: ad34 033d 28b6 95bc d29f bcbd 2be8 35bd
00000330: a38e fd3c f817 cabd 766a 9dbd 4520 92bc
00000340: a11d f4ba 20c2 513d 6e73 20bd e9d3 d7bd
00000350: e66b 95bd b24e c03d fe43 cdbb d6cc 3d3c
00000360: e122 5d3d ad9a 493d f82b 493d 3397 babd
00000370: ee41 bcbd 1c18 133d 9405 ff3c 076d 66bb
00000380: 558e 38bd 8ebb 66bd 076b b83d 3678 cebd
00000390: 914d 883c 6810 adbd c62d 2ebd 58a9 ea3d
000003a0: e45e 1dbd d999 92bc c4a7 563d 45b4 93bd
000003b0: 21ac c2bd 884d 853d 61b4 a7bd 22e0 6abd
000003c0: 6b1f a33d 0e98 583d 8262 8f3d f331 c33d
000003d0: 7268 793d 1dc0 a0bc b80d f83c d660 dbbd
000003e0: 51a4 e03d b962 443d a7ef d1bb 414e 50bd
000003f0: d910 3c3c 0c33 d3ba cef2 72bd db60 3c3c
-0.101622656 0.069046706 -0.013274079 0.022371339 0.04773011 0.029641684 -0.06442277 -0.09637606
0.1025986 0.042845346 0.047686234 -0.076714724 -0.000849143 0.07781925 0.071827434 -0.052686665
-0.01915654 0.0025404561 -0.06484381 -0.11074603 -0.0006722961 -0.027134825 -0.1106843 -5.4242315e-05
-0.01096225 0.09095323 -0.011284043 -0.09454505 0.110205114 -0.118651696 -0.024482466 0.0812548
0.009203355 0.037588906 -0.004585457 0.058777165 0.09971275 -0.0328652 -0.038005795 -0.045100495
0.08727261 0.02970533 -0.10629739 -0.04339021 -0.056455642 0.052592278 0.04642928 -0.02919803
-0.087026745 0.08941914 0.10661735 -0.03322918 0.02417928 0.055944465 -0.040346287 0.115580335
-0.0036203312 -0.106454976 -0.038832106 -0.047837403 0.07891064 -0.0611302 0.09888625 0.10429048
0.084102355 0.0036262125 0.050684 -0.0087677 -0.03266452 0.08724272 0.048284855 -0.026875088
-0.084807776 -0.024679296 -0.041832116 0.025305424 0.085697226 0.07223121 0.04379797 -0.073532015
0.11102038 0.10174051 0.061570104 0.008696175 0.041162472 0.08760242 -0.10142735 0.038252577
0.0881659 -0.06275481 0.05055526 -0.030968089 0.0031956716 -0.09014883 0.10581029 -0.10500215
0.108425744 0.05405744 0.0824199 -0.024327623 -0.020197801 -0.06047821 -0.06534908 -0.028113035
-0.067206666 -0.006308269 -0.027502654 -0.10152831 -0.025940951 -0.0013420553 -0.09331524 -0.07610087
-0.042719644 -0.0654899 0.013809958 0.049545974 -0.091081016 0.10664517 0.0047918344 0.052611887
-0.11905526 -0.06371394 -0.060948186 -0.004181054 -0.029283244 -0.023919798 -0.10798874 -0.040551387
0.0719796 -0.07911916 -0.02536757 0.11067215 0.00304817 -0.017692508 -0.089562766 0.045224737
-0.07952673 -0.027969403 0.06538931 0.048932128 0.06112083 0.07842554 -0.08437226 0.06447447
0.1096657 0.08857733 0.030889705 -0.06368275 -0.060919017 0.034959048 0.04666526 -0.10062545
-0.013586521 0.10414684 -0.06192067 0.0072753835 -0.10746771 -0.12329999 -0.086491026 0.030577067
0.02631211 -0.045247987 -0.0777225 0.0810714 0.05866386 -0.005496804 -0.0287924 0.1122351
0.05159413 -0.008654047 0.08504076 0.06011455 0.10779254 0.108038776 0.025358649 0.032047167
-0.0067509864 -0.06807227 -0.0071077556 0.026066756 -0.07255638 -0.041401297 0.040678814 -0.10661689
0.08383234 -0.051341772 -0.07776739 0.0685704 0.11517095 0.04494453 -0.00476334 -0.03429457
0.01276917 -0.11161024 -0.008501993 0.065654345 -0.039994124 -0.028795075 -0.04036238 0.07684337
0.032032657 -0.018275335 -0.09210171 -0.044410866 0.030951804 -0.09867853 -0.076863214 -0.017837653
-0.0018624553 0.051210523 -0.039172582 -0.105384655 -0.072959706 0.0939001 -0.006264209 0.011584481
0.05398834 0.049219776 0.049114197 -0.0911087 -0.091922626 0.035911664 0.03113059 -0.00351602
-0.045057613 -0.05633121 0.09004789 -0.10081522 0.016638549 -0.08450395 -0.04252412 0.11458081
-0.038420573 -0.017895626 0.052406088 -0.07212118 -0.09505487 0.065089285 -0.081887014 -0.057342656
0.07964977 0.052879386 0.07001211 0.095310114 0.060890622 -0.019622857 0.03027998 -0.10711829
0.10968841 0.04794571 -0.0064067426 -0.05085588 0.011478626 -0.0016113236 -0.059313588 0.0114977015

critic.2.bias f4 [96]
00000000: e37a fbbd 853d 453d 4919 1fbd 795b bd3d
00000010: fce3 183a 29c6 d6bc ddf9 d0bc 3276 d7bd
00000020: 354d a73d 0b60 1dbe 4175 d6bc b7de 873d
00000030: 46d7 98bc fa16 923d 5c04 0fbe 0829 9abd
00000040: 77ff d3bc f6a4 723d 3e3e 17be 94c7 8e3d
00000050: cc7a 193d 152c eebd 2a62 5abc 778e 1f3c
00000060: 6f6e 823c eecb 86bc ba0e d8bc 6c01 093b
00000070: 26ed e53d cef4 acbd 5ffc 813d 6fb8 be3d
00000080: 8b41 b4bd 2216 26bd 94b6 0ebc 416e ba3d
00000090: ed15 913d fc8b d9bd b9b3 10be 20f5 35bd
000000a0: 8dca d6bd d79b 5839 bc7b d4bc bbda 0b3d
000000b0: 184f 9abd 2a73 2b3d e9cd f2bc 832b 933d
000000c0: 5da1 0abe fc70 14bd 1f3f 34bd 1821 dbbd
000000d0: 9f4c 3cbd d33f c83d 50a7 9e3d 190b e13b
000000e0: d85b 38bd 349e 0fbd b871 bfbd d400 8dbd
000000f0: 9e9e bc3c cca4 a63d b9ce 8abb 4dde c83d
00000100: a434 e03d e2ff 0b3d 05d0 c0bb 1516 bebc
00000110: 1967 ab3d 8b78 58bd c8c2 03bd b884 5f3b
00000120: f121 21bd cc0f 84bd af2a 063e fa31 a03d
00000130: 9597 a3bc 49fa 80bd 6e44 cebb ff0d c83d
00000140: 14fa 15be 2172 86bd dd8c ccbc f28a 89bc
00000150: 1a09 163d 6143 f83d 3ff2 0b3d e00c 06be
00000160: 6abb 0d3e b70c f3bd ee28 cebc 5385 0fbe
00000170: 9e91 d53c 925a a7bc e2a0 fd3d 2ad0 7b3d
-0.12279298 0.048154373 -0.038842473 0.09245963 0.0005832312 -0.026217537 -0.02550977 -0.10520591
0.08169023 -0.15368669 -0.026178958 0.06634276 -0.018657338 0.07133289 -0.13966507 -0.07527357
-0.025878651 0.05923935 -0.14769837 0.0697166 0.037470624 -0.11629502 -0.013329068 0.009738556
0.0159218 -0.016454663 -0.02637421 0.0020905389 0.11226873 -0.0844513 0.06346964 0.09312522
-0.08801564 -0.04054845 -0.008710522 0.091030605 0.0708426 -0.10622403 -0.14131059 -0.044423223
-0.10487852 0.0002065742 -0.025937907 0.034144145 -0.07534617 0.041857876 -0.029639201 0.071860336
-0.13538118 -0.036240563 -0.04400551 -0.106996715 -0.04597151 0.097777985 0.07746756 0.006867778
-0.045009464 -0.035062984 -0.09347862 -0.068849236 0.023024853 0.08136901 -0.004236069 0.098080255
0.109475404 0.034179576 -0.005884173 -0.023203889 0.08369274 -0.052849334 -0.03216818 0.0034106206
-0.03933901 -0.064483255 0.1310222 0.07822032 -0.01996974 -0.06297738 -0.0062947785 0.097682945
-0.14646178 -0.06564737 -0.024969513 -0.016789887 0.036629774 0.121222265 0.03416657 -0.13090849
0.13841024 -0.118676595 -0.025166001 -0.14015703 0.026070412 -0.02042893 0.123842016 0.061477818

critic.4.weight f4 [1, 96]
00000000: 38fb de3d c37e a2bd 5a14 9e3c f5d5 b6bd
00000010: faf1 85bd 11aa 863e 516c 0e3e 5f5b ce3d
00000020: 425f cfbc 0dc1 fe3d 72d5 e13a be90 3a3c
00000030: 1f42 8f3d d0a7 14bc 3c6a 6a3e ae45 f83d
00000040: ad92 32bd 109d 233c d754 073e 6a1f 293d
00000050: c23a 403e 1147 af3d d961 2abd 9446 3d3d
00000060: 87d4 a03d 196a ad3d f101 f0bd e1b0 71bd
00000070: 386e d0bd aa32 733e 769d 923d 448b 893d
00000080: 9abb 60bc d837 3c3c fbbe bdbd 4de6 353e
00000090: 353a 03be dc95 023e 88d5 543e 75e4 833e
000000a0: 77f6 b83d 8ccd 013e 8b2f ebbd 59f8 753d
000000b0: 8e54 023e c0a6 14bd 356e 38be 5716 08bd
000000c0: fcc6 ea3d f441 74bd a54e 2abd d1d9 ca3d
000000d0: ffa2 49be c5cc 8fbd 4662 2bbc 94ac d23d
000000e0: a42f b73d 4e2b b33d 2ea1 b53d c80d f53d
000000f0: 38c1 763d f769 083f 8d72 b33d cde8 ea3c
00000100: 309a 1ebe 894f a93c 8eea 8f3d 72b7 a93d
00000110: b161 9cbd f176 fcbd ead1 34be abed 0b3e
00000120: 2d15 9f3d bba8 89bc 0403 8abd 5f00 f3bb
00000130: 5bec 6f3d f253 6cbc 9558 e43d 5330 a2bd
00000140: c572 ed3d fe40 36bc 11c5 0f3e 55f9 4d3e
00000150: f032 543d 56ad 0bbe ea69 973c 9e3b cc3d
00000160: ef45 76be 849e ef3d fe09 333d e682 2d3e
00000170: f305 c7bd 1eef 63be e4e2 f6bd 46e4 12be
0.1088776 -0.07934334 0.019296814 -0.08927528 -0.06540294 0.26301625 0.13908507 0.100760214
-0.025313977 0.12439165 0.0017229749 0.011387048 0.069950335 -0.009073213 0.22892088 0.12122665
-0.043596912 0.009986177 0.13215958 0.041289724 0.18772414 0.08558477 -0.04159722 0.046209887
0.078530364 0.08467502 -0.1171912 -0.059006575 -0.101772726 0.23749796 0.071589395 0.06716016
-0.013716603 0.011487924 -0.09264942 0.17763634 -0.12815173 0.1275248 0.2078458 0.25760236
0.090313844 0.12676066 -0.114836775 0.060051296 0.12727568 -0.036291838 -0.1801079 -0.03322443
0.114637345 -0.05963321 -0.041578908 0.099048264 -0.19691084 -0.070214786 -0.010460442 0.10286823
0.089446336 0.08748494 0.08868633 0.11965519 0.06024286 0.5328669 0.08762083 0.028675461
-0.15488505 0.020667808 0.0702716 0.082869425 -0.07635821 -0.12327374 -0.17658201 0.13664882
0.07767711 -0.01680409 -0.067388564 -0.0074158157 0.058575016 -0.014424311 0.11149708 -0.07919373
0.11594156 -0.011123894 0.14040019 0.20114644 0.05180639 -0.13640341 0.018483121 0.099723086
-0.24050115 0.11700156 0.0437107 0.16944465 -0.097179316 -0.22259185 -0.12054995 -0.14344892

mean.0.weight f4 [72, 24]
00000000: 8647 4fbe 29a6 b53d fc05 253d d3d6 f03d
00000010: f577 ebbd 6f1d ca3d 44bf 153e 051a 1abd
00000020: cc3e d03d c25e adbd b348 3b3d 5949 b7bd
00000030: 8ec5 39be d697 04be a934 95bd 60cc eabb
00000040: 1555 c83d df0f c9bd 2abf 00be 077a 573d
00000050: 8b9f 483d f068 bf3d 1b77 a5bc f141 3ebe
00000060: 70b6 bd3d ff27 993d 44a0 16bc 849d 863d
00000070: d4fa 42be 2d2e 0e3e 007e f13d dc81 483e
00000080: 1ddf 0dbd 8047 ca3d b1a1 ad3c c71d 2d3e
00000090: 5513 adbd ec95 b3bc a541 97bd c9b4 0d3e
000000a0: f371 debd 6490 4ebd d680 26be c489 11be
000000b0: d8fe 3bbe ad58 423c b87e a5bd 48e4 3ebe
000000c0: 41c7 4ebc 2c43 8f3d 19ed c13d 48ef 2e3e
000000d0: 8e08 5c3e 74a5 e5bc 442e 2b3e af90 8c3c
000000e0: 95a9 80bd f31d 53be c438 ae3c 3d6e 3e3e
000000f0: 1713 1e3e a370 e8bd 8a14 b43d f47d 1a3d
00000100: 5eea ce3d e985 b0bd eb4b babd 1ccc 8d3d
00000110: d8fc 4d3d 75df 103e bed0 b43d a891 fb3d
00000120: 7293 65bb ba51 39be ed20 1cbe cbdc 15be
00000130: 480c e13d a3e0 28be ad56 4fbe 5f27 d33d
00000140: 48e1 1fbe 6610 293e 6f77 eb3d c9ea 443d
00000150: 3f53 c53d c85c fa3d 5cf2 183e ab5a f4bc
00000160: 1d78 04bd 0321 27bd fc55 b1bd bd87 75bd
00000170: a013 95bc e298 213e 291f 4abe 6c26 073e
00000180: 5722 973d 7faa dabc 4cd6 ae3c e07a 443e
00000190: 8224 3b3e 621a 4e3e 1a6f 063e 081c 4dbe
000001a0: 2cef 063e 1a95 8ebc df4e 0e3c a785 51bd
000001b0: 0918 193e 1d90 293e a738 f33d 65d8 cabd
000001c0: b7a1 913d aaf9 2a3e 09bc 75bd f0f4 373d
000001d0: 2180 223e cee9 ca3d 6c85 d8bb d077 4bbe
000001e0: a800 ad3c ef36 873d 50a1 b83d c8fd adbd
000001f0: f4be 5bbd 0a4b 243e c8b5 32be c3a1 86bd
00000200: 6ac9 3dbd 1ab0 553e 32d7 fcbd bea0 4b3d
00000210: d1d1 673d 6277 f73d 95a6 113e ec02 43be
00000220: 72f8 0abe 022e 02be 61fc b1bd a427 0b3e
00000230: ea7a d63c efe1 693c a85c 4d3e 1bab d5bd
00000240: a149 38be d0d0 333e acee 083e 1f34 b8bd
00000250: 42c7 10be 366b 04be 31f3 f0bd 35a7 0cbe
00000260: 923a fb3b b79e 27be 0cd0 40be 09cd f23d
00000270: 18f1 02be 6215 15be 9713 92bc 23e1 f93c
00000280: 7250 013e 7a99 49be cd0e 0e3d b1a0 1b3e
00000290: 42ce 4f3e 1d16 13bc 359d 44bd bfce e33c
000002a0: f4fb 223d f723 213c b1ee 503e 0402 e9bc
000002b0: 9859 28be 9645 c6bd ba7d df3d fd7d 063e
000002c0: ff04 c83d 54b9 6abd 4a0d 1f3e 1efd 48be
000002d0: cc13 49be 3464 3fbe 4aae 9ebd ee94 b2bd
000002e0: 6049 e13d 237a d83d 037b 4a3d 3d16 fa3d
000002f0: e288 aabd e922 5c3d acad c1bc 79b1 8cbd
00000300: 9668 0fbe e0a6 92bc d8b2 0c3d c2a9 54bd
00000310: 688a 4bbe b651 dfbd a643 fbbd 1468 9bbd
00000320: 184e cc3d 4acc f6bc 066c 34be bd42 303e
00000330: bc92 003e d73a 19be c298 d63d a80e 013e
00000340: c73b 92bd cb82 2cbe cc62 94bd 185c f93d
00000350: ca89 103d 5867 e2bd d564 14bd 1d48 1abe
00000360: ec1b 1cbe 4005 a9ba c430 0abe 6cab 4d3e
00000370: e139 393e 7f4a e0bd 5fb9 c23d 8f01 b33d
00000380: cd20 183e 968a 433e a158 afbd cc17 963d
00000390: 2166 3e3d ff80 e33d 7ab9 4d3d d6be 9abc
000003a0: d47b c23d f2a3 2dbe e8af 2bbe 3cbc 763d
000003b0: fe1b 2a3e b4b9 f53d 72bb bdbd e939 3abe
000003c0: ea95 fbbd 3ed8 21bc c0c2 093e fe87 b73d
000003d0: 5065 14be 555f f93b 8d2d 0cbe eddb 13bd
000003e0: 80d8 0abd 63d1 21be 22a3 34be 2598 1c3d
000003f0: b915 10be b138 24be 7715 4abe 1525 50be
-0.20242128 0.08869583 0.04028891 0.117597245 -0.11497489 0.09868895 0.14623743 -0.03762247
0.101682276 -0.08465339 0.04572363 -0.08949537 -0.18141767 -0.12948546 -0.07285435 -0.0071654767
0.09781853 -0.0981748 -0.12572923 0.05260661 0.048980277 0.09346187 -0.020198395 -0.18579842
0.09263313 0.07478332 -0.009193484 0.065730125 -0.19040996 0.13884802 0.11791611 0.19580787
-0.034636606 0.09876919 0.021195265 0.1690589 -0.08450953 -0.021922074 -0.073855676 0.13838495
-0.10861578 -0.05043067 -0.16260085 -0.1421271 -0.18358934 0.011861962 -0.0808081 -0.1864177
-0.012620748 0.06995234 0.09469051 0.17083466 0.21487638 -0.028032996 0.16716868 0.017158834
-0.06282345 -0.20616893 0.021267302 0.1859674 0.1543697 -0.11349609 0.0879298 0.037717775
0.10103296 -0.08619291 -0.090965115 0.069236964 0.05028996 0.14147742 0.08828877 0.12283641
-0.0035030511 -0.18097582 -0.15246935 -0.14635007 0.109886706 -0.16491942 -0.20247908 0.10310244
-0.15613282 0.16510162 0.114973895 0.04807547 0.096350186 0.12224728 0.14936203 -0.02982839
-0.03234111 -0.040802967 -0.08658978 -0.059943903 -0.018197834 0.15780976 -0.19738449 0.1319825
0.07379597 -0.026692627 0.02134242 0.19187498 0.18275645 0.20127252 0.1312832 -0.20030224
0.13177174 -0.017405082 0.0086857965 -0.05115285 0.14950575 0.16558881 0.1187604 -0.09904555
0.07110923 0.16696802 -0.059993777 0.044911325 0.1586919 0.09907876 -0.006607702 -0.19869924
0.021118477 0.066022746 0.09015143 -0.084956706 -0.053648904 0.1604425 -0.17452157 -0.06573822
-0.04633466 0.20867959 -0.12345733 0.049713843 0.05659658 0.12083317 0.14223702 -0.19044083
-0.13571337 -0.12712863 -0.086907156 0.1358934 0.026181657 0.014275058 0.20054877 -0.104330264
-0.17996837 0.17560124 0.13372296 -0.08994316 -0.14138511 -0.12931523 -0.11765135 -0.1373566
0.0076668942 -0.16369139 -0.18829364 0.118555136 -0.12787282 -0.14558938 -0.017831607 0.030502861
0.12628344 -0.19687453 0.034682084 0.15198018 0.20293525 -0.00897744 -0.048001487 0.027808545
0.039791062 0.009835235 0.20403554 -0.028443344 -0.16440427 -0.09681241 0.10912652 0.13133998
0.09766578 -0.05730565 0.15532413 -0.19627807 -0.19636458 -0.18690568 -0.07748087 -0.08719812
0.11000323 0.10570171 0.04943372 0.12211273 -0.083268896 0.05374423 -0.023642384 -0.06869788
-0.1400474 -0.017901838 0.034350246 -0.051919706 -0.19877017 -0.10904257 -0.12268762 -0.07588211
0.09975833 -0.03012671 -0.17619333 0.17212959 0.12555975 -0.14963852 0.10478355 0.12603247
-0.07140308 -0.16846769 -0.072454065 0.121757686 0.035287656 -0.110548675 -0.036228973 -0.15066572
-0.15245026 -0.0012895241 -0.13495165 0.20084924 0.18088485 -0.10951709 0.09508013 0.08740532
0.14856263 0.19095835 -0.085618265 0.07328758 0.046484116 0.111085884 0.050225712 -0.018889826
0.094962746 -0.16957071 -0.16766322 0.060238108 0.1661224 0.11998311 -0.09264268 -0.18186153
-0.12284453 -0.009878216 0.13453197 0.08961485 -0.14491773 0.0076102414 -0.13689251 -0.03609841
-0.033897877 -0.15802531 -0.17640355 0.038231034 -0.14070787 -0.16037251 -0.1973475 -0.20326646

mean.0.bias f4 [72]
00000000: 3ecc 2fbd 94b0 39be 3d58 363e ff41 1e3d
00000010: 75bc d3bb e10a 39bd f3ba 033e f5f8 9cbd
00000020: e946 97bc 6b6b c83d 8b0a ccbd c5d1 483e
00000030: 6772 403e 3b0c c7bd 0a98 c2bd 94c5 523d
00000040: 7ef8 4cbe 52fb ebbd 307f 60bd f857 6fbd
00000050: 38e3 17be ff8c ed3b 6d0e 9f3d d1f1 a03c
00000060: 4a93 f43d c275 19bc 8acd 97bd 3e2a fcbd
00000070: 3cd0 10be 5c68 303e 9a9e bb3d 554c c73d
00000080: 431e 0ebe 43e7 333e 2c1f ec3d d8c9 133e
00000090: 65f1 99bd 4550 1c3d f38a 473e 1a99 1bbe
000000a0: 14df 583e d20b 4bbd 14bc e1bc bbf1 2c3d
000000b0: 16d5 b8bd 2607 d4bd c28c 35be 8568 2e3e
000000c0: d22a dc3d 1f64 2a3e 51d6 453d b2d6 bfbd
000000d0: 47e3 8d3d e3a7 e13d 8c38 a33d cbf1 343e
000000e0: 40fd ecbd e381 b1bd ef0d babd 8b6b 2c3e
000000f0: 60d7 a9bd bdcc fa3d 6a07 1bbd 7803 c8bd
00000100: f3cd 4f3e 5da7 be3d eacf 14be eff9 af39
00000110: c768 023d f8e9 d7bd 4bff 3fbe b9d0 243e
-0.04291939 -0.18133765 0.17807098 0.038637158 -0.006461675 -0.04517639 0.12864284 -0.07664672
-0.01846643 0.09786113 -0.099629484 0.1961127 0.18793641 -0.0971913 -0.095016554 0.051457956
-0.20016667 -0.11522545 -0.054808795 -0.058433503 -0.14832771 0.007249474 0.077664234 0.019646557
0.11942156 -0.009366455 -0.0741225 -0.123127446 -0.14141935 0.1722731 0.0916111 0.09731356
-0.13878731 0.17568688 0.11529383 0.14432466 -0.075167455 0.03816249 0.19486599 -0.15195122
0.21178848 -0.04957182 -0.027555503 0.04222272 -0.09025018 -0.10352926 -0.17729476 0.17032059
0.10750355 0.16639756 0.04830009 -0.09367122 0.06928115 0.1101835 0.0796977 0.17670362
-0.11571741 -0.08667352 -0.09084689 0.168379 -0.08293033 0.12246082 -0.037848867 -0.097662866
0.20293407 0.09309266 -0.14532438 0.00033564816 0.031838205 -0.10542673 -0.1874973 0.16095246

mean.2.weight f4 [96, 72]
00000000: e7b1 d93d ebc0 e03d 18dc 90bd 16b0 d8bb
00000010: 9829 4bbd 65fa 003d 2345 68bd b460 db3d
00000020: 0c81 bebd 1595 f23b dd52 b23d 0f68 80bb
00000030: 98d0 c8bb af8f bc3d eafa 9a3b 2e85 6ebd
00000040: 1010 c73d aa20 b2bd 596b 393d 2232 2b3d
00000050: fb7d f73b 2e2b 0abd dbaf 9e3c aa38 5ebd
00000060: 41d7 3c3c abae b13c 184a 1b3d 39a0 88bb
00000070: a172 5abd c664 9abd cc10 a2bd 0a0c 5ebd
00000080: 69c8 cdbc 5427 3a3d 25df 913d 0cde e6bc
00000090: 51d5 f7bc a4ab 89bc f02b 3dbd 8d8a e03d
000000a0: e3ff 9a3b c51e 84bd c9d7 a03d 93ad 50bd
000000b0: 63ad 1d3d e082 803d af7e b1bd c075 a5bd
000000c0: 8677 57bd 0c60 93bd e779 833d 03c7 b2bd
000000d0: 15ee 1c3d bb6d de3d cd15 623d e5ea 943d
000000e0: 0391 c2bd fe1e b9bd cbcb 0439 5a63 b33d
000000f0: 2fdf 873d 5734 7f3c 78d7 ccbd 2cdd 433c
00000100: 73f0 4c3d 0780 933d ab10 d83c f503 05bd
00000110: 0a84 393d d18c 933d 2d72 85bd 8c66 9cbd
00000120: 4c6d 9a3d 0bed 843c 2837 adbb 83da fc3c
00000130: 2dc2 c4bd 13f5 a23d 467f dcbd 97f8 e4bd
00000140: fd9e 07bd 6104 02bb 3fe1 0bbd 68ea 4a3b
00000150: abf2 2d3c 20de 813d 1393 7fbd f41e 05bd
00000160: cbe0 19bc e8e4 6b3d 0b67 db3d f443 2cbd
00000170: 1ab0 ec3d 8547 90bc af30 0fbc 3bc7 1bbd
00000180: 559a a6bd 31c5 da3d 5657 ab3d 4f76 d8bd
00000190: a0ed e6bd df64 c53d ed8d a1bd c832 f0bd
000001a0: 596e d3bd 9ea2 b3bd 621d 2fbd 9b52 80bd
000001b0: 492b 653d 5c51 87bd 147b 6fbd c61e e6bd
000001c0: 8bdb 6bbd 315e 893b 5e0e 0f3d 81c0 f03d
000001d0: d044 d6b9 0d92 f13c c3b0 c43d fa6d 4a3d
000001e0: b753 df3c ee76 67bd f2a9 9bbd b2bd 91bd
000001f0: aa64 b33c cc8d 963c 8174 ab3d 5605 623d
00000200: 2b0b 383c 1787 c7bd fff3 a7bd fa5e adbd
00000210: 3db9 a6bd 49e5 40bd 678a 30bd 8b1a ea3c
00000220: 52d8 c43d e91a c8bd 5038 9a3d 2150 603d
00000230: 88dc 273c 93c7 bdbd 7084 f2bc 91a3 e2bd
00000240: 9e8f d9bd 8e26 c73d 003c 1e3d 11e4 0e3d
00000250: 06fa 403b 447d b4b9 8867 8c3d 390f db3d
00000260: 6822 acbd 4029 2e3d 99f7 e3bc edd8 37bd
00000270: 6a8d 4abc a7cd cdbd 57aa d5bd 4c2d a43d
00000280: bfdc 77bd 9ccc df3d 6266 b13d 19f1 dc3d
00000290: cc21 e6bc c414 d9bd e72a e8bd 7d5a b6bd
000002a0: 245c c33d 3d44 003d 1041 a33d 65ac 3abd
000002b0: ae53 49bd 9ffd 7fbd 1cbf 0ebd bf8a e3bd
000002c0: 1fbf 1d3d 394f 7f3d 5a96 59bd ae6d e1bd
000002d0: e41d 67bd ce42 2e3d e525 3cbd e5ac 423d
000002e0: 502d aa3d 68ff 2abd b334 afbd c9ce 9c3d
000002f0: b98f d1bd 999c c83d 5598 a83d 24b0 b43d
00000300: dee6 9cbc 5df1 e63d a2ca dd3d 8dcd a9bd
00000310: 751a 8e3d 9c31 bb3d c796 4bbd 5b6f 273c
00000320: 2c6e b53d b464 85ba 92a3 babd e991 e53b
00000330: 47f2 5e3d 5124 723d 43c4 f43c aab5 33bd
00000340: cc78 cdbd dc6f be3d 1a58 543d 97b1 a63c
00000350: 75bb c93d 4f23 883d 3079 7c3c ad3d 083d
00000360: 546c c23d 768d b8bd 49a6 c93c 6910 89bd
00000370: 604b 523c b4f9 ce3d 5ce0 24bd 928a 073d
00000380: 9685 413d ba44 cebc 2ba8 1a3d 2951 89bc
00000390: 1d3d e63b dd30 833d 27f2 6e3d 0b64 c73d
000003a0: 193c 6abd 81bd 90bd ba9e cebd 2730 d0bc
000003b0: fc10 fb3c 90a0 bd3d d531 a8bd d595 b13d
000003c0: 65ac 61bd 8de1 bfbd 2091 983d 57e7 bbbd
000003d0: 0c7b d73d d6d0 95bd 848b ff3c 449c 903d
000003e0: a4f7 18bd 9b02 c33d b621 b1bd d709 85bd
000003f0: 2bcc c33c a2f1 3d3d 9099 3f3d 4e80 323d
0.10629635 0.10974296 -0.070732296 -0.006612788 -0.049600214 0.031488795 -0.05670656 0.10711804
-0.093019575 0.007403026 0.08707211 -0.0039186548 -0.006128382 0.09207093 0.0047296183 -0.05823248
0.097198606 -0.086976364 0.04526839 0.041795857 0.00755286 -0.033732586 0.019370964 -0.054253258
0.01152593 0.021689733 0.03791246 -0.0041694907 -0.053331975 -0.07538752 -0.0791336 -0.0542107
-0.025119977 0.045447662 0.071226396 -0.028182052 -0.030253084 -0.016805477 -0.04618448 0.109639265
0.004730211 -0.06451181 0.07853658 -0.050946783 0.038495433 0.062749624 -0.08666741 -0.080791
-0.05260422 -0.07196054 0.064197354 -0.08729365 0.03831299 0.10860773 0.055196572 0.07271365
-0.09500315 -0.090391144 0.0001266442 0.08759184 0.06634366 0.015576444 -0.10002035 0.011954587
0.050033998 0.07202154 0.026375135 -0.032474477 0.045291938 0.07204593 -0.06515918 -0.07636747
0.07540378 0.016226312 -0.005286116 0.030865913 -0.096073486 0.079569004 -0.10766463 -0.11180227
-0.033110607 -0.0019839036 -0.03415036 0.003096247 0.010616939 0.06341195 -0.06239612 -0.032500222
-0.009391974 0.05759135 0.10713013 -0.042056993 0.11557026 -0.017612228 -0.008739634 -0.038031798
-0.08134905 0.106821425 0.083662674 -0.105694406 -0.11275792 0.0963838 -0.07888398 -0.11728436
-0.103237815 -0.08771251 -0.04275263 -0.06265756 0.055949483 -0.06607315 -0.058466986 -0.11236338
-0.05758242 0.0041921367 0.03492581 0.11755467 -0.0004086853 0.029488588 0.09604027 0.049421288
0.027261598 -0.056509905 -0.07600774 -0.0711626 0.021898586 0.01837816 0.08371831 0.05518087
0.011233131 -0.09742563 -0.082008354 -0.08465381 -0.081408 -0.047093663 -0.04310074 0.02857711
0.09611572 -0.09770758 0.07530272 0.054763917 0.01024545 -0.092665814 -0.029604167 -0.11066354
-0.10623096 0.097241506 0.03863144 0.03488547 0.00294459 -0.00034425606 0.068556845 0.10696263
-0.08405 0.042519808 -0.027828025 -0.04488461 -0.012362817 -0.10048991 -0.1043288 0.08016452
-0.060513254 0.10927698 0.08662106 0.10788173 -0.028092287 -0.10599664 -0.11336308 -0.08903978
0.09539059 0.031315077 0.07971394 -0.045574564 -0.04915207 -0.06249773 -0.034850225 -0.11110448
0.038512345 0.062331412 -0.053121902 -0.11007248 -0.05642499 0.04254418 -0.045934577 0.047528166
0.08309424 -0.04174748 -0.085549735 0.07656629 -0.10232491 0.09795494 0.0823218 0.08822659
-0.019153055 0.11276505 0.10829665 -0.08291159 0.0693864 0.091403216 -0.04970434 0.01021942
0.08858904 -0.0010177107 -0.0911323 0.0070059192 0.054430272 0.059116665 0.029878741 -0.04387442
-0.10032806 0.09298679 0.051841833 0.020348353 0.09850208 0.066473596 0.015409753 0.033261944
0.09493318 -0.090113565 0.024615424 -0.06692583 0.012835354 0.10106221 -0.04025303 0.033091135
0.047246538 -0.025179256 0.037758034 -0.016762333 0.0070263282 0.06405804 0.058336403 0.097358786
-0.05718622 -0.07067395 -0.100888684 -0.025413586 0.030647747 0.092591405 -0.0821263 0.08671156
-0.05509605 -0.09369192 0.074495554 -0.09174984 0.10521516 -0.07315223 0.031194456 0.07061055
-0.037345544 0.09521981 -0.08649008 -0.064960174 0.023901066 0.046373017 0.046777308 0.043579392

mean.2.bias f4 [96]
00000000: 19f6 adbd 5f37 c63c 9a65 c7bd 8851 ac3b
00000010: e32d e93d 0bfc d2bb f2cc a23d 21b4 a5bc
00000020: 9fa6 5fbc 9efc 35bd 102a ce3d f7ba b7bd
00000030: d6d1 d73b 478d 633d de3b 203d 767c 4bba
00000040: 62e8 d0bd 0e75 b8bd c702 bbba 7bbe c4bd
00000050: 32f0 043d ef6c e8bc 4d3f c9bb e6d1 513d
00000060: cbef 19bd 7feb cdbd 7923 013d 13e4 cc3c
00000070: 5752 583d 3087 25bb 1c09 cabc 6f24 4d3d
00000080: db6b 4fb9 cd98 bbbd fb03 34bc d36b d73d
00000090: e97c e73d 3b7a 90bd fcb4 c13c 6d29 87bd
000000a0: 84ab cd3d 6f9e e1bd 975e 76bc 4f79 c63d
000000b0: 67be 00bd 73de cebd ee97 b73c 48dc 953d
000000c0: f4dc e63b 453a 50bc 118e ce3d 9da7 973c
000000d0: 4ac8 67bc e3c5 193d 3cde 2abd 016a 3e3c
000000e0: 7c30 c7bd 002f 983d fe0a b83d c450 593d
000000f0: 8d03 8ebb 0b1d ae3d 924c 223d 323f 003d
00000100: 60c1 a93d b781 2dbc bc9c ffbc 4866 33bd
00000110: c9b1 88bd 7a70 963d ccd5 1e3d b63f 1dbd
00000120: 177d f63c bc99 743d 352b c7bd 6729 55bd
00000130: 0af7 783d 82a6 a13c 5d22 98bd 380a a23d
00000140: e484 a73a a1f7 a7bd 35b7 f23c e804 b73b
00000150: 0320 283d 5d16 473d 4c79 f3bd 2823 8cbd
00000160: 4c48 ac3d f221 dd3d cf57 e73d c4e7 7f3d
00000170: f6cc c4bd 81d5 52bb a40b 8bbd f3bf 88bd
-0.08494205 0.024196325 -0.09736176 0.0052587427 0.11385705 -0.0064387373 0.079492465 -0.020227494
-0.013650565 -0.044430368 0.100666165 -0.089712076 0.0065862937 0.055554654 0.039119594 -0.00077623816
-0.102005735 -0.090067014 -0.0014267795 -0.09606644 0.03245563 -0.028372256 -0.0061415792 0.051225565
-0.0375822 -0.10054683 0.03152797 0.025011098 0.0528129 -0.002525758 -0.024662547 0.050083574
-0.00019781238 -0.09160004 -0.010987277 0.10518613 0.113031216 -0.070545636 0.02364587 -0.06599698
0.1004248 -0.11016547 -0.0150372 0.096911065 -0.03143158 -0.101010226 0.022411313 0.07317406
0.0070453826 -0.012709205 0.10085691 0.018512541 -0.014146874 0.037542235 -0.041715845 0.011621953
-0.097260445 0.074308395 0.089864716 0.05305554 -0.0043339194 0.08501633 0.039623804 0.031310268
0.082888365 -0.010590008 -0.031202666 -0.043798715 -0.06674535 0.07345672 0.03877811 -0.038390838
0.030088944 0.059716925 -0.09725038 -0.052041437 0.06078247 0.019732717 -0.07428429 0.07912105
0.0012780693 -0.08201528 0.029628376 0.0055853017 0.041046154 0.04860531 -0.1188837 -0.06842643
0.08412227 0.1079749 0.11296045 0.06247689 -0.09609406 -0.0032170715 -0.0678933 -0.066772364

mean.4.weight f4 [4, 96]
00000000: 5f3a 873d 31eb c0bb 564d 5e3d b94f 7f3c
00000010: db87 2d3d c85a 63bd 0240 d93d dee7 c53c
00000020: ced6 ff3c 8d4f 903d 76b7 1b3d 0fa9 263d
00000030: bbb8 c03d bbbf 63bd 0cdc b73c ce62 a0bd
00000040: 6cf4 2e3d c88d 733d 5236 efbb dacd b23d
00000050: dbc0 a13d 7068 003d 5848 3abc 9775 13bc
00000060: 4c9a b33c 4662 b53c b983 8a3d ec5f 4c3d
00000070: ad03 39bd dac6 b7bd 33aa 8c3d b8b1 be3d
00000080: c5c0 d8bd cf68 e63c 78ee 843d c774 0bbd
00000090: 4b83 b83c 3903 bfbd da2f 823c 304c 68bc
000000a0: 2175 083c 2b86 b1bd 08a1 3a3d 7a9b e33d
000000b0: d97c 4f3d 215c c0bd b72c ef3c 5dd4 a93c
000000c0: d058 283d 60d6 b13d 58a8 87bd 51d8 133d
000000d0: 9b4d a9bd 13ba 983c 9df5 d8bd bf5e 2fbb
000000e0: 95cf 8ebc 84ae 08bd b65f b6bd 828b af3c
000000f0: d6bf 81bd 580c 3b3d ee4c 15bd 4a50 213c
00000100: 784a 70bd 81e5 bfbd 33a8 b63d efe4 773d
00000110: 816e ad3c 9247 17bd bb9e a9bd 0143 b6bc
00000120: 5094 5aba d2ca aebd 0b58 d8bc 4251 c13d
00000130: ea90 ffbb 78a9 a83d 4cd0 803c a562 8e3c
00000140: 869b d13d 6d5f 72bc 99b3 9d3c 1936 df3b
00000150: c52a adbd c96d a0bd 1aa4 ba3c f6c4 eebd
00000160: 8149 973d 9cdb 983d 4649 0e3d 244f 73bc
00000170: 30c0 c13d 980d 963d 1b07 8cbd 9a76 623d
00000180: f47e d1bd ea12 a93d 9800 17bd dff7 d3bc
00000190: 9b72 523d 126a 9a3c f2c8 73bd 4086 80bd
000001a0: cd9d 74bd c1e4 b6bd e20f 503d d767 cebd
000001b0: 0c30 613d 58f4 afbc a712 b53d 6583 85bc
000001c0: f2a8 bebd c78f af3d 43c1 093d e37c a83d
000001d0: eab5 8a3d 5476 7d3c d5d2 b6bd 2117 b63d
000001e0: 399c d33d 6ea2 84bd 6e05 963d 2b91 98bd
000001f0: 0c2d e8bc a38b 0d3c 17c5 cebc 06b0 9a3d
00000200: 43bf 953c f82b 60bd af88 ff3c 86f1 1abd
00000210: 9867 adbd a94e a73d 106f bf3d 25e5 dc3d
00000220: 909e bd3d 2d5b b23d f727 dbbc cb59 dd3c
00000230: 019c 2c3d 4514 7dbd 4728 85bd b997 023d
00000240: a2c3 b33d 5b96 873a d5d1 12bd 8466 b3bd
00000250: 4219 92bd 58ee 273d 8676 5dbd 663a bfbc
00000260: 6579 5a3d 1cc0 f03c dc55 123d ce81 3a3c
00000270: 70f7 92bd 61ec 093d 3487 cc3d fd6a 82bd
00000280: 9942 abbd b790 d4bc e154 3f3d 2f3f 94bd
00000290: c622 4c3d 2933 71bd 570f 043d f83b 223c
000002a0: 6686 8dbc c655 37ba 03d7 483d 9559 b43d
000002b0: 4ab8 3cbb 36f4 abbd b0b9 9e3d 57f2 acbc
000002c0: e62b 7c3d bdc7 45bd ec86 803d 7257 bbbd
000002d0: 4c18 903c 8e42 983b 2a75 723b be0b 093c
000002e0: 2246 d0bd 978a b43c 71bf 503d d5bf 8cbd
000002f0: f1ce a0bc 9965 8cbd edca 1fbd 3aef bfbd
00000300: 7e19 a6bd d501 2cbd 3196 d6bd b0f0 edbc
00000310: f415 c53d 1e7c 5a3c c077 923c c54c 96bd
00000320: bb5a b9bd cb76 ec3c 5360 22bb 1f57 30bd
00000330: 82cb 353d 3cf9 51bd 4cae 36bd 2b35 063b
00000340: d4d8 ae3d b4e6 b1ba ac8d c33d 3e77 11bd
00000350: 8867 413d 55fb d53c eaad ab3d 43f7 30bd
00000360: 62e1 9bbc 9714 52bd 4b41 4c3c 9c50 323d
00000370: 4bab 683d 7d4a ce3c b928 f4bc db40 903d
00000380: cb18 91bd 9798 893c 228b 8cbd f651 79bd
00000390: 4cf5 e3bd 1913 583c 8444 a63d 31c3 903d
000003a0: 3dfd c0bd 0635 e9bd 6080 483b 787c 61bd
000003b0: 340b c23d 844d 903d 6ce1 c63d 24e0 b53c
000003c0: 0da3 a93d eeff 94bc 1d0c 82bd c182 ee3c
000003d0: 86ed b4bd 9d14 a23d eb98 12bd 59ae 483d
000003e0: 45a1 e2bd 8347 a1bd 01b8 413d 57fc 1b3d
000003f0: d8b0 2fbb c7d3 1d3b 062c 953d 7a7d 6c3d
0.0660293 -0.005887412 0.054272972 0.015582972 0.04236589 -0.055506498 0.10607912 0.024158414
0.031230357 0.07046423 0.03801676 0.04068857 0.094102345 -0.05560277 0.022443794 -0.078313455
0.042713568 0.059461385 -0.0073001767 0.08730669 0.078981124 0.0313496 -0.011369787 -0.009000204
0.02192416 0.022141587 0.06763405 0.049896166 -0.04516952 -0.08973475 0.068684004 0.09311241
-0.10583643 0.028126149 0.06490797 -0.034046914 0.022523543 -0.093267865 0.015891958 -0.014178321
0.008328707 -0.08668169 0.045563728 0.11113639 0.050656173 -0.09392572 0.029196126 0.020731146
0.041100323 0.08683467 -0.06623906 0.036094967 -0.08266755 0.018643415 -0.10593722 -0.0026759354
-0.017432967 -0.033369556 -0.08904974 0.021428827 -0.06335418 0.04566607 -0.03645032 0.009845803
-0.05866477 -0.09369946 0.089188 0.060521062 0.021170856 -0.03693349 -0.082822286 -0.022248747
-0.00083381403 -0.08534779 -0.02640917 0.09439327 -0.0077992575 0.082354486 0.015724324 0.017381022
0.10234742 -0.014793259 0.019250678 0.006811869 -0.08455423 -0.0783344 0.022783328 -0.11658661
0.07387067 0.07463762 0.034737848 -0.014850412 0.09460485 0.073268116 -0.06837293 0.05528889
-0.102292925 0.08255561 -0.0368658 -0.02587503 0.051378828 0.018849406 -0.05951781 -0.06275606
-0.059720803 -0.0893035 0.050796397 -0.100784 0.05497746 -0.021478817 0.08841448 -0.016298005
-0.093095675 0.08572345 0.033631574 0.08226945 0.067729786 0.015470106 -0.08926932 0.0889113
0.103325315 -0.064762935 0.073252544 -0.074495636 -0.028341793 0.008639249 -0.025240464 0.07553105
0.018279677 -0.054729432 0.031193106 -0.03782799 -0.084670246 0.081693 0.09347355 0.10785893
0.09258759 0.08708797 -0.026752455 0.027020356 0.042140964 -0.06178691 -0.06501823 0.031882975
0.087775484 0.0010344492 -0.035844643 -0.08759788 -0.07133724 0.040998787 -0.05406811 -0.023343276
0.053338427 0.02938848 0.035726413 0.011383487 -0.07176101 0.033672694 0.099867254 -0.06368063
-0.08362312 -0.025947912 0.046711806 -0.07238614 0.04983785 -0.05888668 0.03224119 0.009901993
-0.017276 -0.0006993677 0.049033176 0.08806149 -0.0028796368 -0.08396189 0.07750261 -0.02111165
0.061565302 -0.04828619 0.06275734 -0.09147538 0.01758971 0.004646606 0.0036996105 0.008364616
-0.10169627 0.022038741 0.050963823 -0.068725266 -0.019629927 -0.06855316 -0.039011884 -0.09371801
-0.08110331 -0.041993935 -0.104778655 -0.029045433 0.09623328 0.013335256 0.017879367 -0.073388614
-0.090505086 0.028865239 -0.0024776652 -0.043051835 0.044383533 -0.05126308 -0.044599816 0.0020478468
0.085374504 -0.0013572783 0.09548506 -0.03551411 0.047217876 0.026120821 0.08382781 -0.043204557
-0.01902837 -0.051289167 0.012466739 0.043533906 0.056803983 0.025182003 -0.029804574 0.0704362
-0.07084807 0.016796393 -0.06862475 -0.06086918 -0.11130771 0.013188147 0.08118537 0.0706848
-0.09423301 -0.113870665 0.0030594096 -0.055050343 0.09474793 0.07046035 0.097109646 0.022201605
0.082830526 -0.018188443 -0.06349967 0.029115083 -0.088343665 0.07914088 -0.035790365 0.048994396
-0.11065916 -0.07874968 0.04729462 0.038082447 -0.0026808288 0.0024082528 0.072837874 0.05773685

mean.4.bias f4 [4]
00000000: 5d35 d03c 7040 c93d 3136 aa3d 39df 2e3d
0.02541607 0.098267436 0.083111174 0.04269335
