model/walker.pt (torch_old, 223324 bytes, 36 tensors)

logstd f4 [4]
0	0xbee4e685	-0.44707122
1	0xbe915e80	-0.2839241
2	0xbea9dab1	-0.3317466
3	0xbf2ce352	-0.67534363

critic.0.weight f4 [72, 24]
0	0xbe00b3f7	-0.12568651
1	0xbdf62e5a	-0.120205596
2	0x3e3dcf5b	0.18536131
3	0x3e08b111	0.13348795
4	0x3e102e19	0.14080085
5	0xbd67203e	-0.056427233
6	0x3de45737	0.111494474
7	0xbc1d28ba	-0.0095922295
8	0x3e02d312	0.1277583
9	0xbe1d8c0e	-0.15385458
10	0x3e20449e	0.15651175
11	0xbe1eab0b	-0.15494935
12	0x3d98df17	0.07464426
13	0xbe17f47c	-0.14839357
14	0x3dc95ad4	0.09831777
15	0x3c6d0f26	0.014468944
16	0x3d15f3cc	0.036609456
17	0x3e6a5fcf	0.2288811
18	0x3e66386c	0.2248246
19	0x3e59e27f	0.21277808
20	0x3de10363	0.10986974
21	0x3de023ad	0.109443046
22	0xbdbb64b5	-0.09150068
23	0x3d76faad	0.060297657
24	0xbe111b4d	-0.1417057
25	0xbe3a112b	-0.18170612
26	0x3d48166f	0.04884952
27	0xbab33bcc	-0.0013674437
28	0x3de66aa3	0.11250808
29	0xbce6ddbe	-0.028181907
30	0xbe127c6a	-0.14305273
31	0xbd85b30d	-0.06528292
32	0x3dc90e16	0.0981714
33	0xbd94919f	-0.072543375
34	0xbd606701	-0.054785732
35	0x3d604696	0.054754816
36	0x3db0558b	0.08610066
37	0x3e0922f7	0.13392244
38	0xbd76bc25	-0.060238022
39	0x3e026b4b	0.12736242
40	0x3e2203bf	0.15821742
41	0xbe139796	-0.14413294
42	0xbd76a8ab	-0.060219448
43	0xbb8e45f3	-0.0043418347
44	0xbce31879	-0.02772163
45	0x3dfe0630	0.12403524
46	0xbdb356fc	-0.08756825
47	0xbd649121	-0.05580247
48	0x3e44b0d3	0.19208078
49	0x3e81231f	0.25222108
50	0xbe4a0890	-0.19729829
51	0xbe0ed6c0	-0.13949108
52	0x3dbf1b90	0.09331429
53	0x3bc6c2a7	0.006065685
54	0xbd360159	-0.04443488
55	0x3d95092a	0.072771385
56	0x3d8785fa	0.06617351
57	0x3e62794e	0.22116587
58	0x396a4f50	0.00022345525
59	0xbc7bda8b	-0.015371929
60	0x3d32f52d	0.04369085
61	0x3d11cdcf	0.035596665
62	0xbe8a7a08	-0.27046227
63	0x3cc29355	0.023751894
64	0xbe789c6a	-0.24278417
65	0xbe6269c6	-0.22110662
66	0xbe7b761f	-0.24556778
67	0xbe18a2ff	-0.14905928
68	0xbdcd7818	-0.10032672
69	0xbe816502	-0.25272375
70	0x3db5ca74	0.088765055
71	0x3e202430	0.15638804
72	0x3e61531f	0.22004364
73	0x3ebbaaa3	0.36653623
74	0xbe676b88	-0.22599614
75	0x3e91ae53	0.2845331
76	0x3e0785fc	0.13234705
77	0x3caf4a5e	0.021397766
78	0x3df7d1d2	0.12100567
79	0x3dd0cbae	0.10195099
80	0xbe606823	-0.21914725
81	0x3e15515e	0.1458182
82	0xbdfa318d	-0.12216482
83	0xbe01da5f	-0.12680958
84	0xbd776bd6	-0.060405575
85	0xbdb39b65	-0.087698735
86	0x3e0caa08	0.13736737
87	0x3d9bd729	0.07609398
88	0x3e370cbd	0.17875953
89	0xbc989ee9	-0.018630462
90	0xbd332ec2	-0.043745764
91	0x3e223de1	0.15843917
92	0xbe3cf6b0	-0.18453479
93	0xbdd13ba1	-0.102164514
94	0x3e1aea5f	0.15128468
95	0x3da5b486	0.08091073
96	0xbe0ca698	-0.13735425
97	0xbdafcd6d	-0.08584104
98	0xbd181ab9	-0.03713486
99	0x3e51b60b	0.204796
100	0xbdec176c	-0.11527905
101	0xbdd5d7d3	-0.10441556
102	0xbd9d63a1	-0.07685018
103	0xbd2ee2de	-0.042696826
104	0xbe0761c4	-0.13220888
105	0xbd74f72b	-0.05980603
106	0xbd2a16f9	-0.041525815
107	0xbdc4eee3	-0.096158765
108	0xbc24e6a8	-0.010064758
109	0xbd3731cd	-0.044725228
110	0x3dcfb39c	0.1014168
111	0x3e384fbf	0.1799917
112	0xbdd6f804	-0.10496524
113	0x3e09d5e4	0.13460499
114	0xbddafc06	-0.10692601
115	0x3e4191ad	0.18903227
116	0x3e132c30	0.14372325
117	0x3da3fb08	0.08006865
118	0xbdda51a3	-0.10660102
119	0x3cce8c4d	0.025213385
120	0x3eba5286	0.36391085
121	0x3eafee5c	0.3436154
122	0x3d6be659	0.057592724
123	0x3cac1b21	0.02100903
124	0x3e4f0af1	0.20219018
125	0xbe064379	-0.13111676
126	0x3e03df50	0.12878156
127	0xbe316525	-0.1732374
128	0xbdf812ac	-0.121129364
129	0x3e412836	0.18862996
130	0x3db76ffb	0.089569055
131	0x3e0ecdda	0.13945714
132	0xbdbdfd1f	-0.09276795
133	0xbcad443d	-0.021150703
134	0xbdb2d96f	-0.087328784
135	0x3daaea81	0.08345509
136	0x3c1ae852	0.009454804
137	0x3d2690e0	0.040665507
138	0x3d902e69	0.07040102
139	0x3da4615c	0.08026382
140	0x3e12fff0	0.14355445
141	0xbe1310a8	-0.14361823
142	0xbd846eb7	-0.0646643
143	0x3e0dd45c	0.1385054
144	0x3e2c50f9	0.16827764
145	0x3da5da6b	0.080983005
146	0xbe7f878a	-0.24954048
147	0xbca75773	-0.020427441
148	0x3dcfef56	0.101530716
149	0x3da92580	0.08259106
150	0xbdf1aa0a	-0.118000105
151	0x3e0af447	0.13569747
152	0x3c99fd50	0.018797547
153	0x3e8e80b2	0.27832562
154	0x3e005730	0.1253326
155	0x3e4ce330	0.2000854
156	0xbc17c0bd	-0.009262261
157	0xbd8fbdbb	-0.0701861
158	0x3da3d337	0.079992704
159	0xbe7a072d	-0.244168
160	0xbe50a3b9	-0.20374955
161	0x3dbb874b	0.091566645
162	0xbd687013	-0.056747507
163	0xbdd09e08	-0.10186392
164	0x3c15aab9	0.009134942
165	0x3c777c9f	0.015105396
166	0xbe0029e1	-0.12515976
167	0x3e1248a6	0.14285526
168	0xbd8b868f	-0.068127744
169	0xbe208a10	-0.15677667
170	0x3e82f42a	0.25576907
171	0xbeccd55a	-0.40006524
172	0xbdd003c0	-0.10156965
173	0x3d811078	0.06301969
174	0xbe5efa07	-0.21775065
175	0xbdbf4e38	-0.09341091
176	0xbbb540de	-0.0055314144
177	0x3e1dda13	0.1541522
178	0x3cdc908b	0.026924392
179	0x3e06a007	0.13146983
180	0xbd9a5272	-0.075352564
181	0xbd5640e5	-0.052307982
182	0xbe67e210	-0.2264483
183	0x3d555577	0.05208346
184	0xbe6705e1	-0.22560836
185	0xbddf2f0d	-0.10897646
186	0xbe4310c1	-0.1904936
187	0xbe83d958	-0.25751758
188	0xbe4dff07	-0.20116816
189	0xbe634617	-0.22194706
190	0xbe2b797d	-0.16745563
191	0xbc06168f	-0.008184089
192	0xbe205bb5	-0.15659983
193	0x3e099c30	0.13438487
194	0x3d7003b5	0.058597285
195	0x3e0347f6	0.1282042
196	0xbdd88ff7	-0.10574334
197	0x3d2aa997	0.04166564
198	0x3d1d811b	0.038453203
199	0xbe0547cc	-0.1301567
200	0xbd23495b	-0.03986488
201	0xbe096b53	-0.13419847
202	0xb8f8cb30	-0.00011863408
203	0xbbc145f3	-0.005898231
204	0xbe1fe88f	-0.15616058
205	0xbcdc7256	-0.026909988
206	0x3db57599	0.088603206
207	0xbd2bc75c	-0.04193817
208	0x3d8d96a1	0.06913496
209	0x3d8d1b9d	0.068900324
210	0xbe01b987	-0.1266843
211	0x3df95a35	0.12175409
212	0xbc9287da	-0.017887045
213	0xbdef2526	-0.116770074
214	0x3dcaee73	0.09908762
215	0x3d9b254d	0.07575474
216	0xbeb697c4	-0.35662663
217	0xbef8460f	-0.4849095
218	0xbdd6b450	-0.10483611
219	0x3ea89daa	0.32932788
220	0xbd83f66e	-0.06443487
221	0xbd545f80	-0.05184889
222	0x3c9374a1	0.017999949
223	0xbce8c56a	-0.028414447
224	0xbcdcb478	-0.026941523
225	0x3e8701ac	0.26368463
226	0x3e0c8ab1	0.13724782
227	0x3d676b74	0.05649896
228	0x3dc7beab	0.09753164
229	0x3dade66f	0.08491217
230	0xbd6f1888	-0.058373004
231	0xbdfc0a72	-0.1230668
232	0xbd283b9b	-0.04107247
233	0x3dbc7332	0.09201659
234	0x3e0db3fc	0.1383819
235	0x3def0c35	0.1167225
236	0xbe5b3419	-0.21406592
237	0xbe069d5a	-0.13145962
238	0xbe4b02ef	-0.19825338
239	0xbb55332d	-0.0032531724
240	0x3e72f423	0.23725943
241	0x3e6fca38	0.23416984
242	0xbeb2cb2f	-0.34920642
243	0xbd789d6c	-0.060697004
244	0xbe193076	-0.14959893
245	0xbd236176	-0.039887868
246	0xbe523ba0	-0.20530558
247	0xbe1fc0d7	-0.15600906
248	0xbd7d70bd	-0.061875094
249	0x3dfbc269	0.1229294
250	0xbe60a95e	-0.21939608
251	0x3e55d6ee	0.2088277
252	0xbd974464	-0.07386091
253	0x3d8791bd	0.06619594
254	0xbe64b415	-0.22334321
255	0x3dc70457	0.09717625

critic.0.bias f4 [72]
0	0xbe3c6fe4	-0.18402058
1	0xbd86aa6b	-0.065754734
2	0x3d404753	0.04694302
3	0xbe22a514	-0.15883285
4	0xbe5cd29a	-0.21564713
5	0x3e16307b	0.14666931
6	0x3e00dfb5	0.12585337
7	0x3db11f87	0.086485915
8	0xbda3b61d	-0.0799372
9	0x3c6bfdda	0.014403785
10	0x3cca53f1	0.02469823
11	0xbddbc3c3	-0.10730698
12	0x3d95bed7	0.073117904
13	0xbce23f11	-0.027617963
14	0x3e61d79e	0.22054908
15	0xbd25e210	-0.040498793
16	0x3be4c6e8	0.0069817193
17	0xbe47fbc8	-0.1952964
18	0xbe4de1ff	-0.20105742
19	0xbd937d44	-0.07201627
20	0x3e0a089b	0.13479845
21	0xbdac1c79	-0.08403868
22	0x3e3ff466	0.18745574
23	0x3e3751d7	0.17902313
24	0xbd0b291e	-0.03397476
25	0x3e5ddc39	0.2166604
26	0xbe53c3ca	-0.20680156
27	0xbd930974	-0.071795374
28	0x3d23d421	0.039997224
29	0xbe0ab672	-0.1354616
30	0xbda552dd	-0.080724455
31	0xbe1e3a87	-0.15452014
32	0xbd79ecd0	-0.061016858
33	0x3e484ba0	0.19560099
34	0x3dbc95c3	0.09208252
35	0xbe392285	-0.18079574
36	0x3bae7265	0.0053236955
37	0x3e216c85	0.15764053
38	0x3d71bd55	0.05901845
39	0x3e0cae7b	0.13738434
40	0x3e53c58f	0.20680831
41	0xbd9118fe	-0.07084845
42	0x3e231a0f	0.1592791
43	0xbe2026e6	-0.15639839
44	0xbd6e75bf	-0.05821776
45	0xbe05f53c	-0.1308183
46	0xbd92bb72	-0.071646586
47	0x3dbec827	0.0931552
48	0x3e1fed54	0.15617877
49	0xbd2dea2a	-0.042459644
50	0x3e1ed164	0.15509564
51	0x3dbad7fe	0.091232285
52	0x3d04bddb	0.032407623
53	0xbdae03d3	-0.08496823
54	0x3e18009b	0.14843981
55	0x3d8c4f36	0.06851046
56	0xbc37838e	-0.011200799
57	0x3c313330	0.010815427
58	0x3ceae8b4	0.028675415
59	0x3d59b196	0.053147875
60	0xbe4c1afc	-0.19932169
61	0x3e5c2b88	0.21500981
62	0x3e2a827b	0.16651337
63	0x3e235e64	0.15953976
64	0x3ea272a2	0.31728083
65	0x3c630a69	0.013857462
66	0x3e875687	0.26433203
67	0xbe1f3598	-0.15547788
68	0x3e60d991	0.21957995
69	0x3e256992	0.16153553
70	0x3e36895b	0.17825834
71	0x3d120c1a	0.035656072

critic.2.weight f4 [96, 72]
0	0x3d724235	0.05914517
1	0x3d77a46b	0.060459536
2	0x3dad4ecb	0.08462294
3	0xbdf38e6d	-0.118924
4	0xbd8fe51a	-0.070261195
5	0x3d73bd0f	0.059506472
6	0xbd062604	-0.0327511
7	0xbcfb639b	-0.030687144
8	0x3dcb34b8	0.09922165
9	0x3dd1e90c	0.10249528
10	0xbd585fe6	-0.05282583
11	0xbb143645	-0.0022615355
12	0xbe09b24a	-0.13446918
13	0x3d543455	0.05180772
14	0x3dc47625	0.09592847
15	0xbd7fb03d	-0.062423933
16	0xbbca70d1	-0.0061779995
17	0xbd841946	-0.06450133
18	0x3dab1b7b	0.08354851
19	0xbd7aef20	-0.061263204
20	0xbd003e2b	-0.031309288
21	0xbd84935b	-0.06473418
22	0xbde40421	-0.111336
23	0xbc2709b8	-0.010195188
24	0xbd24cbb2	-0.04023332
25	0x3cc00058	0.023437664
26	0x3de289e0	0.11061454
27	0xbd16282a	-0.036659397
28	0x3ca74ae1	0.020421447
29	0x3daf6ed8	0.08566064
30	0x3db2adbb	0.08724543
31	0x3be2a4b3	0.0069166063
32	0xbc907a9b	-0.017636588
33	0x3d2655c7	0.040609147
34	0x3d4fff45	0.050780553
35	0x3d9d0ea8	0.07668811
36	0x3d1a60f9	0.037690137
37	0xbd8fcdaf	-0.07021653
38	0xbd0a0fb2	-0.033706374
39	0x3dc34b35	0.09535829
40	0xbd37a1f2	-0.044832177
41	0xbd4d4d44	-0.050122514
42	0x3d69ecff	0.057110783
43	0xbdbf393a	-0.09337087
44	0xbd441c43	-0.047878515
45	0x3c719c40	0.014746726
46	0x3ccdb240	0.02510941
47	0xbd638953	-0.055550884
48	0x3db3758a	0.08762653
49	0xbd890013	-0.06689467
50	0x3cd294bd	0.02570569
51	0x3bec6007	0.007213596
52	0x3c9b4500	0.0189538
53	0x3cdc4888	0.026890054
54	0x3b5e35b2	0.0033906517
55	0x3d2be5ca	0.04196719
56	0xbd38715c	-0.045029983
57	0xbc1c76a2	-0.009549769
58	0x3de3c6de	0.11121915
59	0xbd457987	-0.0482116
60	0x3c26220b	0.010139952
61	0xbd0ec2a7	-0.034853604
62	0x3d570666	0.052496336
63	0x3c31dd71	0.010856018
64	0xbd913be7	-0.070915036
65	0x3dd2a379	0.10285086
66	0xbd0dfbb0	-0.034663856
67	0xbd09f865	-0.033684153
68	0x3ce41d06	0.02784587
69	0xbcd6b14f	-0.026207594
70	0xbd304423	-0.04303373
71	0x3dace70f	0.084425084
72	0x3d16145c	0.03664051
73	0x3daf62a0	0.08563733
74	0x3d703629	0.0586454
75	0x3da3ab78	0.079916894
76	0xbdf334eb	-0.11875328
77	0xbcd67209	-0.026177423
78	0xbd47452d	-0.048649956
79	0x3c80f262	0.015740577
80	0xbdd86d53	-0.10567727
81	0xbe077980	-0.13229942
82	0xbd97429f	-0.07385754
83	0xbce76a02	-0.02824879
84	0x3da9c946	0.08290343
85	0x3d9d3497	0.07676046
86	0x3d320fd0	0.04347211
87	0xbd884f95	-0.06655804
88	0xbd77bb08	-0.0604811
89	0x3dc9e350	0.098578095
90	0x3c938f37	0.018012626
91	0xbd67bfa8	-0.056579262
92	0xbd133ed7	-0.0359486
93	0x3d97b28c	0.07407102
94	0xbc5d77c0	-0.01351732
95	0x3d641a99	0.055689428
96	0xbdbf90ed	-0.09353814
97	0x3de49fae	0.11163269
98	0xbc58700c	-0.013210308
99	0xbc891853	-0.016735232
100	0xba140d1a	-0.0005647704
101	0xbddcaaa3	-0.10774734
102	0x3d5b34e3	0.053517234
103	0x3cf3529b	0.029702475
104	0x3d68b182	0.05680991
105	0x3d78ed12	0.060772963
106	0xbc1762c1	-0.009239853
107	0x3b3ec819	0.0029110967
108	0xbdb11a22	-0.086475626
109	0xbd4f350a	-0.05058769
110	0xbd12808a	-0.035767116
111	0xbdaabf1b	-0.08337232
112	0x3d988e15	0.07448975
113	0xbd2f90f4	-0.042862847
114	0x3ca0c115	0.019623319
115	0x3d364f25	0.04450907
116	0x3d7894bf	0.06068873
117	0xbda76e57	-0.081753425
118	0x3d2434d2	0.040089436
119	0x3cfe7d7c	0.031065695
120	0xbc1f919b	-0.009739305
121	0xbdcb4f91	-0.099272855
122	0xbd0d5df7	-0.03451344
123	0xbbb95ab7	-0.005656566
124	0x3d29997e	0.041406147
125	0x3c67211f	0.014107018
126	0xbe0505a2	-0.1299043
127	0xbc878568	-0.016543105
128	0x3cd7c002	0.026336674
129	0x3caaac7c	0.0208342
130	0xbdf76b8f	-0.12081062
131	0x3d019962	0.031640418
132	0x3d4822b4	0.04886122
133	0xbd669957	-0.05629858
134	0xbcc9c73f	-0.02463114
135	0xbca6664b	-0.020312449
136	0x3d9fa101	0.07794381
137	0x3c3e62e3	0.011620256
138	0x3dc65460	0.09684062
139	0x3d6ce96c	0.057839796
140	0x3da2d365	0.079504766
141	0xbcf11186	-0.029427301
142	0x3dba3851	0.09092773
143	0xbc6bfb6b	-0.014403204
144	0xbe16d1ae	-0.14728424
145	0x3db32be8	0.08748609
146	0x3e33f1f0	0.1757276
147	0xbdb7d720	-0.08976579
148	0xbe10827b	-0.14112274
149	0x3c11a08c	0.008888375
150	0x3d5a73e7	0.05333319
151	0x3e0115b9	0.12605943
152	0xbdf33900	-0.11876106
153	0xbd3fcccd	-0.046826173
154	0x3d44d75c	0.048056945
155	0xbce7d47b	-0.02829956
156	0xbcae2595	-0.021258155
157	0xbd2689a6	-0.040658616
158	0x3d6c201b	0.057647806
159	0x3d26c84f	0.040718373
160	0xbbfccca7	-0.007714826
161	0x3e0593ec	0.13044709
162	0x3ce93ca6	0.028471302
163	0x3c188011	0.009307877
164	0xbd13aeb3	-0.036055278
165	0xbdc0053d	-0.09375999
166	0xbbc1d20a	-0.005914931
167	0x3d816d01	0.06319619
168	0x3d08186d	0.03322642
169	0xbd4a41b8	-0.04937908
170	0xbdcca308	-0.09992033
171	0xbde8af4a	-0.11361559
172	0xbc20e252	-0.009819584
173	0xbe233ed3	-0.15941934
174	0x3b4fe6d2	0.0031723273
175	0xbc59dc4f	-0.013297155
176	0xbdf12a83	-0.117756866
177	0x3e1664e4	0.14686924
178	0x3d6ca2f2	0.057772584
179	0x3d893249	0.06699044
180	0xbe1d5872	-0.1536577
181	0xbd3e011b	-0.046387773
182	0x3e0e39be	0.13889214
183	0x3c9a117d	0.018807167
184	0x3d9d5e13	0.07683959
185	0x3c810384	0.015748747
186	0x3dbf2f8a	0.09335239
187	0x3d5dfbf9	0.054195378
188	0xbdc1ff85	-0.094725646
189	0x3ddd3ee6	0.108030125
190	0xbd87b62b	-0.06626543
191	0x3e349f97	0.17639004
192	0x3d2bc49b	0.041935544
193	0x3d78461d	0.06061374
194	0x3d954fae	0.07290588
195	0xbd4b92db	-0.0497006
196	0x3daa873f	0.083265774
197	0x3d879821	0.06620813
198	0xbd75192f	-0.05983847
199	0x3de85c62	0.113457456
200	0x3d53cf31	0.051711265
201	0x3c0688f5	0.008211364
202	0xbdb2cbfb	-0.087303124
203	0xbba1e56e	-0.00494068
204	0xbcd7c0fd	-0.026337141
205	0x3da88ff5	0.082305826
206	0x3dbb92f9	0.09158892
207	0x3d8f0c46	0.06984763
208	0xbd2cfabc	-0.042231306
209	0x3d89e786	0.06733613
210	0xbc3064bf	-0.010766207
211	0x3dab1849	0.083542414
212	0xbccffac6	-0.025388133
213	0x3de0d298	0.109776676
214	0x3d3415b5	0.043966014
215	0xbce65b26	-0.028119635
216	0x3d8724b0	0.065987945
217	0x3dbca4c9	0.09211118
218	0x3d9b5f0a	0.07586487
219	0xbd9c7c73	-0.07640924
220	0x3dc0845a	0.09400244
221	0x3d616474	0.05502744
222	0xbb43d982	-0.0029884283
223	0x3d626fea	0.05528251
224	0x3d0d5cba	0.03451226
225	0x3dc785f9	0.0974235
226	0x3d03ee2e	0.032209568
227	0xbd03ff11	-0.032225672
228	0x3da4cb72	0.080466166
229	0x3d319a44	0.04336001
230	0x3c7fffce	0.015624953
231	0x3db85d77	0.09002202
232	0xbc9da2e6	-0.019242715
233	0x3d19c640	0.03754258
234	0xbd60e6de	-0.054907672
235	0x3d937625	0.07200269
236	0xbdba6d4c	-0.09102878
237	0xbcda4c75	-0.026647786
238	0x3dcb8c90	0.099389195
239	0x3d07b914	0.03313549
240	0x37d0b68f	2.4880543e-05
241	0x3ced0009	0.02893068
242	0x3de3eafd	0.11128805
243	0xbd14e08f	-0.03634697
244	0xbd982c61	-0.074303396
245	0x3cab04f1	0.02087638
246	0xbd5a5340	-0.05330205
247	0x3dd8c916	0.10585229
248	0xbc10dfca	-0.008842418
249	0x3da7e53a	0.08198018
250	0x3b8954f9	0.0041910377
251	0xbc5aa229	-0.013344326
252	0xbda46989	-0.08027942
253	0x3d13aa38	0.036051005
254	0x3d95dabf	0.07317113
255	0xbdca6952	-0.098833695

critic.2.bias f4 [96]
0	0x3cd5bc9a	0.026090909
1	0x3c8cf91b	0.017208626
2	0xbd27e19b	-0.04098664
3	0x3c27bbcf	0.010237648
4	0x3d7d1afc	0.061793312
5	0xbdae39b0	-0.08507097
6	0x3d0f79cf	0.035028275
7	0xbd7b0fc4	-0.061294332
8	0xbd0158e6	-0.03157892
9	0x3d99030e	0.07471286
10	0x3bd43d3c	0.0064770263
11	0xbe11c7bd	-0.1423635
12	0xbdc062ea	-0.09393866
13	0x3daff98e	0.08592521
14	0xbc133be8	-0.008986451
15	0x3e1f233f	0.15540789
16	0xb8a2afce	-7.757508e-05
17	0x3d1f6daf	0.03892296
18	0xbd061f25	-0.032744545
19	0xbd8b2fc3	-0.06796219
20	0xbc194f8b	-0.009357343
21	0xbd246a24	-0.040140286
22	0xbd0acf3f	-0.03388905
23	0x3c5dc667	0.013536072
24	0xbd956c00	-0.0729599
25	0x3e47b46f	0.19502424
26	0x3d4210ec	0.04737942
27	0x3df0de08	0.11761099
28	0xbda61dd0	-0.08111155
29	0xbd1a5335	-0.03767701
30	0xbdaee94d	-0.08540592
31	0x3e0c2eb1	0.13689686
32	0x3e339f20	0.1754117
33	0x3db40da6	0.08791666
34	0x3dd762f8	0.10516924
35	0x3cdf6c7e	0.027273413
36	0xbe0a6c67	-0.13517915
37	0x3d85310f	0.06503498
38	0x3d64dabc	0.055872664
39	0xbd5ede94	-0.054411486
40	0x3cb353bc	0.021890514
41	0x3c745d06	0.014914757
42	0x3da23f4d	0.0792223
43	0x3b0c460e	0.002140406
44	0x3cf43f7a	0.029815424
45	0x3cd36d84	0.025809057
46	0xbe242de8	-0.16033137
47	0xbe03bb41	-0.128644
48	0xbd3cea89	-0.046122108
49	0xbd27279a	-0.04080925
50	0xbde82678	-0.11335462
51	0x3d27bc45	0.040951032
52	0xbd8fb8e4	-0.07017687
53	0xbc0f612a	-0.008751193
54	0x3d7556f0	0.059897363
55	0xbdd3c883	-0.10340979
56	0x3cb64e66	0.02225418
57	0x3d55cad2	0.052195378
58	0x3de2dc7e	0.11077212
59	0xbd55af8d	-0.05216937
60	0x3da06d5f	0.07833361
61	0x3b8bdb63	0.0042680963
62	0xbc0f1d9e	-0.008735089
63	0xbe157ad4	-0.14597636
64	0xbda29df1	-0.07940281
65	0x3e26c2a3	0.16285186
66	0x3e2638c6	0.16232595
67	0xbe28c5d6	-0.16481718
68	0x3d8b207d	0.06793306
69	0x3e05954a	0.1304523
70	0x3e153033	0.14569168
71	0x3d0d0757	0.034430828
72	0x3d030ead	0.031996418
73	0xbd8a3e06	-0.06750111
74	0xbda36d4f	-0.07979833
75	0xbd2ee575	-0.042699296
76	0xbdcccedc	-0.10000393
77	0x3d12c380	0.035830975
78	0x3dd45bb9	0.10369057
79	0x3d1bc90f	0.03803354
80	0x3df32e19	0.11874027
81	0xbd1675f6	-0.03673359
82	0x3dbac46b	0.09119495
83	0x3db742aa	0.08948262
84	0xbdfacabe	-0.12245701
85	0xbcc64c8e	-0.024206426
86	0xbd00c5de	-0.0314387
87	0x3de90801	0.1137848
88	0xbdadedbd	-0.084926106
89	0xbe0cd6b1	-0.13753773
90	0xbd5631fc	-0.052293763
91	0x3dcd9096	0.10037343
92	0xbd273d49	-0.04082993
93	0xbba6d43f	-0.0050912197
94	0xbd3836f1	-0.04497427
95	0xbe0821b9	-0.13294114

critic.4.weight f4 [1, 96]
0	0x3d4448cb	0.047920983
1	0xbd547abf	-0.051874872
2	0xbddd99a5	-0.10820321
3	0x3cf8091f	0.030277787
4	0xbd8f2641	-0.06989718
5	0x3d8def4c	0.06930408
6	0xbe1f6904	-0.15567404
7	0xbdb479fc	-0.08812329
8	0xbe186e68	-0.14885867
9	0xbdb18113	-0.08667197
10	0x3d86093b	0.06544729
11	0x3ddb996e	0.10722624
12	0x3dcfe61d	0.101513125
13	0xbd456f80	-0.048202038
14	0xbd44bc15	-0.04803093
15	0xbc56b511	-0.013104693
16	0xbe2227f1	-0.15835549
17	0xbd68d269	-0.056841288
18	0x3ab7b725	0.0014016373
19	0xbb704c9e	-0.003666676
20	0xbc9faf52	-0.019492779
21	0x3d64262b	0.055700462
22	0x3d9cd2f6	0.07657425
23	0x3a213656	0.0006149759
24	0x3b9bdbb8	0.004756417
25	0xbd938060	-0.0720222
26	0xbd822149	-0.06354005
27	0xbd4f3c94	-0.05059488
28	0x3d24a3ab	0.04019515
29	0x3d8d1edc	0.068906516
30	0x3da6f9a9	0.08153088
31	0xbc2a2c41	-0.0103865275
32	0xbd88f1ca	-0.066867426
33	0xbd874a00	-0.06605911
34	0xbc477686	-0.012174254
35	0x3a54b956	0.00081147754
36	0x3d53ee05	0.051740665
37	0xbd766205	-0.060152072
38	0x3d4f81d4	0.050660923
39	0x3c4e3db0	0.01258795
40	0xbbe41576	-0.006960566
41	0xbcdaa228	-0.02668865
42	0xbd8977f3	-0.067123316
43	0xbcfe0f67	-0.031013204
44	0x3a0712a5	0.00051526196
45	0x3cea1cdf	0.02857822
46	0x3d94a915	0.07258812
47	0x3d856c9b	0.065148555
48	0x3cc696b3	0.02424178
49	0xbe053ba9	-0.1301104
50	0x3d4dd7fd	0.05025481
51	0x3ad927e2	0.0016567672
52	0x3dd2395e	0.10264848
53	0xbda023b1	-0.078193076
54	0xbd81a00f	-0.06329357
55	0x3dbb605c	0.091492385
56	0xbafd796b	-0.0019338554
57	0x3d2d4c44	0.04230906
58	0xbd3fcfd2	-0.046829052
59	0x3d04590b	0.03231148
60	0xbd0fef12	-0.035140105
61	0x3c72a14f	0.014808967
62	0x3d2a9a1c	0.041650876
63	0x3da1df7f	0.079039566
64	0x3d21b759	0.039481495
65	0xbd36c8ea	-0.0446252
66	0xbdfffaf8	-0.1249904
67	0x3cdbb92c	0.026821695
68	0xbd157bbd	-0.03649496
69	0xbd9919a2	-0.07475592
70	0xbd2917ab	-0.041282337
71	0xbcc2ae89	-0.023764865
72	0xb935e227	-0.00017345753
73	0xbb08bd96	-0.0020864955
74	0x3d145284	0.036211506
75	0x3a548c79	0.000810809
76	0x3db4dc02	0.08831026
77	0xbd5e09df	-0.054208633
78	0xbcbc2c99	-0.022970485
79	0xb8627f6f	-5.400128e-05
80	0xbd40151d	-0.046895135
81	0x3d483b7f	0.048884865
82	0xba49402d	-0.00076771044
83	0xbb804f9a	-0.0039157392
84	0x3ca0d00b	0.019630453
85	0x3d119d51	0.03555042
86	0x3d8490ef	0.064729564
87	0x3e1a2641	0.15053655
88	0x3caf9ebd	0.021437997
89	0x3d117d9d	0.035520185
90	0xbd64e765	-0.055884738
91	0xbd82733f	-0.06369638
92	0x3dac3d0f	0.084100835
93	0x3ac622a4	0.0015116525
94	0xb9ffbde8	-0.0004877888
95	0x3d8d44ec	0.068979114

mean.0.weight f4 [72, 24]
0	0x3e92a59e	0.2864198
1	0x3d3d0e43	0.04615618
2	0x3e796208	0.24353802
3	0x3e76ef21	0.24114658
4	0x3c749245	0.0149274515
5	0x3e206c11	0.15666224
6	0xbd83b7d7	-0.06431549
7	0x3d82cb1a	0.06386395
8	0xbd1a7f05	-0.03771879
9	0xbe68a8ea	-0.22720686
10	0xbdc5d28f	-0.096593015
11	0xbe5d1913	-0.21591596
12	0xbe08f303	-0.13373952
13	0x3db50a7e	0.08839892
14	0xbde01b39	-0.10942692
15	0xbdeaf3f0	-0.11472309
16	0x3cb303c3	0.02185238
17	0x3e2ffbb1	0.17185856
18	0x3e106edd	0.14104791
19	0x3d0cf9fb	0.034418087
20	0x3dc45dc9	0.095882006
21	0x3d2c087e	0.042000286
22	0xbe2767c4	-0.16348177
23	0x3d4a9e26	0.04946723
24	0xbc222289	-0.009895929
25	0x3cd6e4a7	0.026232077
26	0x3d4bdc8a	0.04977087
27	0x3ed64e2d	0.41856518
28	0x3ddb9aa4	0.10722855
29	0xbe0dd190	-0.13849473
30	0xbe4dacb1	-0.20085408
31	0xbe4f9ff6	-0.20275864
32	0xbdf20d44	-0.118189365
33	0xbe50320c	-0.20331591
34	0x3ceb8689	0.028750675
35	0xbe3192e5	-0.17341192
36	0x3d8f5787	0.069991164
37	0xbe249b3d	-0.16074844
38	0xbd1c5d50	-0.038174927
39	0xbd80559e	-0.0626633
40	0x3e253fa8	0.16137564
41	0xbdb46846	-0.08808951
42	0x3d6852e5	0.05671968
43	0xbc83d1de	-0.016091283
44	0xbd584a83	-0.052805435
45	0xbe4bb3ff	-0.19892882
46	0x3bdbe194	0.0067102406
47	0x3dda0b22	0.10646655
48	0x3e99aa5e	0.30012792
49	0x3f160acf	0.5861024
50	0xbf09d56c	-0.5384128
51	0xbee13b19	-0.439904
52	0x3deca490	0.11554825
53	0x3d8247ba	0.06361337
54	0xbe511fa9	-0.20422234
55	0x3e129144	0.14313227
56	0xbe22f809	-0.1591493
57	0x3da8ada5	0.08236245
58	0xbe5ccb43	-0.21561913
59	0xbcc2d3f3	-0.023782706
60	0x3d00e054	0.031463936
61	0xbcfdac96	-0.030966084
62	0x3bcedfca	0.006313299
63	0xbdec7c56	-0.11547153
64	0x3cc0a7be	0.023517486
65	0xbdb3833c	-0.08765265
66	0x3deba88d	0.11506758
67	0x3df0f1b5	0.11764852
68	0xbd9d59fb	-0.07683178
69	0xbcce54ca	-0.025186915
70	0xbd0741d2	-0.033021756
71	0x3dbf2d34	0.09334794
72	0xbe6ad716	-0.22933611
73	0xbdb73fe0	-0.0894773
74	0x3d34cdfb	0.04414175
75	0x3e628ed2	0.22124794
76	0xb99ee785	-0.00030308604
77	0xbd8a6a89	-0.06758601
78	0x3d3f5516	0.046712004
79	0x3dccf889	0.10008342
80	0xbdbad997	-0.09123533
81	0xbd851940	-0.06498957
82	0xbe03cceb	-0.12871139
83	0xbda40f0c	-0.080106825
84	0x3de88e10	0.11355221
85	0x3e3b992a	0.18320146
86	0x3c0cef41	0.008601964
87	0x3e4d5cee	0.20054981
88	0x3e34db9c	0.176619
89	0xbda86f35	-0.08224336
90	0xbd70fcc4	-0.058834806
91	0x3d6b6d2b	0.057477158
92	0x3dc60f47	0.09670883
93	0xbc9baaf3	-0.019002413
94	0x3de89847	0.113571696
95	0xbe1d3ada	-0.15354481
96	0xbe104c90	-0.14091706
97	0xbe34ca5c	-0.17655319
98	0x3e1a7cb7	0.15086637
99	0x3e598a96	0.21244273
100	0xbde2521d	-0.11050818
101	0x3d7af958	0.06127295
102	0xbc3b635e	-0.011437265
103	0xbd897114	-0.06711021
104	0x3d1a9fe5	0.037750144
105	0x3dadefaf	0.08492982
106	0xbb45e81f	-0.003019817
107	0x3e743fc1	0.23852445
108	0x3dd296a4	0.10282639
109	0x3d4a2a68	0.049356848
110	0xbe177718	-0.14791524
111	0xbd3707a5	-0.044685025
112	0x3d9b0cec	0.07570824
113	0x3d413042	0.047165163
114	0xbd801d9d	-0.06255648
115	0x3e31377d	0.17306323
116	0xbda0a137	-0.07843249
117	0x3d9af904	0.07567027
118	0xbc9a2b5a	-0.0188195
119	0xbccdcf56	-0.02512328
120	0xbdeb7103	-0.11496165
121	0x3dab4b59	0.08363981
122	0xbdcf8702	-0.101331726
123	0x3e79a945	0.24380977
124	0x3d9466b2	0.0724615
125	0x3e32bb05	0.17454155
126	0x3e240235	0.16016467
127	0xbdb38121	-0.08764864
128	0x3e0c3365	0.1369148
129	0xbe18e09b	-0.1492943
130	0xbe2321e0	-0.15930891
131	0xbe323a04	-0.17404944
132	0x3dc5fd21	0.09667421
133	0x3bee26c3	0.0072678044
134	0xbdbbbc5a	-0.091667846
135	0x3d9725c4	0.0738025
136	0xbe0c19fe	-0.1368179
137	0x3c9d9de0	0.01924032
138	0x3b9019e9	0.00439762
139	0x3e160c85	0.14653213
140	0xbc46bf96	-0.012130639
141	0x3e5cbb3a	0.21555796
142	0x3d07583c	0.03304313
143	0xbe33de80	-0.17565346
144	0x3dabb4da	0.08384104
145	0x3e8171b0	0.2528205
146	0xbeb78597	-0.35844108
147	0xbe946295	-0.28981462
148	0xbdaabb12	-0.08336462
149	0x3bedff0e	0.007263071
150	0xbddb4b5c	-0.10707733
151	0xbdb396ad	-0.087689735
152	0xbcd9e566	-0.026598644
153	0x3e69b7c5	0.22824009
154	0xbaebf583	-0.0018002245
155	0x3e7c12a0	0.2461648
156	0x3cd954ad	0.026529634
157	0x3e2ba69c	0.16762775
158	0xbe31eaba	-0.17374697
159	0xbe387985	-0.18015106
160	0xbafcfe88	-0.001930193
161	0x3d829f46	0.06378035
162	0xbbdff569	-0.006834675
163	0x3de9dede	0.11419462
164	0x3dc74b9d	0.09731219
165	0xbe1a603c	-0.15075773
166	0xbe2d59e1	-0.16928817
167	0x3e2c18ee	0.16806385
168	0x3e16ed3f	0.1473894
169	0x3ea99349	0.33120182
170	0xbe0ab1fb	-0.13544457
171	0xbf49db75	-0.7885049
172	0x3d6e2ad4	0.058146313
173	0x3dc0fd92	0.09423365
174	0xbe3e7729	-0.18600143
175	0x3dd3350d	0.10312853
176	0xbe382af2	-0.17985132
177	0x3d9a6280	0.07538319
178	0xbd5a6a3d	-0.053323973
179	0xbe231bac	-0.15928525
180	0x3d8e18df	0.069383375
181	0xbd55745a	-0.052112915
182	0x3e03a7a5	0.1285692
183	0x3bcaf738	0.0061940216
184	0x3c47bd10	0.012191072
185	0xb961bcef	-0.00021528055
186	0x3d381b85	0.04494812
187	0x3e2e927d	0.17048068
188	0xbde517f9	-0.11186213
189	0xbd668e6c	-0.056288168
190	0xbe06fb04	-0.13181692
191	0x3a55bc22	0.0008153339
192	0xbe8d281d	-0.27569667
193	0xbe27c9bf	-0.16385554
194	0x3de73212	0.11288847
195	0x3e9cc60a	0.30619842
196	0x3e2c65e3	0.16835742
197	0xbde54a85	-0.11195854
198	0xbd6487d8	-0.055793613
199	0x3e048d0d	0.12944432
200	0x3ce887db	0.028385093
201	0xbb0830d2	-0.0020781052
202	0x3dfe3969	0.12413294
203	0xbe896ac3	-0.26839265
204	0xbe046914	-0.12930709
205	0x3e376557	0.17909752
206	0x3e24a798	0.16079557
207	0x3c4bdcd7	0.012442789
208	0xbe12c67a	-0.14333525
209	0x3d4951e9	0.04915038
210	0xbde93cba	-0.11388536
211	0xbdda19c7	-0.10649448
212	0xbc351c0a	-0.011054048
213	0xbda8adea	-0.082362965
214	0x3dcaa9f6	0.09895699
215	0xbe308b44	-0.17240626
216	0xbe178a73	-0.14798908
217	0x3d8871d1	0.06662334
218	0x3e95d0fb	0.29261002
219	0x3e9c754c	0.3055824
220	0xbc80c89b	-0.015720656
221	0x3d9ffab7	0.07811492
222	0xbd4f0f45	-0.05055167
223	0xbc85756e	-0.016291346
224	0x3da24f84	0.07925323
225	0xbdaaea7f	-0.08345508
226	0xbc34eeed	-0.0110432925
227	0xbce8a6a6	-0.028399777
228	0x3d1675c3	0.0367334
229	0xbe09097c	-0.13382524
230	0x3d94e818	0.07270831
231	0x3d68ae45	0.05680682
232	0x3c5ac1c0	0.013351858
233	0x3e07e88f	0.13272308
234	0xbcb5edf6	-0.022208195
235	0x3de425ea	0.11140044
236	0xbe220879	-0.15823545
237	0x3df4e022	0.119568124
238	0x3e536bb4	0.20646554
239	0xbdb7cc57	-0.089745216
240	0xbd9614f5	-0.07328216
241	0xbd83d85e	-0.06437753
242	0x3deeefe6	0.11666851
243	0x3e456562	0.19276956
244	0x3e09d31e	0.13459441
245	0xbd69e6a9	-0.05710474
246	0x3dcf10bf	0.10110616
247	0x3d09a682	0.03360606
248	0xbd757cbe	-0.059933417
249	0xbe1032b5	-0.14081843
250	0x3d50cd58	0.05097708
251	0xbdea4e7d	-0.11440752
252	0x3d85eec9	0.06539685
253	0x3d2b5654	0.041830376
254	0xbda9862c	-0.082775444
255	0x3e0c0410	0.13673425

mean.0.bias f4 [72]
0	0x3ccf819e	0.025330361
1	0xbd0e3da6	-0.03472676
2	0xbdb049bd	-0.086078145
3	0x3dbb1d4a	0.09136446
4	0xbdb27038	-0.0871281
5	0xbe33af73	-0.17547397
6	0x3c184cf2	0.009295689
7	0xbd4a32e0	-0.049364924
8	0x3e14a776	0.14517006
9	0x3dc30614	0.09522644
10	0x3df9b58c	0.121928304
11	0xbe4bb4df	-0.19893216
12	0x3da522fa	0.08063312
13	0x3d2b62cb	0.041842263
14	0x3cf5780c	0.02996447
15	0xbd4e8f87	-0.050429847
16	0xbdb73a6d	-0.08946691
17	0x3d46fe63	0.048582446
18	0x3da37b04	0.07982448
19	0x3d8a8bee	0.06764971
20	0x3e3c75ff	0.18404387
21	0x3e2eb552	0.17061356
22	0x3c9c8789	0.019107597
23	0xbc8d17f9	-0.017223345
24	0x3da63f95	0.08117596
25	0x3e231055	0.15924199
26	0x3ce58ee6	0.02802224
27	0xbda3a9ac	-0.07991347
28	0xbdb72d68	-0.089442074
29	0xbe303279	-0.17206754
30	0xbe1adda1	-0.15123607
31	0xbd86d0c9	-0.06582791
32	0xbdaae00e	-0.08343516
33	0xbce6ef57	-0.028190298
34	0xbaf1e2e9	-0.0018454465
35	0x3d9033ec	0.07041153
36	0xbe53b96d	-0.20676203
37	0xbe200b9f	-0.15629433
38	0x3dc7afcf	0.0975033
39	0x3e09197a	0.13388625
40	0xbdcfa7b3	-0.10139408
41	0xbde42715	-0.11140267
42	0xbc5569c3	-0.013025704
43	0xbd817ba5	-0.063224114
44	0xbe0dd879	-0.13852109
45	0x3dd80ade	0.10548948
46	0xbcbc26ac	-0.022967659
47	0x3e100b73	0.14066868
48	0xbdb50494	-0.08838764
49	0xbe28a533	-0.16469269
50	0xbdab9f11	-0.08379949
51	0xbe2edee6	-0.17077217
52	0x3d68f029	0.05686966
53	0x3e1a7a08	0.15085614
54	0x3cbdc9f4	0.023167588
55	0x3d9f468f	0.0777713
56	0x3c6fbcb6	0.014632395
57	0xbdf4872f	-0.11939847
58	0xbe100cc8	-0.14067376
59	0x3de06453	0.10956635
60	0xbddfa0ad	-0.10919318
61	0x3dbe42b0	0.092900634
62	0xbe1f4b0e	-0.15555975
63	0x3aa69885	0.0012710249
64	0x3e16789c	0.14694446
65	0x3cb2b776	0.021815997
66	0xbcaa3476	-0.020776968
67	0xbd271e67	-0.04080048
68	0xbde95298	-0.11392707
69	0x3de6f219	0.11276645
70	0xbdd6091c	-0.10450956
71	0x3e13cc1f	0.14433335

mean.2.weight f4 [96, 72]
0	0x3d4d763a	0.050161578
1	0xbe0241d9	-0.12720431
2	0xbc18ce10	-0.009326473
3	0xbdd4906e	-0.1037911
4	0xbd837409	-0.06418616
5	0xbe0571f6	-0.13031754
6	0xbcd62679	-0.026141392
7	0x3d3c1ecf	0.04592782
8	0xbe065e8f	-0.13122009
9	0xbe0b5428	-0.13606322
10	0xbb3a47ad	-0.002842407
11	0x3d6d2afb	0.057902317
12	0x3dc141a0	0.09436345
13	0x3e02728e	0.12739012
14	0xbdef6ee6	-0.11691074
15	0xbd326b00	-0.043559074
16	0xbd90a141	-0.07062007
17	0x3e073652	0.13204315
18	0x3e0cb864	0.13742214
19	0x3b962871	0.0045824577
20	0x3b67719b	0.0035315517
21	0x3ddee8b8	0.10884231
22	0xbd4b17f4	-0.04958339
23	0x3d0797b5	0.033103663
24	0x3d1cd7dc	0.038291797
25	0xbd633503	-0.055470478
26	0xbc00295d	-0.007822362
27	0xbceb1e3a	-0.028700937
28	0x3d51fcb5	0.05126639
29	0x3d433bfd	0.04766463
30	0x3dc15369	0.09439737
31	0xbd30d9b9	-0.043176387
32	0xbe24b76e	-0.16085598
33	0xbd10e4af	-0.03537434
34	0x3d9e4262	0.07727505
35	0x3d7eb484	0.062183872
36	0x3ca96546	0.020678174
37	0x3c935fcb	0.017990014
38	0xbc900610	-0.017581016
39	0xbd0bc924	-0.03412737
40	0x3de153b0	0.1100229
41	0x3bfe2122	0.0077554146
42	0xbd443b96	-0.047908388
43	0x3def9f2f	0.11700284
44	0x3c90dc69	0.017683225
45	0xbd0127a5	-0.03153195
46	0x3be33e60	0.006934926
47	0x3cff584a	0.03117003
48	0xbdacda50	-0.08440077
49	0xbd3c1144	-0.045914903
50	0x3e279a61	0.16367485
51	0x3cb70959	0.022343324
52	0xbd99981f	-0.07499718
53	0xbdc40288	-0.09570795
54	0xbde24dd9	-0.110500045
55	0xb8b6a8f0	-8.709903e-05
56	0x3c062df4	0.008189667
57	0x3d0dd197	0.03462371
58	0x3d5bf2ce	0.053698353
59	0x3d9c4cce	0.07631837
60	0xbdb0979b	-0.086226664
61	0xbd8702f9	-0.06592364
62	0xbdf5ad7a	-0.11995979
63	0xbd82913c	-0.063753575
64	0xbd3edfd9	-0.046600197
65	0xbda4a539	-0.08039326
66	0xbdcb609a	-0.09930535
67	0x3d43b03d	0.047775496
68	0xbd348e6a	-0.04408113
69	0xbc1aed26	-0.009455955
70	0xbda121fd	-0.07867811
71	0x3bea2676	0.007145698
72	0xbd96319d	-0.07333682
73	0xbcd83436	-0.026392084
74	0xbdda0b2b	-0.10646661
75	0x3d7879a1	0.06066287
76	0x3d3f2942	0.046670206
77	0x3e05e82b	0.13076846
78	0xbd9d8648	-0.07691628
79	0xbde03175	-0.10946933
80	0x3d3e8f22	0.04652322
81	0x3dda386d	0.106552936
82	0x3d287718	0.0411292
83	0x3d813cf7	0.06310456
84	0x3db6c9da	0.08925219
85	0xbdbf37e9	-0.09336836
86	0x3da76299	0.08173103
87	0x3d7711e2	0.06031979
88	0xbcebb63f	-0.028773425
89	0x3ccbfaeb	0.02489992
90	0x3dac3d72	0.08410157
91	0x3d4664ff	0.04843616
92	0xbc992db1	-0.018698545
93	0x3d8f5c5c	0.07000038
94	0x3e24a5c7	0.16078864
95	0xbd5eaef6	-0.054366075
96	0x3cdcfb38	0.02697526
97	0x3d876e1b	0.06612798
98	0x3a8e2cfc	0.0010847147
99	0xbd9a90a6	-0.07547121
100	0x3c044547	0.008073158
101	0x3cda3f99	0.026641654
102	0x3cb8cab0	0.022557586
103	0xbdd9ef2b	-0.10641321
104	0x3d2bb087	0.041916396
105	0x3d8a88b2	0.06764354
106	0xbdef7337	-0.11691897
107	0xbc966cd8	-0.018362448
108	0x3ded703d	0.115936734
109	0xbd78a024	-0.060699597
110	0x3c63fef6	0.013915768
111	0xbc071f63	-0.008247229
112	0xbdde6d8f	-0.108607404
113	0xbd27c27d	-0.040956963
114	0xbdaab290	-0.08334839
115	0x3deae473	0.114693545
116	0xbd391199	-0.045182798
117	0x3d8c9bc7	0.0686565
118	0x3d182f5a	0.037154533
119	0x3d8445fc	0.06458661
120	0xbd780195	-0.060548384
121	0xbb32fe59	-0.0027312248
122	0xbd3df61d	-0.04637729
123	0xbc168ba1	-0.009188564
124	0xbdfa4e54	-0.12221971
125	0xbd97b9ae	-0.074084625
126	0xbd0fc488	-0.035099536
127	0xbc54bd35	-0.012984564
128	0x3dc76d70	0.097376704
129	0xbd568d7b	-0.05238102
130	0xbd75f812	-0.06005103
131	0xbe137790	-0.14401078
132	0xbc08e248	-0.008354731
133	0x3da338ae	0.07969795
134	0x3bf82dff	0.0075738425
135	0x3b2e8bc9	0.0026633611
136	0xbda5a0c8	-0.08087307
137	0x3cb0bcad	0.021574343
138	0x3cf2b43b	0.029626956
139	0x3ce7a49f	0.02827674
140	0xbb9959b7	-0.0046798843
141	0x3d9934d4	0.07480779
142	0x3d2a4ffb	0.04158018
143	0xbdb858ba	-0.09001298
144	0x3d668efe	0.05628871
145	0x3d97c349	0.074102946
146	0x3e118224	0.14209801
147	0xbd87b335	-0.06625978
148	0xbdbe2b86	-0.09285645
149	0xbe1d956f	-0.15389036
150	0x3cb67d08	0.022276416
151	0x3dde698a	0.10859974
152	0xbd960858	-0.0732581
153	0xbcc401e5	-0.023926685
154	0x3c702d61	0.014659257
155	0xbdfdf639	-0.12400479
156	0xbd3efe5c	-0.046629295
157	0xbd8bc8cf	-0.068254106
158	0xbd28e541	-0.04123426
159	0x3e4dcb79	0.2009715
160	0x3dc395af	0.09550034
161	0xbd335137	-0.043778624
162	0x3d86ff51	0.065916665
163	0xbe008502	-0.12550738
164	0xbe1d28a3	-0.15347533
165	0x3cdb4b7b	0.02676939
166	0xbd0a875c	-0.033820495
167	0xbd69ab83	-0.057048332
168	0xbd89da64	-0.06731108
169	0x3dc43c90	0.09581864
170	0x3d73527a	0.059404828
171	0x3d585dbf	0.05282378
172	0xbdaf46f1	-0.08558453
173	0x3e2060ea	0.1566197
174	0x3e47a277	0.19495569
175	0xbd296432	-0.04135532
176	0x3afc9d3a	0.0019272931
177	0xbd24c59c	-0.040227517
178	0x3e0d0026	0.13769588
179	0x3e200d56	0.15630087
180	0x3dd3d55b	0.10343429
181	0x3dca5232	0.09878959
182	0x3dd176f2	0.10227765
183	0x3c9642dd	0.01834243
184	0x3dc78fa7	0.097441964
185	0xbdff858e	-0.124766454
186	0xbbf9957c	-0.007616697
187	0x3d04bd88	0.032407314
188	0xbdfe3c31	-0.12413824
189	0xbddaa73b	-0.10676428
190	0xbcf120cf	-0.02943459
191	0xbd28e73b	-0.041236144
192	0xbd0053c9	-0.031329904
193	0x3d838e90	0.06423676
194	0x3cfb5a4a	0.030682702
195	0x3dea8150	0.11450446
196	0x3d8a46e1	0.067518
197	0xbdeb20a5	-0.11480836
198	0xbd98e49a	-0.07465477
199	0xbd0945c4	-0.0335138
200	0x3d208db2	0.03919763
201	0xbda76647	-0.08173805
202	0xbd85e940	-0.065386295
203	0x3cbcf5aa	0.02306636
204	0x3d9f3519	0.077737994
205	0xbe198504	-0.14992148
206	0xbc927c82	-0.017881636
207	0xbdec5e24	-0.115413934
208	0x3dade81d	0.08491538
209	0xbdf3cf74	-0.11904803
210	0xbd950d4f	-0.07277929
211	0xbd96cb94	-0.07363048
212	0x3db96122	0.0905173
213	0x3d883c1f	0.06652092
214	0x3d82e1be	0.06390713
215	0x3d70d78d	0.058799315
216	0x3dd63951	0.10460151
217	0x3cbde5aa	0.023180801
218	0x3def9b1d	0.116995074
219	0x3c20f8c9	0.00982494
220	0xbce97488	-0.02849795
221	0x3dff27b9	0.12458748
222	0xbdf493da	-0.11942263
223	0x3de0df53	0.10980096
224	0x3d956b25	0.07295827
225	0xbcce72f2	-0.025201295
226	0x3d462700	0.048377037
227	0xbd94720b	-0.072483145
228	0xbdd02af6	-0.10164444
229	0xbd8cf39b	-0.068824016
230	0x3d77b43e	0.060474627
231	0x3d90c959	0.07069654
232	0xbcf791c1	-0.030220868
233	0x3d5ef65d	0.05443417
234	0xbd2b1494	-0.04176767
235	0xbd6fffa6	-0.058593415
236	0x3df45a1d	0.1193125
237	0x3d2f9ae4	0.042872325
238	0xbc4776be	-0.012174306
239	0x3de18ebe	0.11013554
240	0x3d86ef16	0.06588571
241	0xbd520e23	-0.051283013
242	0xbdcd431c	-0.10022566
243	0x3c463081	0.012096525
244	0x3d9925dd	0.07477925
245	0xbb88f9da	-0.0041801753
246	0x3c90cbf2	0.017675374
247	0xbd21bc5c	-0.039486274
248	0x3d8ffabd	0.070302464
249	0xbcb2fa28	-0.0218478
250	0x3daf548a	0.085610464
251	0x3cb68e17	0.02228455
252	0x3d9ab352	0.07553734
253	0x3d25a2a6	0.040438317
254	0xbc8fcb6c	-0.017553054
255	0xbb9d9e70	-0.004810147

mean.2.bias f4 [96]
0	0xbc875e1e	-0.01652437
1	0xbd40dd1b	-0.047085863
2	0xbdc59dd5	-0.09649245
3	0x3d93dadb	0.07219478
4	0x3db9fbdf	0.09081244
5	0xbd0002af	-0.03125256
6	0x3c19e3bb	0.009392674
7	0x3de21691	0.110394605
8	0xbc29c499	-0.010361814
9	0xbd9c816e	-0.07641874
10	0x3d384d0a	0.044995345
11	0x3d8d0ef2	0.06887616
12	0x3d2216e7	0.039572623
13	0x3d967e39	0.07348294
14	0x3c7d6f46	0.015468424
15	0x3db0977b	0.086226426
16	0x3d10180a	0.035179175
17	0xbbb0359a	-0.0053774836
18	0xbd651bfd	-0.055934895
19	0xbdb37311	-0.087621816
20	0xbdbdafd0	-0.09262049
21	0xbc0fb555	-0.00877126
22	0xbdc89d41	-0.09795619
23	0x3d5714f0	0.052510202
24	0x3db3f95d	0.08787797
25	0xbb6db296	-0.0036269776
26	0x3b2358a0	0.002492465
27	0xbbc4beaf	-0.0060041766
28	0xbcbc491d	-0.022984082
29	0xbd6c3700	-0.05766964
30	0xbc9ffa0a	-0.019528408
31	0x3e00c62d	0.12575598
32	0xbc202485	-0.009774332
33	0xbdc9b21e	-0.09848426
34	0x3d303c05	0.04302599
35	0x3dda5f29	0.106626816
36	0xbd502e06	-0.05082514
37	0xbd970562	-0.073740736
38	0x3d17de9d	0.037077535
39	0x3db80ca0	0.08986783
40	0xbd33eca2	-0.043926843
41	0xbdd12a1b	-0.10213109
42	0x3d80b2ad	0.0628408
43	0x3d51f98f	0.05126339
44	0x3aca39ca	0.00154286
45	0x3c27facb	0.010252665
46	0xbc77d89d	-0.015127328
47	0x3c70cfcc	0.01469798
48	0xbacabffe	-0.0015468595
49	0xbd24ede5	-0.040265936
50	0xbcd485e9	-0.02594276
51	0xbc6a525b	-0.014301862
52	0x3d381ba7	0.044948246
53	0xbdf08511	-0.117441304
54	0xbd767510	-0.060170233
55	0x3cfd6786	0.030933153
56	0x3db9d389	0.0907355
57	0x3c72c00b	0.014816294
58	0x3cd31fcf	0.025772003
59	0x3ce4d582	0.02793384
60	0x3dc271a6	0.09494333
61	0x3d69b994	0.057061747
62	0x3a3dcdb5	0.00072404306
63	0xbd5b7fb0	-0.05358857
64	0xbe0f5e37	-0.14000784
65	0xbc38e4a8	-0.011284985
66	0x3d558f8c	0.05213885
67	0xbdb701cf	-0.08935892
68	0x3bcdc964	0.006280111
69	0xbd186e0f	-0.037214335
70	0xbc97f2a6	-0.018548321
71	0xbd7416e4	-0.059592143
72	0x3d8bfa4c	0.0683485
73	0xbdda50fa	-0.10659976
74	0xbd8e1f60	-0.06939578
75	0x3da8a2b0	0.08234155
76	0xbd796637	-0.060888495
77	0xbd2284e6	-0.039677523
78	0x3d331fb6	0.043731414
79	0xbde5fc48	-0.112297595
80	0x3c8daa8c	0.017293237
81	0xbd13352d	-0.035939384
82	0x3cbae7de	0.022815641
83	0x39dc2995	0.0004199265
84	0xbd64d89a	-0.05587063
85	0xbdf2aaac	-0.11848959
86	0xbd9f3057	-0.07772892
87	0x3dda2463	0.106514715
88	0x3cf34c00	0.029699326
89	0x3da297ec	0.07939133
90	0xbd1546ed	-0.036444593
91	0xbd0596bc	-0.032614455
92	0x3d0031a3	0.031297337
93	0x3d90bb78	0.07067007
94	0xbd88c54d	-0.06678257
95	0x3d820d32	0.06350173

mean.4.weight f4 [4, 96]
0	0xbd90746e	-0.07053457
1	0xbdb502f3	-0.08838453
2	0xbe125c6a	-0.14293066
3	0x3d456ece	0.048201375
4	0x3d0d9bce	0.034572415
5	0xbd166cca	-0.036724843
6	0x3db2cad4	0.08730093
7	0x3d8b18f7	0.06791871
8	0x3d3504bf	0.04419398
9	0xbd8bf29a	-0.06833382
10	0x3ccc1777	0.024913533
11	0xbd39c697	-0.045355406
12	0xbce18f99	-0.027534293
13	0x3a701a5f	0.0009159203
14	0x3daef6c2	0.08543159
15	0x3d577f65	0.052611727
16	0xbdcce4a2	-0.10004546
17	0xbd0798d8	-0.033104748
18	0x3dacad6d	0.08431516
19	0xbc432ef8	-0.011913054
20	0xbd952989	-0.07283313
21	0x3cd5aeb1	0.026084276
22	0x3c83406a	0.016021926
23	0xba155623	-0.00056967343
24	0x3d27f62f	0.041006263
25	0x3d8d0ccb	0.06887206
26	0xbda399f5	-0.07988349
27	0xbd2ceb02	-0.04221631
28	0x3c9288aa	0.017887432
29	0x3cfb2d70	0.030661315
30	0xbdaacaa2	-0.083394304
31	0x3db683de	0.089118704
32	0x3d835c4c	0.064140886
33	0xbda41680	-0.08012104
34	0x3e0376de	0.12838313
35	0x3d05fc73	0.032711457
36	0xbbfe2bb3	-0.007756674
37	0xbd04a6a7	-0.032385495
38	0x3d2ea19d	0.042634595
39	0x3e08d592	0.1336272
40	0xbd0fcd62	-0.035107978
41	0xbc8780a0	-0.016540825
42	0x3c7b81ef	0.015350803
43	0x3d6fad9f	0.058515187
44	0x3aa6e959	0.0012734338
45	0x3d0b5079	0.03401229
46	0x3c90e30e	0.017686393
47	0xbdc3894a	-0.0954767
48	0x3da21757	0.07914608
49	0x3cb08dbb	0.021551957
50	0x3d9a8998	0.07545775
51	0xbd1a3c13	-0.037654947
52	0x3de5a6d2	0.11213459
53	0xbd00f992	-0.03148801
54	0xbc86695c	-0.016407661
55	0xbc802a08	-0.015645042
56	0xbcf99e58	-0.030471012
57	0xbc7f703e	-0.0155907255
58	0xba428e7b	-0.0007421744
59	0xbd8bab60	-0.068197966
60	0xbd8165ea	-0.06318267
61	0x3ddfee10	0.10934079
62	0xbcfec572	-0.031100009
63	0x3b7a1095	0.0038156856
64	0xbdc11c79	-0.09429259
65	0xbd830b8d	-0.063986875
66	0x3cca437a	0.024690378
67	0xbd98581b	-0.0743868
68	0xbd69cca6	-0.057079934
69	0x3c926e4c	0.01787486
70	0xbd674fd6	-0.05647262
71	0x3d87eb41	0.06636668
72	0x3c2ec3e8	0.010666825
73	0xbda2411a	-0.079225734
74	0x3b782825	0.0037865725
75	0x3ccbd0f0	0.024879903
76	0xbda2dd39	-0.07952351
77	0xbd9345d5	-0.07191054
78	0x3d829dbb	0.06377741
79	0xbd24b3cd	-0.040210534
80	0x3d981f95	0.07427899
81	0xbbe423db	-0.006962282
82	0x3d8fcbcd	0.07021294
83	0x3d203f94	0.039123133
84	0xbe0a2338	-0.13489997
85	0xbdaeab7f	-0.08528804
86	0x3cfb8d43	0.030707007
87	0x3dbee751	0.09321464
88	0xbd9c61b1	-0.07635821
89	0x3c86c96d	0.01645347
90	0xbc8d22a4	-0.017228432
91	0x3ce3d8ff	0.027813433
92	0xbdc60be2	-0.09670235
93	0xbd16ab9b	-0.03678475
94	0xbbecdd24	-0.0072285105
95	0x3d4eee38	0.05052015
96	0x3c9aaae2	0.018880311
97	0xbd49b4ff	-0.049244877
98	0xbda5e6c3	-0.08100655
99	0x3dc64dc7	0.096828036
100	0x3d3149de	0.043283336
101	0xbc97cdd6	-0.018530767
102	0x3d4cc1ba	0.04998944
103	0x3dc1b618	0.0945856
104	0xbdc2200d	-0.094787695
105	0x3cfe7a45	0.031064162
106	0xbca448c0	-0.020054221
107	0xbdba59ed	-0.09099183
108	0x3d930b58	0.07179898
109	0x3d76cc9a	0.060253717
110	0xbd59ab7a	-0.05314205
111	0x3d0534ac	0.032520935
112	0xbd86957d	-0.065714814
113	0xbd9a2896	-0.075272724
114	0xbd33ff5b	-0.043944698
115	0x3dbc930f	0.09207737
116	0xbda0e7ac	-0.07856688
117	0xbda20944	-0.079119235
118	0xbe1530ae	-0.14569351
119	0x3d35a7b7	0.0443494
120	0xbc134102	-0.008987667
121	0xbd817827	-0.06321745
122	0xbba247b1	-0.004952394
123	0xbccf6058	-0.025314495
124	0xbdc7f18b	-0.097628675
125	0xbdc31e9a	-0.09527321
126	0xbd20a5b3	-0.039220523
127	0x3da5fec6	0.08105235
128	0xbc97a9f0	-0.01851365
129	0xbd9815c5	-0.07426027
130	0x3d11b126	0.035569333
131	0x3d9dc59a	0.07703705
132	0x3daf66b9	0.08564515
133	0x3d87655d	0.066111304
134	0xbdbce4d2	-0.092233315
135	0x3de1080b	0.10987862
136	0xbc8d8e35	-0.017279724
137	0x3d7b635a	0.061374046
138	0xbd921fe3	-0.07134988
139	0x3e0fbcd4	0.14036876
140	0xbdd2762f	-0.10276448
141	0x3d9c57ce	0.07633935
142	0x3d574d14	0.05256374
143	0x3d1c91c9	0.03822497
144	0x3d21d73d	0.039511908
145	0xbda5f6a6	-0.08103685
146	0xbd485e1f	-0.048917886
147	0x3da61313	0.08109107
148	0x3d985163	0.07437398
149	0xbd496606	-0.049169563
150	0x3d338619	0.043829057
151	0xbc64e178	-0.013969772
152	0x3cd690ff	0.026192186
153	0xbdcb7d9a	-0.09936066
154	0xbc756b41	-0.014979185
155	0xbd138f05	-0.036025066
156	0xbda7d615	-0.0819513
157	0xbd602a89	-0.054728065
158	0xbc9018e5	-0.017589996
159	0xbccc0902	-0.024906639
160	0x3d300412	0.04297263
161	0x3d96fbbe	0.07372235
162	0x3de238f0	0.11046016
163	0xbb06393f	-0.0020480899
164	0xbb930f95	-0.0044879415
165	0x3de7122f	0.11282765
166	0x3d9230d7	0.07138222
167	0xbd9d2d69	-0.07674677
168	0xbd603d7d	-0.05474614
169	0xbd92085d	-0.071305014
170	0x3d61a77c	0.055091366
171	0x3d8c3c6d	0.06847463
172	0xbdbb0944	-0.09132627
173	0x3d853787	0.065047316
174	0x3db078a5	0.08616761
175	0xbbafb0e3	-0.0053616627
176	0x3d8c15b1	0.06840075
177	0x3bc37c01	0.00596571
178	0xbd54d400	-0.05195999
179	0xbd81991f	-0.06328034
180	0xbdeb3f51	-0.11486686
181	0x3d4b454c	0.049626634
182	0xbcc473eb	-0.023981055
183	0x3d8ff183	0.070284866
184	0x3d577e6b	0.052610796
185	0xbddc2806	-0.10749821
186	0xbdb93d8a	-0.09044941
187	0x3c2ba82b	0.010477106
188	0xbe24377a	-0.16036788
189	0x3d3f3303	0.046679508
190	0x3e1233cb	0.1427757
191	0xbaef4c7e	-0.0018257049
192	0xbd3fda95	-0.046839315
193	0x3ddd63c2	0.10810043
194	0xbccb20b9	-0.024795877
195	0x3d718ee8	0.058974177
196	0x3d6a7844	0.0572436
197	0x3d9ce418	0.07660693
198	0x3d9ae474	0.07563105
199	0x3c921275	0.017831067
200	0x3d3d0c15	0.0461541
201	0x3dabdf32	0.083921805
202	0xbdd51f1b	-0.104063235
203	0x3b448f28	0.0029992554
204	0xbd156437	-0.036472525
205	0xbd311f09	-0.043242488
206	0x3d32c1d7	0.04364189
207	0xbda68184	-0.08130172
208	0x3d68a9ac	0.056802437
209	0xbccdbd50	-0.025114685
210	0x3cca7c78	0.024717554
211	0xbcd976ff	-0.026546
212	0xbd92f961	-0.071764715
213	0x3da46299	0.080266185
214	0xbdb67c37	-0.08910411
215	0x3d649bba	0.055812575
216	0x3e1cf69e	0.15328452
217	0xbdcc2fc8	-0.09970051
218	0x3c2996ca	0.010350892
219	0x3ddd3ade	0.10802244
220	0xbe0dea38	-0.13858879
221	0xbdadb182	-0.084811226
222	0xbd142f90	-0.03617817
223	0xbd29e077	-0.041473832
224	0x3ddf3132	0.10898055
225	0x3daf3cb8	0.08556503
226	0xbcb47dc0	-0.022032619
227	0x3cb0b8fe	0.021572586
228	0x3dcfc93a	0.10145803
229	0xbd515ae4	-0.05111207
230	0xbbab1ea5	-0.005222159
231	0x3d9896c9	0.07450635
232	0xbd88e778	-0.06684774
233	0xbcdf475a	-0.027255703
234	0x3d320043	0.04345728
235	0x3db24760	0.0870502
236	0x3d1d7685	0.038443107
237	0x3d124924	0.035714284
238	0xbd973a51	-0.0738417
239	0x3cef05b4	0.029177524
240	0x3e79e9dd	0.24405618
241	0xbc68907c	-0.014194604
242	0xbc8ff32a	-0.017572004
243	0x3cdb310c	0.026756786
244	0xbd5ea925	-0.054360528
245	0xbb9cf872	-0.004790359
246	0x3c29d88f	0.010366573
247	0x3d84042d	0.06446109
248	0x3d075254	0.0330375
249	0xbd866bec	-0.06563553
250	0x3d6d5fce	0.057952695
251	0x3d71e73e	0.05905842
252	0xbe0f9a14	-0.1402362
253	0xbd6b6896	-0.057472788
254	0xbd2bd6a3	-0.04195274
255	0xbd80c5bb	-0.06287714

mean.4.bias f4 [4]
0	0xbd594fac	-0.053054497
1	0xbd7553dc	-0.059894428
2	0xbcc09b35	-0.023511508
3	0x3d9ddd69	0.07708246

exp_avg f4 [4]
0	0xb82b7795	-4.0880946e-05
1	0x3849a27d	4.8073463e-05
2	0x387deb19	6.0538852e-05
3	0x3565876f	8.550623e-07

exp_avg_sq f4 [4]
0	0x34020f78	1.2112821e-07
1	0x33d0c004	9.720682e-08
2	0x33cfa9e7	9.670094e-08
3	0x33cfc79e	9.675499e-08
