model/walker.pt (torch_old, 223324 bytes, 36 tensors)

logstd f4 [4]
0	0x3e76ea41	0.24112798
1	0xbeba7750	-0.36419153
2	0xbf036320	-0.5132313
3	0xbdbd81da	-0.09253283

critic.0.weight f4 [72, 24]
0	0x3e8e1fcd	0.27758637
1	0x3f5a459e	0.8526248
2	0xbe70af86	-0.23504457
3	0x3e361c2f	0.17784189
4	0x3dc63949	0.09678895
5	0xbb4e520d	-0.0031482012
6	0x3d7afb9b	0.061275106
7	0x3d9cb1ef	0.07651126
8	0x3d47e9ed	0.048807073
9	0x3e293616	0.16524538
10	0x3c8b671e	0.017016944
11	0xbc9671a8	-0.018364742
12	0x3d8269a6	0.06367807
13	0xbc912013	-0.01771549
14	0xbe2a9960	-0.1666007
15	0xbde76003	-0.1129761
16	0x3d401bc2	0.046901472
17	0x3d512a6a	0.05106584
18	0xbd1b61e5	-0.037935156
19	0xbe1272c1	-0.14301588
20	0x3d81516f	0.0631436
21	0xbdd7f5d1	-0.10544933
22	0xbdbd1259	-0.09232015
23	0x3e1c5887	0.15268146
24	0xbe6f6c6e	-0.23381206
25	0xbef7dba5	-0.48409763
26	0x3e6689e8	0.22513545
27	0x3e1cf005	0.15325935
28	0x3d328bc8	0.043590337
29	0xbd186751	-0.037207905
30	0xbd9cf875	-0.07664577
31	0x3d2ffd16	0.04296597
32	0x3da365ba	0.07978387
33	0xba03118e	-0.0004999869
34	0xbe2eea2e	-0.1708152
35	0xbd64536f	-0.05574363
36	0x3d85f13c	0.065401524
37	0xbb17eb44	-0.0023181
38	0xbd9625e7	-0.07331448
39	0x3d2d15ca	0.042257108
40	0x3de11093	0.109894894
41	0xbe256bb9	-0.16154374
42	0xbe40a30b	-0.18812196
43	0xbdd91698	-0.106000125
44	0xbdbb5d21	-0.09148622
45	0xbd02d868	-0.031944662
46	0xbdcb2ae2	-0.099202886
47	0xbd9ffdf4	-0.078121096
48	0xbea32c6f	-0.31869838
49	0xbf0685ce	-0.5254792
50	0x3e50a475	0.20375235
51	0xbd4bc795	-0.049750883
52	0xbd541b63	-0.05178393
53	0x3d78fb5f	0.0607866
54	0x3c985b75	0.018598298
55	0x3db7296f	0.0894345
56	0xbe11141a	-0.14167824
57	0x3cff3c1c	0.031156592
58	0xbde1aacc	-0.11018905
59	0xbe5b8ba8	-0.21439993
60	0xbd95b2ce	-0.07309495
61	0xbdd3c2d8	-0.10339898
62	0x3dded91c	0.10881254
63	0xbd5c0441	-0.053714994
64	0xbe1c92fb	-0.15290444
65	0x3de01fb8	0.1094355
66	0xbe42fab4	-0.19040948
67	0x3dd016da	0.101606086
68	0x3e01d3e7	0.1267849
69	0x3e111672	0.14168718
70	0xba885870	-0.0010402333
71	0xbdabedc8	-0.083949625
72	0xbd05ed90	-0.03269726
73	0xbd8acc66	-0.06777267
74	0x3d88f67f	0.066876404
75	0xbea86b83	-0.32894525
76	0xbe5edd85	-0.2176419
77	0xbb01e880	-0.0019822419
78	0xbe38f540	-0.18062305
79	0x3d8a70cb	0.06759795
80	0x3cab58b5	0.020916322
81	0x3d8c99ed	0.068652965
82	0x3cbd8c0e	0.023138072
83	0x3dfaca3d	0.12245605
84	0x3de35cb1	0.11101664
85	0x3dcdaae4	0.100423604
86	0x3da25c58	0.079277694
87	0x3daeb7e3	0.08531167
88	0x3e026c7e	0.12736699
89	0x3e01226b	0.12610786
90	0x3e38561c	0.18001598
91	0x3db13dbf	0.08654355
92	0x3e0142a3	0.12623076
93	0xbdb1d3a5	-0.08682946
94	0x3e3b92f1	0.18317772
95	0x3e4271b7	0.18988691
96	0xbdcffb40	-0.10155344
97	0xbf203d31	-0.6259337
98	0x3ea5c69e	0.32378095
99	0x3ebd8a36	0.3701951
100	0xbdd8926b	-0.10574802
101	0x3e285094	0.16436988
102	0xbda774e3	-0.08176591
103	0x3e18b56f	0.14912961
104	0xbe64d077	-0.22345148
105	0xbe815bdd	-0.252654
106	0xbd1a2714	-0.037634924
107	0xbe11f53f	-0.1425371
108	0x3e0b965f	0.13631581
109	0xbc50570d	-0.012716067
110	0xbe447b59	-0.19187678
111	0xbd1e855f	-0.03870141
112	0xbd269826	-0.040672444
113	0x3c4ab2b3	0.012371707
114	0xbde5c3c2	-0.112189785
115	0xbdd2c93c	-0.10292289
116	0x3d95fd28	0.07323676
117	0x3e2ae140	0.16687489
118	0xbe2858dd	-0.16440149
119	0xbdd9a65d	-0.106274344
120	0x3c741515	0.0148976045
121	0x3d94ab5a	0.07259245
122	0xbe801699	-0.2501724
123	0xbe890d75	-0.2676808
124	0xbda5750c	-0.080789655
125	0xbd5fa55e	-0.054601066
126	0x3d52a57f	0.05142736
127	0x3c36d370	0.011158809
128	0x3dc1db77	0.09465688
129	0x3e44fa0a	0.19236007
130	0xbd2aa709	-0.041663203
131	0x3e20bb9c	0.15696567
132	0xbd31c9a6	-0.043405198
133	0x3e4d0f1f	0.200253
134	0xbd5ae38b	-0.053439658
135	0x3d7f0e1f	0.062269326
136	0x3d7b3d90	0.061338007
137	0x3de6b9f0	0.112659335
138	0x3cad916a	0.021187503
139	0x3dfa739c	0.12229082
140	0xbd74bb09	-0.059748683
141	0xbdf47ab7	-0.119374685
142	0xbe1d0c32	-0.15336683
143	0x3dc9914d	0.09842167
144	0xbe23b814	-0.15988189
145	0x3e0e5d0e	0.13902685
146	0xbd313a25	-0.04326834
147	0xbf16d038	-0.58911467
148	0xbeea3f2c	-0.4575132
149	0xbe501883	-0.2032185
150	0x3e1b7c35	0.151841
151	0xbe15ec1b	-0.14640848
152	0xbdbb5b31	-0.09148253
153	0x3e72b565	0.23702009
154	0xbdb92e65	-0.09042052
155	0x3eaa4464	0.33255303
156	0x3c2df7dc	0.010618176
157	0x3d778454	0.060428932
158	0x3e13e118	0.14441335
159	0x3d799668	0.060934454
160	0x3daafd1c	0.08349058
161	0xbd22bb8a	-0.039729632
162	0xbc526603	-0.012841704
163	0xbd5e971a	-0.05434332
164	0xbd9a16e2	-0.07523896
165	0xbe31c387	-0.17359744
166	0xbd9702a2	-0.07373549
167	0x3d9e26a6	0.07722215
168	0x3ea58851	0.32330564
169	0x3f656d0e	0.8961953
170	0xbe83262a	-0.25615054
171	0xbe782584	-0.24233061
172	0x3cd61107	0.026131166
173	0xbcb5d4f8	-0.022196278
174	0x3da3d6b5	0.079999365
175	0xbe11ee58	-0.14251077
176	0xbd27a057	-0.040924396
177	0x3d9ce16c	0.07660183
178	0xbc81cd16	-0.015844863
179	0x3de7a672	0.11311044
180	0x3d47c7f7	0.048774686
181	0x3b2b7460	0.0026161894
182	0xbe150f37	-0.14556585
183	0xbbc89549	-0.006121312
184	0xbe1615a3	-0.14656691
185	0x3d54eaff	0.051981922
186	0x3db2f0f1	0.08737362
187	0x3c5fa792	0.013650792
188	0xbdddef09	-0.10836608
189	0x3d50e841	0.051002745
190	0xbe0c4c29	-0.13700928
191	0x3e1f36bd	0.15548225
192	0x3dcc7d2f	0.099848144
193	0x3e88120a	0.26576263
194	0xbe971139	-0.29505327
195	0xbe061a32	-0.1309593
196	0x3ea6ecf7	0.32602665
197	0x3da6cb1e	0.0814421
198	0x3e175c11	0.14781214
199	0x3cd71350	0.026254326
200	0xbdf2f760	-0.11863589
201	0x3e096bd9	0.13420047
202	0x3e2dba17	0.16965519
203	0xbdd606f7	-0.10450547
204	0x3e366f7d	0.17815967
205	0xbbc8837b	-0.0061191893
206	0x3d22e5bd	0.039769877
207	0x3d334c89	0.04377416
208	0xbda9f808	-0.08299261
209	0x3e670b86	0.2256299
210	0x3e2e9ab5	0.17051204
211	0x3e6d1a63	0.23154597
212	0x3daacdc8	0.08340031
213	0x3ded1465	0.115761556
214	0xbd9e890e	-0.07740985
215	0x3e82bb0f	0.2553334
216	0xbd670188	-0.056397945
217	0x3decb7c1	0.11558486
218	0x3de64b93	0.112448834
219	0x3eb50997	0.3535888
220	0xbd33c645	-0.043890256
221	0x3ddb8fb6	0.1072077
222	0xbd78bf7b	-0.060729485
223	0x3d9deebf	0.07711553
224	0xbe3907c4	-0.18069369
225	0xbdeaaaea	-0.114583805
226	0x3d7a187b	0.061058503
227	0xbda2341a	-0.07920094
228	0xbccbe703	-0.024890428
229	0xbdafad94	-0.08578029
230	0x3d4cf1ca	0.050035276
231	0x3e15bc58	0.14622629
232	0xbe250db0	-0.16118503
233	0x3ce06f67	0.02739687
234	0xbe00421e	-0.12525222
235	0xbd87c241	-0.06628848
236	0xbd81d0cc	-0.06338653
237	0xbd8c47da	-0.06849642
238	0xbd83ce41	-0.06435824
239	0xbe1bdd26	-0.1522108
240	0xbd293377	-0.041308846
241	0xbe471ee9	-0.19445385
242	0x3e2b161c	0.16707653
243	0x3c3aa6ac	0.011392277
244	0x3db5fcad	0.08886085
245	0xbb16bbbf	-0.002300009
246	0x3bc53b8d	0.006019062
247	0xbd01be82	-0.031675823
248	0xbdb427b7	-0.087966375
249	0x3cdf3292	0.027245793
250	0xbd541595	-0.051778395
251	0x3cf2462c	0.029574476
252	0x3da885bc	0.08228633
253	0x3da8955e	0.082316145
254	0xbd75d481	-0.060017113
255	0xbc05dd66	-0.008170461

critic.0.bias f4 [72]
0	0x3cd9a5d4	0.02656833
1	0x3dac60d3	0.08416905
2	0xbd08ec31	-0.033428375
3	0x3e2526ef	0.16128133
4	0x3d289766	0.04116001
5	0x3e6cff82	0.23144343
6	0x3da77f10	0.08178532
7	0xbc05afdf	-0.008159607
8	0x3e433bbc	0.19065756
9	0xbe1dd112	-0.15411785
10	0x3e4cfe3a	0.20018855
11	0xbdf058c6	-0.11735682
12	0x3da74410	0.08167279
13	0xbc7f9d07	-0.015601403
14	0xbde72fcc	-0.112884134
15	0x3d872294	0.06598392
16	0x3e559821	0.20858814
17	0xbc90ec46	-0.017690789
18	0xbde0ee6a	-0.10982974
19	0xbd375993	-0.04476316
20	0xbe57d23e	-0.21076295
21	0x3c67b6d0	0.014142707
22	0x3e5e515d	0.21710725
23	0xbe31393a	-0.17306986
24	0x3e745d1e	0.23863646
25	0x3e15e63d	0.1463861
26	0xbcf13ae0	-0.02944702
27	0x3ddaeafd	0.10689352
28	0x3e15fd36	0.14647374
29	0xbe1c7518	-0.15279043
30	0xbd4d57f4	-0.050132707
31	0x3e49eb40	0.19718647
32	0xbda74f3b	-0.08169409
33	0xbd69e327	-0.057101395
34	0xbcdc4e40	-0.026892781
35	0xbe27d4e5	-0.16389807
36	0xbdb71081	-0.08938695
37	0x3d19f3de	0.037586085
38	0x3c583252	0.013195591
39	0xbe072c3a	-0.13200465
40	0x3daf630a	0.08563812
41	0xbc7e0a1a	-0.015505338
42	0x3e020cb5	0.1270016
43	0xbdaff29d	-0.08591197
44	0x3e23ecf7	0.16008364
45	0xbe12ca26	-0.14334926
46	0xbe240e0b	-0.16020982
47	0x3d5daced	0.054119993
48	0xbe1bb750	-0.15206647
49	0x3c137106	0.008999115
50	0xbdfeab9e	-0.12435077
51	0x3d031de3	0.032010924
52	0x3e825036	0.2545182
53	0x3dcf63cf	0.10126459
54	0xbcdf20ab	-0.027237257
55	0xbdce572d	-0.10075221
56	0x3d6ec47a	0.058292843
57	0x3e3d3e7d	0.18480869
58	0xbcb0b661	-0.02157134
59	0xbdf84557	-0.121226005
60	0xbc380b54	-0.01123317
61	0x3b6e3ed6	0.003635337
62	0x3daa67b0	0.08320558
63	0x3d11d3c2	0.03560234
64	0xbda726ac	-0.08161673
65	0x3e4f44d5	0.20241101
66	0xbe436093	-0.19079809
67	0x3da3aef8	0.07992357
68	0xbe3cdd90	-0.18443894
69	0x3972565c	0.0002311109
70	0xbe2cf8b2	-0.16891745
71	0xbd390aaf	-0.045176204

critic.2.weight f4 [96, 72]
0	0x3c6a29e0	0.01429221
1	0x3d15f86c	0.036613867
2	0xbd8ffda5	-0.07030801
3	0x3d6d5073	0.05793805
4	0xbd3dd17f	-0.04634237
5	0x3de749e6	0.11293392
6	0xbd251e4e	-0.040312104
7	0x3c78bb3d	0.01518136
8	0x3d548876	0.05188795
9	0xbe0a6478	-0.13514888
10	0x3ca339ba	0.019924987
11	0x3cd2171d	0.025645787
12	0x3d744bc8	0.059642583
13	0xbcbac961	-0.022801103
14	0xbd04b5ff	-0.032400128
15	0xbd3f40db	-0.04669271
16	0x3da44a36	0.08021967
17	0xbdae2d92	-0.085047856
18	0x3c7c7c99	0.015410566
19	0xbd20bcde	-0.039242618
20	0xba2a21ca	-0.00064900203
21	0x3dbd0c34	0.09230843
22	0x3d81458c	0.06312093
23	0xbc06e352	-0.008232908
24	0x3dc9ea53	0.09859147
25	0x3d3f6b0e	0.046732955
26	0xbd617dc1	-0.05505157
27	0x3de097df	0.10966467
28	0x3ccda839	0.025104629
29	0x3d34c61d	0.044134248
30	0xbd0121b8	-0.031526297
31	0x3dc7d6ff	0.09757804
32	0x3c402729	0.0117280865
33	0x3b4df97d	0.0031429224
34	0xbc358110	-0.011078134
35	0xbdc9e603	-0.098583244
36	0x3dd0bf50	0.1019274
37	0xbda00382	-0.07813169
38	0xbd814202	-0.06311418
39	0xbdd5da75	-0.10442058
40	0xbcd18659	-0.025576757
41	0xbd6f073d	-0.058356512
42	0xbca532d1	-0.020165833
43	0xbd4af5a7	-0.04955068
44	0x3d18506c	0.03718607
45	0xbd83f891	-0.06443895
46	0xbc4b060f	-0.012391581
47	0x3c64fdee	0.013976557
48	0x3c9d5696	0.019206326
49	0x3d95e854	0.07319704
50	0x3c85d300	0.016335964
51	0xbdd0d161	-0.10196186
52	0x3db9f985	0.09080795
53	0xbc6c9dbd	-0.014441905
54	0xbd2538e4	-0.04033746
55	0xbe1441ab	-0.14478175
56	0xbca8f3fa	-0.02062415
57	0xbd63387e	-0.055473797
58	0xbd5d82b1	-0.054079715
59	0xbd939adc	-0.072072715
60	0x3da42dc8	0.080165446
61	0xbca0bbbb	-0.019620767
62	0x3e07b12d	0.13251181
63	0xbc0f6822	-0.008752855
64	0x3d0b583b	0.03401969
65	0xbcc0c020	-0.023529112
66	0xbb41c567	-0.0029567124
67	0x3d321e5e	0.04348599
68	0xbd8685bc	-0.065684766
69	0x3da65a53	0.08122697
70	0xbdafe950	-0.08589423
71	0xbd58fe75	-0.052977044
72	0xbd00d24b	-0.03145055
73	0x3d4870bf	0.048935648
74	0x3dd27404	0.102760345
75	0x3e06d3af	0.13166688
76	0xbe067061	-0.13128807
77	0x3dce86a8	0.100842774
78	0x3e1c3ee4	0.15258366
79	0xbd6d958f	-0.05800396
80	0x3e12c8c3	0.14334397
81	0xbdf219f8	-0.118213594
82	0xbb4ff3b8	-0.003173096
83	0x3d5448d8	0.05182728
84	0xbd89f039	-0.06735272
85	0xbcabddcc	-0.020979784
86	0xbd890eee	-0.06692301
87	0xbcfe213a	-0.031021703
88	0x3e18cf5d	0.14922853
89	0xbbced9af	-0.006312571
90	0xbde3a3fe	-0.111152634
91	0x3cb0bd67	0.02157469
92	0xbc432d25	-0.011912619
93	0x3df6e3b4	0.1205515
94	0x3e112263	0.14173274
95	0xbe373794	-0.17892295
96	0x3dcb056e	0.09913145
97	0xbda96c39	-0.08272595
98	0xbdbf047c	-0.09327027
99	0x3db61325	0.0889037
100	0x3d17f525	0.037099022
101	0xbde99ff6	-0.11407463
102	0xbdc1f60f	-0.0947076
103	0x3db81323	0.08988025
104	0xbbf8cc4f	-0.007592715
105	0xbda34477	-0.07972043
106	0x3d78b9f5	0.060724217
107	0x3d277ce0	0.040890574
108	0xbd9a623a	-0.075382665
109	0x3cb64f54	0.022254623
110	0xbccf604f	-0.025314478
111	0xbe13d4e3	-0.14436679
112	0x3e0af127	0.13568555
113	0x3dc9e936	0.098589346
114	0x3d61ff62	0.055175193
115	0xbc56a465	-0.013100718
116	0x3d634102	0.05548192
117	0xbda256d1	-0.07926715
118	0xbc07426f	-0.008255585
119	0x3d876354	0.06610742
120	0x3d2a59de	0.04158961
121	0x3e172d67	0.14763413
122	0xbb409272	-0.0029384163
123	0x3bbc2065	0.0057411664
124	0x3e2abd43	0.1667376
125	0x3d4127aa	0.047156967
126	0xbd7c8a70	-0.06165546
127	0xbd43522e	-0.047685795
128	0xbd6e07d8	-0.05811295
129	0x3d932470	0.07184684
130	0x3e32447e	0.1740894
131	0xbcc81339	-0.024423229
132	0xbdbdb9fd	-0.0926399
133	0x3d113628	0.035452038
134	0x3e0761fc	0.13220972
135	0xbca8c200	-0.020600319
136	0x3d3a6332	0.045504756
137	0x3c1244c9	0.0089275325
138	0xbdd012f6	-0.101598665
139	0x3c87dbb8	0.016584262
140	0xbe03c31f	-0.12867402
141	0x3c4bde37	0.012443117
142	0x3c2101e8	0.009827115
143	0xbd584618	-0.05280122
144	0xbdb0de07	-0.08636098
145	0x3e37102e	0.17877266
146	0xbd5ddf51	-0.05416805
147	0xbc828ad9	-0.015935348
148	0x3df1f320	0.118139505
149	0x3cf2d573	0.029642796
150	0xbdff3e28	-0.12463027
151	0xbce9a85f	-0.028522668
152	0x3b8f932d	0.0043815584
153	0xbd8e96b1	-0.06962336
154	0xbd62c510	-0.055363715
155	0xbac75f76	-0.0015210945
156	0x3d97d81a	0.07414265
157	0xbda310e2	-0.079622045
158	0xbd4515c8	-0.048116475
159	0xbd4dd6d0	-0.05025369
160	0x3c879f70	0.016555518
161	0x3db4f55a	0.088358596
162	0x3d8beee3	0.068326734
163	0xbd557a27	-0.052118447
164	0x3d53a58d	0.051671553
165	0xbccba06a	-0.024856765
166	0xbcaf5c10	-0.021406204
167	0xbd91ceb0	-0.07119501
168	0xbb9c8c24	-0.0047774483
169	0x3db2b697	0.087262325
170	0x3c9ff4a0	0.019525826
171	0xbcbc0b04	-0.022954471
172	0xbc87bf70	-0.016570777
173	0xbc5a0b9f	-0.013308435
174	0xbd372951	-0.044717137
175	0x3db68442	0.08911945
176	0x3db6fba3	0.08934715
177	0x3e13de2b	0.14440219
178	0xbd5de380	-0.05417204
179	0x3e0a6800	0.13516235
180	0x3da8f007	0.082489066
181	0x3dc83968	0.097765744
182	0x3d470608	0.048589736
183	0x3def8b16	0.116964504
184	0x3cc493e2	0.023996297
185	0xbbde36c5	-0.0067814314
186	0x3bc29a65	0.0059388154
187	0xbd389699	-0.045065496
188	0x3dc6a875	0.097000994
189	0x3d7cb539	0.061696265
190	0xbda4f978	-0.08055395
191	0xbc9babac	-0.019002758
192	0x3d939160	0.072054625
193	0x3d44b376	0.04802271
194	0xbd8c1b63	-0.06841161
195	0x3dc194c6	0.094522044
196	0xbdf0518b	-0.11734303
197	0x3db8b363	0.0901859
198	0xbd1a6101	-0.037690166
199	0xbb915dfb	-0.004436252
200	0x3dd3980a	0.103317335
201	0xbdd4dc68	-0.10393602
202	0x3d6be6e4	0.05759324
203	0x3d52ac2e	0.051433735
204	0xbcb28da5	-0.021796057
205	0xbda9cf80	-0.082915306
206	0xbd56cddd	-0.05244242
207	0x3dce40aa	0.100709274
208	0xb9d84df6	-0.00041256816
209	0xbc86be7a	-0.016448248
210	0xbd296f9d	-0.04136621
211	0x3deaaca6	0.11458711
212	0x3cdf2464	0.027239032
213	0x3bb4d8ed	0.0055190236
214	0xbd41575b	-0.04720245
215	0x3ddb0b3c	0.10695502
216	0x3e17cb2f	0.14823602
217	0xbd8e197c	-0.069384545
218	0xbd7194b3	-0.0589797
219	0xbc0c1296	-0.008549353
220	0x3d16ec23	0.03684629
221	0xbd4dc080	-0.05023241
222	0xbe20c1f5	-0.15698989
223	0x3d82652a	0.06366952
224	0xbda8c1c7	-0.08240085
225	0xbd82ce92	-0.063870564
226	0xbdb149c1	-0.086566456
227	0xbe0197cd	-0.12655564
228	0x3d631e3c	0.055448756
229	0xbdc2cb79	-0.095114656
230	0xbc402a8a	-0.011728892
231	0xbe5069aa	-0.20352808
232	0xbd9d45ce	-0.0767933
233	0x3d99a0bc	0.07501361
234	0xbe292544	-0.16518122
235	0x3ca55600	0.02018261
236	0xbc8587e1	-0.016300144
237	0xbdf1a0d9	-0.117982574
238	0x3da30ed6	0.07961814
239	0xbdc47ff2	-0.09594716
240	0x3de9bdb7	0.11413138
241	0xbd5acb27	-0.053416397
242	0x3dc8fa14	0.098133236
243	0xbcda5826	-0.02665336
244	0x3e003d44	0.12523371
245	0xbdae7731	-0.08518828
246	0xbe067b04	-0.13132864
247	0x3d031eb9	0.03201172
248	0x3def9530	0.11698377
249	0x3d668567	0.056279566
250	0x3da7eefe	0.08199881
251	0xbcbb3ee7	-0.022857143
252	0x3e0cc49e	0.13746879
253	0x3d98f86b	0.07469257
254	0x3df9048d	0.12159071
255	0x3db7322e	0.08945118

critic.2.bias f4 [96]
0	0x3e034039	0.12817468
1	0x3e11a5ff	0.14223479
2	0xbd55186d	-0.052025247
3	0x3d451d5e	0.04812371
4	0x3d496ed8	0.049177974
5	0xbc4db46e	-0.012555225
6	0xbe066f14	-0.1312831
7	0xbd48dc3b	-0.049038153
8	0xbcd56e52	-0.026053581
9	0xbd0e2ecd	-0.0347126
10	0xbd345251	-0.044023816
11	0xbdfca74e	-0.12336598
12	0xbd9fd84c	-0.07804927
13	0xbd5876fb	-0.052847844
14	0x3e257b22	0.16160253
15	0xbd3202f4	-0.043459848
16	0xbdb196a4	-0.086713105
17	0x3d35eb99	0.044414137
18	0x3ca522e4	0.020158239
19	0x3dd7b120	0.10531831
20	0xbcb20aff	-0.021733759
21	0x3c26aa94	0.010172505
22	0xbd4596bf	-0.048239466
23	0xbce4e312	-0.027940307
24	0xbb0470e5	-0.0020208892
25	0xbc896fb3	-0.016776895
26	0xbde4b7bd	-0.11167858
27	0x3e1f421d	0.15552564
28	0xbda9f86e	-0.08299337
29	0xbdb7a479	-0.089669175
30	0x3d58be7e	0.052916043
31	0xbdd48f53	-0.103788994
32	0x3d5a87f4	0.05335231
33	0xbc44ef5e	-0.01201996
34	0x3cc8ad6a	0.024496753
35	0xbda67361	-0.081274755
36	0x3d8450ae	0.06460701
37	0xbd893209	-0.066989966
38	0xbc6c0069	-0.014404395
39	0x3b165076	0.0022936142
40	0x3d61a26d	0.055086542
41	0xbdc7e294	-0.09760013
42	0xbd11e5b8	-0.035619467
43	0x3cab527c	0.020913355
44	0x3e145758	0.14486444
45	0xbd46472f	-0.04840773
46	0xbe2240fb	-0.158451
47	0x3cf9797a	0.030453432
48	0xbd472044	-0.048614755
49	0xbe5a9784	-0.21346861
50	0x3cbdf77a	0.023189295
51	0x3cdc5c64	0.026899524
52	0x3da4920c	0.08035669
53	0x3d4f7490	0.050648272
54	0xbc3a83dc	-0.011383977
55	0xbd53b45d	-0.05168568
56	0x3d0a9ba8	0.03383985
57	0x3dd90f46	0.10598616
58	0x3e16148e	0.14656278
59	0x3d2fa9ba	0.042886473
60	0x3d20ec30	0.039287746
61	0xbcb90c59	-0.022588896
62	0xbdd6198c	-0.104540914
63	0x3dceb9da	0.10094042
64	0xbcefbcc1	-0.02926481
65	0x3df79335	0.120886244
66	0xbe071039	-0.13189782
67	0x3d5c76d6	0.05382427
68	0x3d88bbad	0.06676421
69	0xbdccce85	-0.10000328
70	0x3e1e066b	0.15432136
71	0xbdff5189	-0.124667235
72	0xbde92ffd	-0.11386106
73	0xbd25e95e	-0.04050576
74	0x3df01982	0.11723615
75	0x3dede647	0.116161875
76	0x3c0b34e9	0.0084965015
77	0x3cadf72b	0.021236023
78	0xbdb581bf	-0.08862638
79	0xbde2ac3d	-0.11068008
80	0x3cff65e6	0.031176519
81	0x3e0ff49e	0.14058158
82	0x3e35e81e	0.17764327
83	0xbd984df0	-0.074367404
84	0x3d00719f	0.031358358
85	0xbca6d30c	-0.020364307
86	0xbd901e6c	-0.070370525
87	0x3cd4ec34	0.025991537
88	0x3e0ad906	0.1355935
89	0xbe1cbc12	-0.15306118
90	0x3d502fd8	0.050826877
91	0x3b772eaf	0.0037717035
92	0xbdc81f4b	-0.09771594
93	0xbd2e6e96	-0.04258593
94	0xbc2d9cf7	-0.010596505
95	0x3cc43ff8	0.023956284

critic.4.weight f4 [1, 96]
0	0xbd7d3c59	-0.06182513
1	0xbdbba804	-0.09162906
2	0xbbd01283	-0.006349863
3	0xbdd9a838	-0.10627788
4	0xbb3dff29	-0.0028991199
5	0xbd9733c6	-0.07382922
6	0x3d99acf8	0.07503694
7	0x3c56c533	0.013108539
8	0xbc43cef0	-0.011951193
9	0x3dd56d0c	0.1042119
10	0xbc98a33f	-0.01863253
11	0x3d8bbf83	0.06823637
12	0xb902668f	-0.00012435972
13	0x3d87e1e8	0.06634885
14	0xbe0912e9	-0.1338612
15	0x3d87fffc	0.06640622
16	0x3d1038a5	0.03521027
17	0x3d6c6601	0.057714466
18	0x3d14aef0	0.036299646
19	0xbd45a8d5	-0.048256714
20	0xbcd662b0	-0.026170105
21	0x3d465138	0.0484173
22	0x3cc0767d	0.023494
23	0xbae72b63	-0.0017636832
24	0xbd5f81d9	-0.05456719
25	0xbd0ce25d	-0.034395564
26	0x3b9617f3	0.0045804917
27	0xbdc31d5f	-0.095270865
28	0xba411096	-0.0007364837
29	0x3a806cb6	0.0009798023
30	0xbcca38c9	-0.02468528
31	0x3d153371	0.03642601
32	0xbcca7bb7	-0.024717195
33	0xbd8c69ea	-0.06856139
34	0x3cedc5fe	0.029025074
35	0x3e024750	0.12722516
36	0xbd1eaf47	-0.038741376
37	0xbd0d1a30	-0.034448802
38	0x3d000d52	0.031262703
39	0xbd13e8de	-0.03611075
40	0xbdf2ac7a	-0.118493035
41	0x3b06d49a	0.0020573498
42	0xb90e38fd	-0.00013563405
43	0xbc9a7a79	-0.018857228
44	0xbd9eef15	-0.07760445
45	0xb87b43c1	-5.9906164e-05
46	0x3db3aecf	0.087735765
47	0x3d8148a3	0.063126825
48	0x3b48fb94	0.003066753
49	0x3dcf7ad8	0.101308525
50	0x3a562ce8	0.00081701437
51	0xba4b29b9	-0.00077500526
52	0xba0dbbef	-0.00054067274
53	0xbdf7f824	-0.12107876
54	0x3da5e634	0.081005484
55	0xbd363ef7	-0.04449364
56	0x3e170bdf	0.14750622
57	0x3e01ae5d	0.1266417
58	0xbd7c3b28	-0.061579853
59	0x3a929b70	0.001118524
60	0xbc5b6b56	-0.01339229
61	0xbdd8e7a4	-0.10591057
62	0x3e08e5e9	0.13368954
63	0xbd955338	-0.07291263
64	0x3cf52d23	0.02992875
65	0xbda5614d	-0.08075199
66	0x3bf4e97c	0.0074741226
67	0xbb9fda5c	-0.0048783254
68	0xbc8d2336	-0.017228704
69	0x3d7f2aad	0.06229656
70	0xbdd68036	-0.10473673
71	0x3d989718	0.07450694
72	0x3cfa90bc	0.030586593
73	0xbacf7337	-0.0015827183
74	0xbd457aac	-0.048212692
75	0xbd3d8dfb	-0.04627798
76	0x3b464a33	0.0030256629
77	0xb9706a07	-0.00022927682
78	0x3ce0f913	0.027462518
79	0x38edac1a	0.00011333097
80	0x3d86ff46	0.06591658
81	0xbcb88f56	-0.022529285
82	0xbda3388a	-0.07969768
83	0x3da68bcc	0.08132133
84	0xbc653a8f	-0.013991012
85	0x3d512331	0.05105895
86	0x386654fe	5.491543e-05
87	0xbbcb5abb	-0.0062058843
88	0xbdd81de4	-0.10552576
89	0x3c8dde57	0.017317934
90	0xbc0efafd	-0.008726832
91	0xbb3b0d35	-0.0028541808
92	0x3d508719	0.05091009
93	0xbe21086e	-0.15725872
94	0x3d3fa157	0.046784725
95	0x3af02ddd	0.0018324215

mean.0.weight f4 [72, 24]
0	0x3c946cb0	0.018118232
1	0xbe53e403	-0.20692448
2	0xbcd8a8f5	-0.026447752
3	0xbe0df977	-0.13864695
4	0x3d0a24bb	0.033726435
5	0x3dd5f1d9	0.104465194
6	0xbe853b3d	-0.26021758
7	0xbe1f1846	-0.15536603
8	0x3e3a6c4f	0.18205379
9	0x3db2cc73	0.08730402
10	0xbd8f569e	-0.06998943
11	0x3d92d568	0.0716961
12	0x3c788f3b	0.015170868
13	0x3d4f0d17	0.050549593
14	0xbd541ee9	-0.05178729
15	0x3d05a446	0.032627366
16	0xbdbd14e2	-0.09232499
17	0xbd6a9040	-0.057266474
18	0x3d1ea7d5	0.038734276
19	0xbd74a206	-0.05972483
20	0xbbac0035	-0.005249048
21	0x3c9dbf7f	0.019256352
22	0xbe299edf	-0.16564511
23	0xbd4528cf	-0.04813462
24	0xbe05042b	-0.12989871
25	0xbec5168f	-0.38493773
26	0xbe8bc398	-0.27297664
27	0x3e93f23e	0.28895754
28	0x3db7dc43	0.089775585
29	0xbd208aad	-0.03919475
30	0xbd405683	-0.046957504
31	0xbcb9c3fd	-0.022676462
32	0x3d095ecd	0.033537675
33	0x3e03c616	0.12868533
34	0x3e125bb7	0.14292799
35	0x3d8de417	0.0692827
36	0xbc9d6a5e	-0.019215759
37	0x3e1d650d	0.15370579
38	0x3daaf87a	0.083481744
39	0x3dd08415	0.10181443
40	0x3db847c5	0.08998064
41	0x3d486f00	0.048933983
42	0xbe1123a7	-0.14173757
43	0xbdca1355	-0.098669685
44	0xbd59c776	-0.053168736
45	0xbe1e3a05	-0.1545182
46	0x3db19055	0.08670107
47	0xbda1303e	-0.078705296
48	0x3e90a670	0.28251982
49	0x3f2083d3	0.6270115
50	0xbdcd0fba	-0.10012765
51	0xbe5bdaeb	-0.2147023
52	0x3cf4958f	0.029856471
53	0xbd25b8b9	-0.04045937
54	0x3e60d7d3	0.2195733
55	0x3d159e07	0.03652766
56	0xbdffbd8a	-0.124873236
57	0x3d69f749	0.057120595
58	0xbdf50557	-0.11963909
59	0x3d8ac601	0.067760475
60	0x3cb250c0	0.02176702
61	0xbd2045a1	-0.039128903
62	0xbd430ba0	-0.04761851
63	0x3e09c43a	0.1345376
64	0xbded9c20	-0.11602044
65	0xbdc1fbec	-0.094718784
66	0xbe484319	-0.19556846
67	0x3dcf59d8	0.10124558
68	0x3dd3a9d8	0.103351295
69	0xbe0d3835	-0.13790973
70	0xbdc86c28	-0.09786254
71	0xbe1ec5e8	-0.15505183
72	0xbeb7c299	-0.35890654
73	0xbf152de7	-0.58273166
74	0x3eaee374	0.34157908
75	0x3e9040c2	0.28174406
76	0xbdf0232b	-0.11725458
77	0xbd13cfe1	-0.03608692
78	0xbc67e07e	-0.014152644
79	0xbddafaad	-0.10692344
80	0xbdfa796f	-0.12230193
81	0x3be3ca62	0.006951616
82	0xbcb5e04c	-0.02220168
83	0xbdc2985d	-0.09501717
84	0x3d47a243	0.04873873
85	0xbd8b4220	-0.06799722
86	0x3e261b65	0.16221388
87	0xbe225355	-0.15852101
88	0x3e43137e	0.19050404
89	0x3e43ec45	0.19133098
90	0xbdb3252a	-0.08747323
91	0xbe0ebfa5	-0.13940294
92	0x3e2af66e	0.16695568
93	0xbb6c10cc	-0.0036020754
94	0xbcdefc0c	-0.027219795
95	0xbe0c2289	-0.13685049
96	0x3e00588d	0.1253378
97	0x3ed065e7	0.40702745
98	0xbdc44886	-0.09584145
99	0xbdbafd6d	-0.091303684
100	0x3dda581d	0.106613375
101	0x3d806fdf	0.06271338
102	0xbd50e9b3	-0.051004123
103	0xba7e917d	-0.00097110105
104	0xbdb2b111	-0.08725179
105	0xbdbf5048	-0.09341484
106	0x3e2eeffb	0.17083733
107	0xbe5c05e0	-0.21486616
108	0x3e4fd530	0.20296168
109	0xbcd008f4	-0.025394894
110	0x3d0884a8	0.033329636
111	0x3cb631b4	0.022240497
112	0x3dffd52d	0.12491832
113	0xbc910f12	-0.017707381
114	0xbd674978	-0.05646655
115	0x3dcba6e8	0.09943944
116	0xbc982a70	-0.018574923
117	0xbe4782b4	-0.19483453
118	0xbe448666	-0.19191894
119	0x3d2428e1	0.040078048
120	0x3ec3cee5	0.38243786
121	0x3f08df25	0.5346549
122	0xbecc0c27	-0.39853022
123	0xbe1a2b54	-0.15055591
124	0xbdbeab86	-0.09310059
125	0xbda55a47	-0.0807386
126	0x3e4890fc	0.19586557
127	0x3d4c39ef	0.049859937
128	0xbe7bdc26	-0.24595699
129	0x3df7aa6f	0.120930545
130	0xbc2dfd23	-0.0106194345
131	0x3e5fbb7d	0.21848865
132	0x3b433728	0.0029787514
133	0xbcbc977e	-0.023021456
134	0x3d3ff3bc	0.046863303
135	0xbd7d88b5	-0.061897952
136	0xbe302459	-0.17201366
137	0x3e12df85	0.14343078
138	0xbda7ba6c	-0.08189854
139	0x3debbcb3	0.11510601
140	0xbe027029	-0.12738098
141	0x3df1236c	0.11774334
142	0x3cc43faf	0.023956148
143	0xba2e8657	-0.00066575914
144	0x3e22decc	0.15905303
145	0x3e880b78	0.2657125
146	0xbec42f8a	-0.3831752
147	0x3ea342e1	0.31886962
148	0x3e634c9f	0.22197197
149	0x3d3e21d4	0.04641898
150	0x3d19846a	0.037479796
151	0xbd2da742	-0.042395838
152	0xbd8a5dcc	-0.067561716
153	0x3bfba7ea	0.007679929
154	0xbd5f86d9	-0.05457196
155	0x3e3051e8	0.17218745
156	0xbe02642b	-0.12733524
157	0x3e6bca42	0.23026374
158	0xbe33cee9	-0.17559399
159	0xbe09c686	-0.13454637
160	0xbd917681	-0.07102681
161	0xbe25ba04	-0.1618424
162	0xbd77ca87	-0.06049588
163	0xbdbd2a63	-0.092366
164	0xbd68b724	-0.05681528
165	0xbd6cdabb	-0.057825785
166	0x3db8cf6f	0.0902394
167	0xbcc80c45	-0.024419913
168	0x3e6edcc6	0.23326406
169	0x3f330d49	0.69942147
170	0x3c2788bf	0.010225474
171	0xbe80a3d0	-0.2512498
172	0x3d962c2f	0.07332646
173	0x3e21431d	0.15748258
174	0x3d9b9855	0.075974144
175	0x3e1b3f37	0.15160833
176	0x3d5ebad1	0.05437738
177	0x3e0325de	0.12807414
178	0x3c049005	0.008090978
179	0x3d436b00	0.047709465
180	0x3daf7240	0.08566713
181	0xbe1012cb	-0.14069669
182	0x3d98b185	0.07455734
183	0xbc06d379	-0.00822913
184	0x3de71d46	0.1128488
185	0x3d7fba6a	0.062433638
186	0x3d5ec6bf	0.054388758
187	0xbd88b540	-0.06675196
188	0x3d9b156d	0.07572446
189	0x3dd8cf6b	0.10586437
190	0xbe535e0d	-0.20641346
191	0xbd8f5b0d	-0.069997884
192	0x3e9247fb	0.28570542
193	0x3f1e5be0	0.6185894
194	0xbf04a366	-0.51811826
195	0xbe3c5d81	-0.18395044
196	0x3d6f10da	0.05836568
197	0xbe3d1197	-0.18463741
198	0xba46a6a9	-0.0007577935
199	0x3cf0c3ba	0.029390205
200	0xbd871cc8	-0.065972865
201	0x3c4f3d0c	0.012648832
202	0x3d51b787	0.051200416
203	0x3de030fb	0.10946842
204	0xbe049383	-0.12946896
205	0xbd2970d1	-0.041367356
206	0xbcf00b4c	-0.029302262
207	0xbc813c0f	-0.015775708
208	0xbdf41e4d	-0.11919842
209	0x3dda7562	0.1066692
210	0xbe25633d	-0.16151138
211	0xbdbcf225	-0.09225873
212	0x3e010ee4	0.12603337
213	0x3e0538c3	0.13009934
214	0xbb6f39a4	-0.0036502862
215	0x3e25df63	0.16198497
216	0xbe9cdb56	-0.3063609
217	0xbe7f8ab1	-0.2495525
218	0x3e85fe2e	0.26170486
219	0x3efaf37b	0.49013886
220	0xbd59b3b2	-0.053149886
221	0x3cbeb612	0.023280177
222	0x3dcd16a8	0.10014087
223	0xbd841069	-0.064484425
224	0xbe421624	-0.18953758
225	0xbe130dc9	-0.14360727
226	0xbddebef1	-0.10876263
227	0x3cd5df7d	0.026107544
228	0xbd30bc69	-0.043148432
229	0xbdf5f129	-0.12008888
230	0x3e577e93	0.21044378
231	0xbd17cd9d	-0.037061322
232	0xbd0cb9d0	-0.034356892
233	0xbc1c9fba	-0.009559566
234	0x3e39404e	0.18090937
235	0x3c7575b4	0.014981676
236	0x3e487e71	0.19579484
237	0xbd6233b4	-0.05522509
238	0x3d9e8fe8	0.07742292
239	0x3d06619c	0.03280793
240	0x3e814761	0.2524977
241	0x3f1aac9c	0.6041963
242	0xbdbd09ee	-0.092304096
243	0xbd81b81f	-0.063339464
244	0x3e9eb52e	0.30997604
245	0xbcd4848a	-0.025942106
246	0x3e3a7a88	0.18210804
247	0x3e22397f	0.15842246
248	0x3d292042	0.04129053
249	0x3d57c37f	0.052676674
250	0x3d6ef34b	0.05833749
251	0xbc8d7b64	-0.017270751
252	0x3c903900	0.017605305
253	0xbd815dbd	-0.06316707
254	0xbd71f3c3	-0.05907036
255	0x3bfb8c8e	0.0076766675

mean.0.bias f4 [72]
0	0xbdb540f4	-0.088502795
1	0x3e286ef2	0.16448572
2	0x3dc7eb53	0.097616814
3	0x3d958a11	0.07301725
4	0xbddfbdb7	-0.10924857
5	0xbcf57c94	-0.02996663
6	0x3b958258	0.0045626573
7	0xbdd94ac3	-0.10609963
8	0xbd6cac51	-0.05778152
9	0x3d89b8cb	0.067246996
10	0x3d153e21	0.036436204
11	0x3e20ed74	0.15715581
12	0x3e1a536f	0.1507089
13	0x3e27827a	0.16358367
14	0x3d05ac77	0.03263518
15	0x3d0c6cbe	0.034283392
16	0x3e1ee311	0.15516306
17	0x3d5af7a0	0.05345881
18	0xbc231557	-0.009953818
19	0x3d108520	0.035283208
20	0x3dc46318	0.09589213
21	0xbd46b46c	-0.048511907
22	0x3e1d53a1	0.15363933
23	0x3d42ba54	0.047540978
24	0x3c9dbe01	0.01925564
25	0x3e0efa9e	0.1396279
26	0xbe345d1c	-0.17613643
27	0x3cbb9ddb	0.02290242
28	0x3db605c7	0.08887821
29	0x3d89dcf6	0.06731598
30	0xbd101097	-0.03517207
31	0xbddca0cd	-0.10772858
32	0xbd5a3df5	-0.053281743
33	0x3de11b05	0.10991482
34	0x3de98acd	0.11403427
35	0x3d96b69c	0.07359049
36	0xbe0216bf	-0.1270399
37	0x3e67cf54	0.22637683
38	0x3cc2be0d	0.023772264
39	0xbcae334b	-0.021264693
40	0xbacef77d	-0.001579031
41	0x3dfabb2e	0.12242733
42	0xbd4ed813	-0.050499033
43	0xbdd808fb	-0.10548588
44	0xbd4820e0	-0.048859477
45	0x3d40c153	0.04705937
46	0x3df65008	0.120269835
47	0x3cbb465e	0.022860702
48	0x3c1a49e9	0.009417036
49	0x3e426237	0.18982778
50	0xbdda87e6	-0.10670452
51	0x3e036a24	0.12833458
52	0xbd04beb9	-0.03240845
53	0x3de51df9	0.111873575
54	0xbdfc3bd1	-0.123160966
55	0x3cbc0216	0.022950213
56	0x3dec1e84	0.11529258
57	0xbd6d4414	-0.057926252
58	0x3d85250e	0.06501208
59	0xbdfd3cd8	-0.12365121
60	0x3dbbb27b	0.09164902
61	0xbd8c9ba6	-0.06865625
62	0xbe161c18	-0.14659154
63	0xbc05a1cf	-0.008156254
64	0xbdd5c32b	-0.10437616
65	0xbdf3cdeb	-0.1190451
66	0xbdfccea9	-0.12344105
67	0x3e2fe953	0.1717885
68	0xbd96cadf	-0.07362913
69	0x3cc1d03a	0.02365886
70	0xbca431d7	-0.020043297
71	0x3d4bfc6a	0.049801268

mean.2.weight f4 [96, 72]
0	0x3dad29c4	0.08455232
1	0x3e456edc	0.19280571
2	0xbdd6e98f	-0.104937665
3	0x3cdcc6b4	0.026950218
4	0xbe29aadf	-0.16569088
5	0xbd679f69	-0.05654851
6	0xbd25ef8e	-0.04051166
7	0xbe03579d	-0.1282639
8	0xbd05723c	-0.032579646
9	0xbda7191d	-0.08159087
10	0xbd7bab1e	-0.061442487
11	0x3ce4e6e0	0.027942121
12	0xbe0bfa48	-0.13669693
13	0x3cc2437f	0.023713825
14	0x3e57b309	0.2106439
15	0x3d342e1a	0.04398928
16	0xbdd41791	-0.103560574
17	0x39b2edc1	0.00034127946
18	0xbd6b1b3e	-0.057399027
19	0xbd9a93a6	-0.07547693
20	0x3e44a7e6	0.19204673
21	0xbcec00c9	-0.028808968
22	0x3dedbe5b	0.11608573
23	0xbcdfa528	-0.027300432
24	0x3d3b846e	0.04578059
25	0x3e0941d7	0.13404022
26	0xbd31155b	-0.043233257
27	0xbd65e6b6	-0.056128226
28	0x3da8ef8d	0.08248816
29	0xbd368242	-0.044557817
30	0xbdd5ebca	-0.10445364
31	0xbdfdb7f7	-0.12388604
32	0xbcfe5aa7	-0.031049086
33	0xbdc1d303	-0.094640754
34	0xbd837a95	-0.06419865
35	0xbd9ff210	-0.07809842
36	0x3d097fc2	0.033569105
37	0x3d8fad9f	0.070155375
38	0xbe56f23c	-0.20990843
39	0xbdd60e2b	-0.10451921
40	0x3df9caff	0.121969216
41	0x3e521637	0.20516287
42	0x3da25605	0.07926563
43	0xbd46cb2a	-0.048533596
44	0xbdf88d65	-0.12136344
45	0x3e75ef5d	0.24017091
46	0xbe0126d6	-0.12612471
47	0x3dd71795	0.10502545
48	0xbd75077b	-0.059821587
49	0x3d80ed34	0.06295243
50	0x3d1cbf93	0.038268637
51	0x3e1ca11c	0.15295833
52	0xbb7e2c3d	-0.0038783692
53	0x3e3a3d1d	0.18187375
54	0xbd56538e	-0.052325778
55	0x3d613930	0.05498618
56	0x3bc49148	0.005998764
57	0xbd8e01e4	-0.06933954
58	0xbdb977d4	-0.090560585
59	0xbda99d51	-0.08281959
60	0x3dd2c378	0.10291189
61	0xbda9d2a5	-0.082921304
62	0xbe0b97db	-0.13632147
63	0x3d2500f7	0.040284123
64	0xbd4835e1	-0.048879508
65	0xbd8a5696	-0.06754796
66	0x3c8b30e7	0.016991092
67	0x3e4be1f0	0.19910407
68	0xbe9de54e	-0.30839008
69	0x3df68944	0.120379
70	0xbc4026fd	-0.0117280455
71	0xbd9af78f	-0.07566749
72	0xbd35ce3a	-0.044386126
73	0x3e4956cd	0.19662018
74	0xbe6de70e	-0.23232672
75	0xbcd8e40e	-0.026475932
76	0xbdb2ef63	-0.08737066
77	0xbdf61171	-0.120150454
78	0x3d8c4825	0.06849698
79	0xbe5556ec	-0.2083394
80	0xbdecf153	-0.115694664
81	0xbd9adc49	-0.07561547
82	0xbdcc7aad	-0.09984336
83	0x3b811bac	0.0039400663
84	0xbd2a116e	-0.04152053
85	0xbd075983	-0.03304435
86	0xbdebab2a	-0.11507256
87	0x3d1cd68f	0.038290557
88	0xbe18a77d	-0.14907642
89	0xbcd54f8f	-0.026038913
90	0xbda9da03	-0.082935356
91	0x3d37132c	0.044696018
92	0xbc6a0ced	-0.014285308
93	0x3d810ab0	0.063008666
94	0x3d6d2ca7	0.057903912
95	0xbd19c583	-0.037541877
96	0xbd0261d8	-0.031831592
97	0x3dfe5812	0.12419142
98	0x3d3a9786	0.04555466
99	0xbd95e915	-0.073198475
100	0xbd717c28	-0.058956295
101	0xbd8da268	-0.06915742
102	0xbd8c68e3	-0.06855943
103	0xbd214695	-0.039373953
104	0x3cb5c194	0.022187032
105	0x3c73c8ef	0.014879449
106	0x3da26e42	0.07931186
107	0x3e3aec3d	0.1825418
108	0xbba1863d	-0.0049293325
109	0x3e152297	0.14563976
110	0xbcbdf631	-0.023188682
111	0xbd7fb7d4	-0.06243117
112	0xbe0b18c1	-0.13583662
113	0x3e48e490	0.1961844
114	0xbdfede13	-0.12444701
115	0x3c863c72	0.016386244
116	0xbcb404b1	-0.021974893
117	0x3e0e2187	0.13879977
118	0x3d9d65fd	0.07685468
119	0x3dead076	0.11465542
120	0xbe038dcc	-0.1284706
121	0x3dbf5b90	0.09343636
122	0x3cec1317	0.028817696
123	0x3cce4af4	0.025182225
124	0x3d58e701	0.052954677
125	0x3e3a2b95	0.18180688
126	0xbdb6b171	-0.08920563
127	0xbe4bb1eb	-0.19892089
128	0x3ded9616	0.11600892
129	0xbd183a0d	-0.037164737
130	0xbbceb277	-0.0063078958
131	0xbddc919a	-0.10769959
132	0xbd072d4a	-0.033002175
133	0xbe120c87	-0.14262591
134	0xbd2e6037	-0.042572226
135	0x3c2eed78	0.010676734
136	0x3df2a63a	0.118481115
137	0xbd46d10a	-0.0485392
138	0x3c231f8e	0.009956254
139	0x3e1e22c6	0.15442953
140	0x3ce7800e	0.028259303
141	0xbdbc9839	-0.09208722
142	0xbd2a8037	-0.04162618
143	0x3de60507	0.11231428
144	0xbcf8a13e	-0.030350324
145	0x3dda2a55	0.106526054
146	0x3d1fa654	0.038976982
147	0xbcaaa5f3	-0.020831084
148	0x3de6726b	0.11252292
149	0x3e22ac46	0.1588603
150	0x3e4dea99	0.20109023
151	0x3dba5664	0.09098509
152	0x3cd294b5	0.025705675
153	0xbe4622ea	-0.19349256
154	0x3c1b0bbc	0.009463247
155	0x3d98908b	0.074494444
156	0xbd3886dd	-0.04505049
157	0x3c6abc7d	0.014327166
158	0x3defcbb0	0.11708772
159	0xbe6e9525	-0.23299082
160	0xbccef0ca	-0.025261302
161	0x3aca3359	0.001542668
162	0x3dfeeb45	0.12447218
163	0xbe27cecb	-0.16387479
164	0x3e6576ae	0.22408554
165	0xbe918b17	-0.2842643
166	0x3e1f7cc9	0.15574946
167	0x3d07e32a	0.033175625
168	0x3c381953	0.0112365065
169	0xbd482c14	-0.04887016
170	0xbd8b913e	-0.06814812
171	0xbda9b08e	-0.08285628
172	0xbcc28d2c	-0.023748957
173	0x3c2ff60d	0.010739815
174	0x3cdd5c89	0.027021663
175	0x3e25a998	0.16177976
176	0xbd2351d5	-0.039872963
177	0xbdad67f9	-0.08467097
178	0x3e619507	0.22029506
179	0xbe2123d9	-0.15736331
180	0x3b22bd14	0.0024831938
181	0xbdb33e8a	-0.08752163
182	0xbe2839f2	-0.16428354
183	0x3d1e6dae	0.038678817
184	0x3d306222	0.043062337
185	0xbd2f9ae8	-0.04287234
186	0x3d04b52c	0.03239934
187	0xbd1a1cb4	-0.03762503
188	0xbd8147be	-0.06312512
189	0xbc9055e2	-0.017619077
190	0xbe75dcfd	-0.24010082
191	0xbde851e6	-0.11343746
192	0xbbd8dcbc	-0.0066181105
193	0x3d22c50e	0.039738707
194	0xbd0e041d	-0.03467189
195	0x3d5a20d9	0.053253982
196	0xbdf5bb0e	-0.119985685
197	0xbc4603e3	-0.012085888
198	0xbcad3f5d	-0.021148378
199	0xbbc6927d	-0.006059943
200	0x3b8599d2	0.0040771747
201	0x3ebefb76	0.37301224
202	0xbd179cb4	-0.037014678
203	0x3d8828bf	0.06648397
204	0x3e00261b	0.12514536
205	0x3d9d8017	0.07690447
206	0x3d9565c6	0.07294802
207	0x3d5dac3d	0.054119337
208	0xbd8026d7	-0.06257408
209	0x3e30996f	0.1724603
210	0xbcc8fa05	-0.024533281
211	0xbd8a3e69	-0.06750185
212	0xbdaf2892	-0.0855266
213	0xbd861082	-0.06546117
214	0x3c8b4045	0.01699842
215	0xbd8dba1c	-0.06920263
216	0xbd94ad3b	-0.072596036
217	0xbd02a205	-0.031892795
218	0xbe38a1d5	-0.18030484
219	0x3e290709	0.1650659
220	0x3d162b7f	0.036662575
221	0xbd2efb1d	-0.04271995
222	0xbdcb3111	-0.09921468
223	0xbde1266b	-0.10993656
224	0xbdac3787	-0.084090285
225	0x3d640b6f	0.055674966
226	0xbdf2a652	-0.11848129
227	0xbd850c52	-0.064964905
228	0xbd656c5d	-0.056011546
229	0xbe0a3b28	-0.13499129
230	0xbe0b71db	-0.13617651
231	0x3e1e3715	0.154507
232	0xbcb0f1ec	-0.021599732
233	0xbdceb226	-0.10092573
234	0x3d2b8cea	0.041882433
235	0x3e97d239	0.29652575
236	0xbe516404	-0.20448309
237	0x3e68fe63	0.22753291
238	0xbdbd669a	-0.09248085
239	0xbda8941c	-0.082313746
240	0x3b48044b	0.0030520137
241	0x3d89a1db	0.067203246
242	0x3cd08705	0.025455007
243	0xbdb8a3fb	-0.09015652
244	0x3d8b1437	0.06790965
245	0xbdb02e1e	-0.08602546
246	0xbc240933	-0.010011959
247	0xba6b0f45	-0.0008966814
248	0xbe022e62	-0.12713006
249	0xbdc20007	-0.094726615
250	0xbdb5d13d	-0.088778
251	0x3e41024a	0.1884853
252	0xbe468c5b	-0.19389479
253	0x3d15a523	0.03653444
254	0xbc369ae0	-0.0111453235
255	0xbdb007ee	-0.085952625

mean.2.bias f4 [96]
0	0x3e351baa	0.17686334
1	0x3e192bbf	0.14958094
2	0x3d451e9a	0.048124887
3	0xbc109500	-0.008824587
4	0xbda31e50	-0.07964766
5	0x3d421b69	0.04738942
6	0x3e05fdba	0.1308507
7	0x3d59c965	0.05317058
8	0xbb5d1ca6	-0.0033739
9	0xbd96136b	-0.073279224
10	0xbda8a45d	-0.08234475
11	0x3d1693c1	0.036762003
12	0xbd2989af	-0.04139107
13	0x3df71152	0.120638505
14	0x3d09c45a	0.03363452
15	0xbd88e2da	-0.066838935
16	0x3c97a37b	0.01851057
17	0xbddf5868	-0.10905534
18	0x3d8c0582	0.06836988
19	0x3d70d069	0.058792505
20	0x3e02df86	0.1278058
21	0xbd20cbe7	-0.039256956
22	0xbca81230	-0.020516485
23	0xbc8ec3bd	-0.01742732
24	0xbbb6a9c7	-0.0055744383
25	0xbd19faba	-0.037592627
26	0xbdc55b5c	-0.09636566
27	0xbb8bc5c9	-0.004265521
28	0x3dcf3ce6	0.10119037
29	0x3e12e1ed	0.14343996
30	0x3af56ee9	0.001872507
31	0x3dc7bf4d	0.097532846
32	0x3d7fd5cd	0.062459756
33	0xbd86981f	-0.065719835
34	0xbdcd79e4	-0.100330144
35	0x3d68dd5c	0.05685173
36	0x3df3b468	0.11899644
37	0x3e036c80	0.12834358
38	0x3d068b02	0.032847412
39	0x3ddd9db9	0.10821099
40	0x3d3a9727	0.045554306
41	0x3c9fdc1a	0.019514132
42	0x3d24f0d3	0.04026873
43	0xbe22158d	-0.15828533
44	0x3e11af8c	0.14227122
45	0x3dcdd19e	0.10049747
46	0xbde0bcd2	-0.109735146
47	0x3bf96ec1	0.00761208
48	0xbbecb1f5	-0.0072233626
49	0xbda0988b	-0.07841595
50	0xbe2bbbc1	-0.16770841
51	0xbd4902da	-0.049074985
52	0x3d190f03	0.037367832
53	0x3db902f2	0.09033765
54	0x3da98648	0.08277565
55	0xbd90ca15	-0.07069794
56	0x3e047e15	0.12938721
57	0xbde81cd5	-0.11333624
58	0x3daec213	0.085331105
59	0xbdc9c734	-0.09852448
60	0xbdfef191	-0.12448419
61	0x3bd07ae9	0.0063623083
62	0x3cc53a83	0.024075752
63	0xba93daa7	-0.0011280373
64	0xbd887183	-0.06662276
65	0x3c9a82a7	0.018861128
66	0x3ca3e144	0.020004876
67	0xbc3a89f4	-0.01138543
68	0x3dac38d1	0.08409274
69	0x3d3167c3	0.043311846
70	0x3d99e44f	0.075142495
71	0x3d953a42	0.072865024
72	0x3df9d4d2	0.121987954
73	0xbd71368c	-0.05888991
74	0xbd236c94	-0.03989847
75	0xbdab48de	-0.08363508
76	0xbcc5fd4e	-0.024168637
77	0x3d4f9871	0.05068249
78	0x3ce9c055	0.028534094
79	0xbe0f53ab	-0.1399676
80	0x3d6c1edd	0.05764662
81	0x3d1c7d75	0.038205583
82	0xbc9f3d47	-0.019438399
83	0xbd6b4a6d	-0.057444025
84	0xbe232daa	-0.15935388
85	0xbda9c122	-0.0828879
86	0x3c132e5f	0.008983224
87	0xbd108152	-0.03527958
88	0xbd88f34c	-0.0668703
89	0xbd909d7f	-0.0706129
90	0x3c953719	0.01821475
91	0x3d5bd0f1	0.05366606
92	0x3d225ff5	0.039642293
93	0xbd22fa28	-0.03978935
94	0x3d01b9ca	0.031671323
95	0x3e487cdb	0.19578879

mean.4.weight f4 [4, 96]
0	0xbd378862	-0.0448078
1	0xbd131d0a	-0.035916366
2	0xbbcfda5b	-0.0063431687
3	0xbdc849f2	-0.09779729
4	0x3ef4a788	0.47784066
5	0x3e40330c	0.18769473
6	0x3d476e23	0.04868902
7	0xbe6f4d42	-0.23369315
8	0xbe43d95c	-0.19125885
9	0xbeb462c5	-0.35231605
10	0xbe3a191e	-0.18173644
11	0x3eb0520b	0.34437594
12	0xbdc66df5	-0.096889414
13	0x3ca9d245	0.020730147
14	0xbda6419f	-0.08117985
15	0x3e86bd43	0.2631627
16	0xbe9d06fb	-0.30669388
17	0xbbaf57a8	-0.0053510256
18	0x3e8b6085	0.27222076
19	0x3e83564e	0.25651783
20	0x3e9d748d	0.30752984
21	0x3de87a39	0.11351437
22	0x3d9bf7bc	0.07615611
23	0xbf0989ee	-0.5372609
24	0xbedb2e35	-0.4280869
25	0xbe7c7b58	-0.24656427
26	0xbe010793	-0.12600546
27	0x3d80b333	0.062841795
28	0x3e87cbbe	0.2652263
29	0xbd38a40d	-0.045078326
30	0xbe07b80d	-0.13253804
31	0x3e041f8d	0.1290266
32	0x3e89f5a4	0.2694522
33	0x3e826765	0.2546951
34	0x3d5de29a	0.054171182
35	0x3e1980e4	0.14990574
36	0x3e120d6c	0.14262933
37	0x3ed44869	0.41461495
38	0xbdaf8d77	-0.08571904
39	0x3b1a1f45	0.0023517173
40	0xbe830d98	-0.2559631
41	0x3f00e14b	0.5034377
42	0x3da26c18	0.079307735
43	0x3e0ae3c9	0.13563456
44	0xbdd0d442	-0.10196735
45	0x3e1778de	0.14792201
46	0x3ebcbaa0	0.36861134
47	0xbebf11ee	-0.37318367
48	0xbe9b54c8	-0.3033812
49	0xbdcfdc5c	-0.10149452
50	0x3d5ea4d7	0.054356422
51	0xbf03bb83	-0.51457995
52	0x3e3b3e2d	0.18285437
53	0x3d11c0bc	0.035584196
54	0x3dadc4b4	0.08484784
55	0xbe61cdbc	-0.22051138
56	0x3e3bd0c2	0.18341354
57	0x3d818d28	0.063257515
58	0x3e7802ce	0.2421982
59	0xbde4f2ca	-0.11179121
60	0x3db6c9ac	0.089251846
61	0xbce70e1e	-0.028204974
62	0x3e4b7ed9	0.19872607
63	0xbdbc8e03	-0.09206774
64	0x3ecae395	0.39626756
65	0xbe0c87aa	-0.13723627
66	0xbdead686	-0.11466698
67	0xbd1bb068	-0.03801003
68	0x3cb182cc	0.021668814
69	0xbd827f3f	-0.063719265
70	0xbdfdf217	-0.123996906
71	0x3e4cc7c3	0.19998078
72	0x3dac3104	0.084077865
73	0x3e54e7f9	0.20791616
74	0xbe208d86	-0.15678987
75	0x3e043e57	0.12914406
76	0xbea53633	-0.32267913
77	0xbb9ea5ab	-0.0048415265
78	0x3eec3e11	0.46141103
79	0xbf0471cf	-0.5173616
80	0xbe491408	-0.19636548
81	0xbe7a2183	-0.24426846
82	0x3ea04da2	0.3130923
83	0xbdfc40d4	-0.123170525
84	0x3dfdb6b1	0.12388361
85	0x3e207bfc	0.15672296
86	0x3e838901	0.25690463
87	0x3ccb6863	0.024830049
88	0xbd60bd25	-0.054867882
89	0xbd961c75	-0.073296465
90	0xbd4f2bd2	-0.0505789
91	0xbdbb54a9	-0.09147007
92	0xbc0767d1	-0.008264498
93	0x3eac002c	0.3359388
94	0xbd0e19df	-0.03469264
95	0xbe2d8358	-0.16944635
96	0x3e5a110e	0.21295568
97	0x3e2d8a65	0.16947325
98	0x3e0a9d8c	0.13536662
99	0xbd37fade	-0.04491698
100	0x3cbb6211	0.02287391
101	0x3d853f72	0.06506242
102	0xbdedf393	-0.11618724
103	0xbcd2998f	-0.025707988
104	0xbd99add4	-0.07503858
105	0xbdb455f6	-0.08805458
106	0x3c81c462	0.015840713
107	0x3e46b507	0.19404994
108	0xbe674aff	-0.22587202
109	0xbc955d76	-0.018233042
110	0x3e0590a1	0.13043453
111	0x3e1565de	0.1458964
112	0xbd649ea8	-0.05581537
113	0xbe16b2ce	-0.14716646
114	0xbcff798c	-0.031185888
115	0xbd59472f	-0.0530464
116	0x3d5c497f	0.05378103
117	0xbd8ac32d	-0.06775508
118	0x3e6ed699	0.2332405
119	0xbddac32a	-0.10681756
120	0x3d0dc40c	0.034610793
121	0x3db71771	0.08940018
122	0xbd95dace	-0.07317124
123	0xb9dbaba7	-0.00041898826
124	0x3e4c4d8d	0.19951458
125	0x3e520a29	0.20511688
126	0x3de9cd3b	0.11416098
127	0x3e1fda9d	0.15610738
128	0xbb9659d8	-0.004588347
129	0xbd73b8db	-0.059502464
130	0xbe803af3	-0.25044975
131	0xbc9e4496	-0.019319814
132	0xbc079f64	-0.008277748
133	0x3d5fa7e0	0.054603457
134	0x3d553d08	0.052060157
135	0x3e6c2911	0.2306254
136	0x3d3c38e5	0.045952696
137	0x3c9476b7	0.018123014
138	0x3df8edb5	0.12154714
139	0xbdd6107b	-0.10452362
140	0xbe28c3ba	-0.16480914
141	0x3e14e360	0.14539862
142	0xbd780dfc	-0.06056021
143	0x3c7b7c13	0.015349406
144	0xbe4a74cf	-0.19771121
145	0xbeb246d9	-0.34819677
146	0xbdf796bc	-0.12089297
147	0xbdd06abc	-0.10176608
148	0xbe0da2e7	-0.13831674
149	0xbcd59595	-0.026072303
150	0xbcc6fb94	-0.024289884
151	0xbe715c5c	-0.23570389
152	0x3d9ea0f1	0.07745541
153	0xbe8fe76d	-0.2810625
154	0x3e5cfd09	0.215809
155	0xbe5684c3	-0.20949082
156	0xbe6a746d	-0.22895975
157	0x3cdeebcf	0.027212052
158	0xbd704308	-0.058657676
159	0xbdee9e3d	-0.11651275
160	0xbc3ebc33	-0.01164155
161	0x3dd84251	0.10559524
162	0xbda82bb1	-0.082114585
163	0xbe447a5d	-0.19187303
164	0x3e56d7d1	0.20980765
165	0xbc977773	-0.018489575
166	0x3e7fd66d	0.2498414
167	0xbdc6bd31	-0.09704054
168	0x3e137277	0.14399134
169	0xbd80000f	-0.06250011
170	0xbe0b0dd2	-0.13579491
171	0xbe651c5a	-0.22374097
172	0x3db76561	0.08954883
173	0xbc02dd7a	-0.007987374
174	0xbd2d48d8	-0.042305797
175	0xbd8c8d80	-0.068629265
176	0xbe0f035a	-0.13966122
177	0xbdcd14d7	-0.100137405
178	0x3df6228d	0.12018309
179	0x3e17648f	0.14784454
180	0xbe4fec65	-0.20305021
181	0xbdf84268	-0.12122041
182	0x3dca689e	0.098832354
183	0x3e64dcc1	0.22349836
184	0xbe098381	-0.13429071
185	0xbe46c041	-0.19409277
186	0x3e841176	0.25794572
187	0x3df7acae	0.12093483
188	0xbd65ba0e	-0.05608564
189	0x3da718a7	0.08158999
190	0xbd3e3423	-0.04643644
191	0x3e4749de	0.19461772
192	0x3e1357d2	0.1438897
193	0x3e493c2a	0.19651857
194	0xbe96d293	-0.2945753
195	0x3e66291c	0.2247662
196	0x3e9b4be5	0.3033134
197	0x3e806bd9	0.2508228
198	0x3eb8d12a	0.3609708
199	0x3cb0eb4d	0.021596575
200	0xbe9e14d1	-0.30875257
201	0xbdc8dad8	-0.09807366
202	0xbd82756e	-0.06370054
203	0xbdf30fef	-0.118682735
204	0x3dffd0f5	0.12491027
205	0x3ea3ea67	0.32014772
206	0x3da0ded8	0.07855004
207	0x3e5caa2e	0.21549293
208	0xbe47700a	-0.19476333
209	0xbddcf338	-0.10788578
210	0x3eaaf15e	0.33387274
211	0x3ee93fe6	0.45556563
212	0xbe4b3dda	-0.19847813
213	0x3edc1b72	0.4298969
214	0x3d6b9020	0.057510495
215	0x3e23cda1	0.1599641
216	0xbe404efc	-0.1878013
217	0x3ba33cb1	0.0049816
218	0xbd6bd32b	-0.057574432
219	0xbed1ab27	-0.4095089
220	0x3c923c2d	0.01785096
221	0xbbf0a4a7	-0.007343847
222	0xbe3e8479	-0.18605222
223	0x3de4db3f	0.111746304
224	0x3ebbd20b	0.36683688
225	0x3d620ff2	0.055190988
226	0x3dc12426	0.09430723
227	0x3ea3edef	0.32017466
228	0x3d9c278e	0.07624732
229	0xbe215c94	-0.15757972
230	0x3e239a6c	0.15976876
231	0x3df3d4ac	0.11905798
232	0xbeace5cf	-0.3376908
233	0x3e1cc1b1	0.15308262
234	0xbedc0413	-0.42971858
235	0xbdeb2912	-0.11482443
236	0x3e9f65b0	0.3113227
237	0xbde604a4	-0.11231354
238	0x3dd729a7	0.105059914
239	0xbe721774	-0.23641759
240	0x3cae8659	0.021304296
241	0x3ceb02a4	0.028687783
242	0xbdafa061	-0.08575512
243	0x3e14c6fa	0.14529029
244	0x3e01cca4	0.1267572
245	0x3ed6da0a	0.41963226
246	0x3e692f4f	0.22771953
247	0xbddc17bc	-0.107467145
248	0x3e63cf02	0.22246936
249	0xbdb0362b	-0.08604082
250	0x3e60bd39	0.21947183
251	0xbe646e4e	-0.22307703
252	0x3d2a57e3	0.04158772
253	0xbe3c7fb0	-0.18408084
254	0x3e6225a0	0.22084665
255	0x3ea71101	0.3263016

mean.4.bias f4 [4]
0	0xbd64e2a5	-0.055880208
1	0x3dbd2b40	0.09236765
2	0x3d89a4f1	0.06720913
3	0x3d204c2a	0.039135136

exp_avg f4 [4]
0	0x377295d8	1.4459212e-05
1	0x3807f788	3.241704e-05
2	0xb842f93b	-4.648532e-05
3	0x378e8e0b	1.6993863e-05

exp_avg_sq f4 [4]
0	0x33f98174	1.16185134e-07
1	0x340be5a8	1.3028932e-07
2	0x34174fb8	1.4091972e-07
3	0x340cf9a8	1.312934e-07
