model/walker.pt (torch_old, 681790 bytes, 24 tensors)

logstd f4 [4]
000000 61 fb 5b be e4 db 4a bf 6f 7e 76 bf d6 df 48 3e
       -0.21482612 -0.79241776 -0.9628667 0.19616637

critic.0.weight f4 [192, 24]
000000 86 56 bb bc 64 f3 05 3e 66 2b 58 be 23 f7 86 3e
       -0.022868406 0.13081127 -0.21110305 0.26360425
000010 0c d9 f7 bd 27 c8 b9 3d 17 bd 38 bd 95 28 93 3d
       -0.12101945 0.09071379 -0.045102205 0.07185475
000020 f5 50 89 bd 41 b4 8b be 0b f2 13 be a2 57 2d be
       -0.067048945 -0.2728596 -0.14447801 -0.1692796
000030 99 23 00 be f0 f7 05 be 52 52 f8 3d fa 47 85 bd
       -0.1251358 -0.13082862 0.12125076 -0.06507869
000040 b5 40 99 3d e8 7c 15 3e d4 b1 1c 3e 92 13 65 3e
       0.07483045 0.14598429 0.15302211 0.22370747
000050 c5 a1 21 be 37 99 57 3e f3 13 77 3d 8a 3a b8 bd
       -0.15784366 0.2105454 0.06032176 -0.089955404
000060 ea a7 d6 3d d8 2f 41 3f 3f bf c4 bd 0f 2c 90 be
       0.10481246 0.7546363 -0.0960679 -0.28158614
000070 66 e5 bb 3c 38 03 06 3e b6 ea f4 bd 2b cd a6 3d
       0.022936534 0.13087165 -0.1195883 0.081446014
000080 a9 82 9b be 63 aa a5 bc 0c 93 29 bd ff 98 b0 3b
       -0.30373123 -0.020222848 -0.0414 0.0053893323
000090 99 f5 b2 bd 89 fa 37 be 62 f9 2d 3e 3f ae d1 3d
       -0.0873825 -0.17966665 0.16989663 0.10238313
0000a0 7a a1 b9 bd 15 09 2e be 5e 15 d1 bd fa e4 de 3b
       -0.09064002 -0.16995652 -0.102091536 0.0068021985
0000b0 7d bf 9a bd 08 79 ed bd 34 63 19 3e 39 c0 8f 3d
       -0.07556055 -0.115953505 0.14979249 0.070190854
0000c0 9f 5b 31 3e c0 e0 55 3e f5 a5 c0 be c1 44 d6 bb
       0.17320107 0.20886517 -0.37626615 -0.006538958
0000d0 e2 9a a6 3e 07 c8 65 3d 94 c3 1c 3e cc 85 d9 3d
       0.3254004 0.056098964 0.15308982 0.10621223
0000e0 0a ed 81 be df cc a8 bc 79 53 d8 bd 18 95 03 be
       -0.2537616 -0.020605503 -0.10562796 -0.12849844
0000f0 bc 7b 03 bd f4 5b ee bb bb 3f 32 3d 3a 4d b8 3d
       -0.032100424 -0.0072741453 0.04351781 0.08999105
000100 13 2b 33 3e 9e 9c 1b 3e 6f 5c 11 3e 3e 25 dd 3d
       0.174969 0.15196463 0.14195417 0.10798119
000110 2f 9c dd 3c 63 6a 83 3d a8 ac 57 be 08 e0 42 bd
       0.027052013 0.06416776 -0.21061957 -0.047576934
000120 68 fb f7 3d a5 c3 dc 3e d8 20 37 bd 74 30 79 3e
       0.12108499 0.43118015 -0.044709057 0.2433489
000130 d5 22 38 bd 58 ed 29 bd 95 5e 18 be 53 aa 30 bd
       -0.044955093 -0.041486114 -0.1487983 -0.043131184
000140 62 16 0f be 0d 9e 2f be c3 fb 08 3d e8 3c c5 3d
       -0.13973382 -0.17150135 0.033443224 0.096307576
000150 09 b1 a1 bd 9b b0 a9 bd 5b 6c 57 bd 0f 9e 44 3e
       -0.07895095 -0.08285638 -0.05259357 0.1920092
000160 bf 4c 55 3e 1e 3d 6f 3e d3 bd 02 be 8e 8d 64 3e
       0.20830058 0.23363158 -0.12767725 0.22319624
000170 83 9c 84 3e b2 b5 3e 3e 50 9d c4 bd f0 b9 31 3d
       0.2590066 0.18623999 -0.096003175 0.043390214
000180 ac a1 6a be 50 17 39 3e a7 cd 48 be 99 8f 9e be
       -0.22913235 0.180753 -0.196097 -0.3096893
000190 68 b4 03 bd 01 81 30 3d 7e 26 45 be 90 a3 26 3b
       -0.03215447 0.043091778 -0.19252965 0.002542708
0001a0 b7 95 64 3e f7 03 58 3b cf d0 e0 bd 46 33 da bb
       0.22322737 0.0032961348 -0.10977327 -0.0066589443
0001b0 7a a4 8f 3d 95 55 97 bc a9 db 6e be 86 15 3b be
       0.07013793 -0.018473426 -0.23325981 -0.1826993
0001c0 9a 97 16 be f0 75 11 3e 71 2f 4e be 21 5d 93 bb
       -0.14706269 0.14205146 -0.20135285 -0.004497186
0001d0 46 2a c5 3d 7d 93 ba 3d 57 1b 35 be 39 ed 19 be
       0.09627204 0.091101624 -0.1768621 -0.150319
0001e0 08 68 02 be 3b 0e e0 3c 6d b1 36 3e 8b 18 16 3e
       -0.12734997 0.027350536 0.1784112 0.146578
0001f0 16 3a 42 3e 86 78 05 be 70 25 37 3d 27 ff 51 bc
       0.1896747 -0.13034257 0.044713438 -0.012817181
000200 5b 72 5a 3e ba 07 f4 3d 76 de dd bd 4d ad a9 3d
       0.21332686 0.11915536 -0.10833447 0.082850076
000210 0d 47 4f bc 81 35 b0 bb 39 1f b4 3c 35 5a 53 bd
       -0.012651217 -0.005377472 0.021987544 -0.0515997
000220 d3 c0 9d bd 38 24 8e bd e0 e8 a3 bd 1b 73 7a bd
       -0.07702794 -0.06940502 -0.08003402 -0.06114493
000230 f2 c5 5f 3e d6 f6 08 be 67 0b 19 3e d6 02 24 3e
       0.21852854 -0.1337541 0.14945756 0.16016707
000240 32 d8 c7 bd 25 76 91 3d b5 2c 8a 3d 6b 94 da be
       -0.09758033 0.071026124 0.067468084 -0.4269136
000250 af cc d2 bd 0d fd 96 bd 4a 56 15 3b cc 6c 47 3d
       -0.102929465 -0.07372484 0.0022787028 0.04868774
000260 98 6b 4c 3d 37 dd 1e 3e 00 99 ee 3c 51 9f 37 bd
       0.049907297 0.15514074 0.02912569 -0.04482967
000270 84 30 59 3b 85 00 f6 bd 84 3a d7 bd 96 fa 62 be
       0.003314049 -0.12011818 -0.10509208 -0.22165903
000280 52 db dc 3c 81 15 fb 3c 17 92 17 be 3a 59 4b be
       0.026960049 0.030649902 -0.14801823 -0.19858256
000290 ba ef 27 3e 96 8e ee bc 9e 98 94 3d 37 31 2c 3e
       0.16400042 -0.029120725 0.07255672 0.16815649
0002a0 bd de 3f be 44 9b f4 be 91 23 41 be 2a 56 aa be
       -0.18737312 -0.47774708 -0.18861224 -0.33268863
0002b0 37 bd 72 bd 13 78 08 3e 0f 35 2e 3e e6 0b 83 3c
       -0.05926248 0.13327055 0.17012428 0.015996885
0002c0 9f e1 ab bc 05 00 39 3d 96 cf cd bd 25 b6 86 be
       -0.020981608 0.045166034 -0.100493595 -0.2631084
0002d0 8e f3 b6 bd 32 d3 c0 3c 43 0e 42 be 54 e2 09 be
       -0.08933173 0.023538206 -0.18950753 -0.13465244
0002e0 23 11 20 be 86 3a 34 be 2b 73 d1 3d 5f a6 39 3d
       -0.15631537 -0.1760045 0.10227045 0.04532468
0002f0 9e d2 37 3e 84 0c 27 be 83 76 97 3d 81 14 15 bd
       0.17951438 -0.16313368 0.07395651 -0.036396507
000300 d5 88 75 be 02 1d f9 be ab 58 3e be a0 40 9b bd
       -0.23977979 -0.48654944 -0.18588512 -0.075806856
000310 2b 68 55 bc 6b 1d 1d be 84 a9 d1 3b 4e f1 9d bd
       -0.013025324 -0.15343253 0.0063983817 -0.07712041
000320 a3 ae c4 bd 3a 1d f7 3c 35 a5 ff ba e6 24 26 bc
       -0.09603622 0.030165303 -0.0019504192 -0.010140633
000330 c0 51 a7 3c a4 68 a6 3c d7 54 67 be 2f e6 e3 3c
       0.020424724 0.020313568 -0.22590958 0.027819721
000340 64 c7 d9 3d 3c 3c d0 3d 2b 98 01 bd f1 21 24 3e
       0.10633734 0.10167739 -0.03163926 0.16028573
000350 bf 44 44 be 62 44 04 be a8 69 23 bd 82 57 a2 3d
       -0.1916685 -0.12916711 -0.039895684 0.07926847
000360 44 71 8a bd 89 a0 d2 3e 57 06 7d bc 42 29 89 3d
       -0.06759885 0.41138104 -0.015443406 0.066973224
000370 cb 81 a0 3d 10 13 2f 3d 2c 42 b4 bd 5f 66 e0 3c
       0.07837256 0.04274279 -0.08801684 0.027392564
000380 ae 89 99 bd 9c 79 3c be d2 0e 79 bd d3 3b 8f 3d
       -0.074969634 -0.18405765 -0.06080515 0.069938324
000390 f1 2d a0 bc 13 4e 97 bd 73 90 3a be e0 aa 5c 3e
       -0.019553157 -0.07387938 -0.18219166 0.21549559
0003a0 b5 82 4e 3e 65 3c 8d 3d ac eb 62 3e c1 26 46 3e
       0.20167048 0.06896285 0.22160214 0.19350721
0003b0 b4 ba 80 3d 05 05 29 be d4 fc a6 bd 8f d9 4c bd
       0.06285611 -0.16505821 -0.08153692 -0.050012168
0003c0 17 fe 7c be d0 52 b2 be ec ff 80 bc 94 59 ab 3c
       -0.24706303 -0.34828806 -0.015747033 0.020916738
0003d0 87 5d 46 be a8 f9 5e 3d e0 64 4f be 10 2f 91 bd
       -0.19371615 0.05443731 -0.20253325 -0.070890546
0003e0 8a b1 94 be ba 9e 09 be 93 3c 49 bd ca 53 b7 3d
       -0.29041702 -0.13439456 -0.049130034 0.08951528
0003f0 11 36 75 bd 76 8c bd 3c 03 ef 10 be 78 e6 1a be
       -0.059866015 0.023138266 -0.14153676 -0.1512698

critic.0.bias f4 [192]
000000 5f 9e a2 3d 66 55 a4 3e 7f d2 fe bd 39 84 76 be
       0.07940363 0.32096404 -0.12442493 -0.24073876
000010 b2 91 1a 3d 9a 89 66 3e 48 66 1b be 43 f6 f1 bd
       0.037736602 0.22513428 -0.15175736 -0.11814549
000020 3a 42 5d be 99 9d c2 bb 6f 49 5d 3d e3 4d a8 bd
       -0.21607295 -0.0059391973 0.05402511 -0.08217981
000030 03 e4 bc bb d1 82 87 3d d1 9e da 3d 7a 6b 38 3b
       -0.005764486 0.06616748 0.10674823 0.0028140233
000040 36 c4 8c 3d 2a 06 49 bd 26 10 cc 3d cf 84 ca 3d
       0.06873362 -0.049078144 0.099640176 0.098886125
000050 0e 4c 82 3e f4 a1 93 3b ed 7d 10 be 3d 00 ba bc
       0.2544865 0.0045053903 -0.14110537 -0.022705192
000060 4b 32 ce bd bd 56 ff 3d bc c0 25 be 40 61 8f bd
       -0.10068186 0.12467716 -0.16186804 -0.07000971
000070 50 b8 07 bd d6 80 c2 3b 4b 28 f0 bc 74 d9 da bd
       -0.03313476 0.0059357686 -0.029316088 -0.10686007
000080 c8 58 e6 ba 72 2c b2 3c 3f 12 1d 3e a3 18 28 3d
       -0.0017574066 0.021749709 0.15338992 0.04103912
000090 5a b3 27 3e 17 6c 06 3e 99 7b 95 3e 92 00 1b 3d
       0.16377011 0.1312717 0.2919586 0.03784234
0000a0 4b 68 ce bd 2d 88 03 3e 20 52 2f 3e f9 45 89 3d
       -0.10078486 0.12844916 0.17121172 0.06702799
0000b0 eb 2a 2a 3e 16 7c 39 be ee 26 2b be ba 60 1f bd
       0.16617934 -0.18113741 -0.16714069 -0.038910605
0000c0 1e 40 11 3c 2e 8b 7f bc f3 c5 d0 3d cd 14 0b bc
       0.008865384 -0.015597148 0.10194006 -0.008488846
0000d0 e8 2c 6f 3d 44 bb 41 3e 9a 10 e9 3d 09 c4 76 3d
       0.058392435 0.18919092 0.113801196 0.060245547
0000e0 1f 0f a8 3d 32 39 f8 bd bc 1f 4e 3d d0 9a df bb
       0.08206009 -0.12120284 0.050323233 -0.006823875
0000f0 cc 67 31 be 1a 67 d2 bd bd b8 17 3e 69 d8 14 bc
       -0.17324752 -0.10273571 0.14816566 -0.009084799
000100 2a 09 8f be d4 29 05 3d ac 58 94 3d 15 1c 9d 3d
       -0.2793668 0.032510594 0.07243475 0.07671372
000110 b9 9b 16 bc 12 c2 08 bc d5 f7 41 3e fa f7 ce bd
       -0.009192401 -0.008347051 0.18942197 -0.101058915
000120 f0 67 4a 3d d2 4b eb bd 55 07 13 be 25 5f 42 be
       0.04941553 -0.11489071 -0.14358266 -0.18981607
000130 e7 a5 0e 3e af 93 37 bd 16 23 88 bd 88 07 39 be
       0.13930474 -0.044818576 -0.06647317 -0.18069279
000140 af 98 5a bd e4 50 93 3e c3 9c e4 3d 65 49 40 bd
       -0.053368267 0.28772652 0.111627124 -0.046944994
000150 0e 5a 32 bd cd d2 86 3d fb 00 25 3c 6f 8e fa ba
       -0.043542914 0.06583176 0.010071035 -0.0019115935
000160 16 3b 22 3d a6 1e 62 bd be c2 6e be 3e 95 27 be
       0.03960713 -0.05520501 -0.23316476 -0.16365525
000170 85 02 5e 3e 27 d7 8e 3e 55 8a db 3c e1 12 f2 bd
       0.21680649 0.27898523 0.02679936 -0.11820007
000180 f1 7d 66 bb 78 91 ec 3d 46 12 0f 3e d9 af 0d be
       -0.0035170282 0.115511835 0.13971815 -0.13836612
000190 5e 02 1c 3e 07 3a b2 3d 59 41 e3 bd 2c c5 12 be
       0.15235278 0.08702474 -0.110964485 -0.14333028
0001a0 f3 a0 33 be bb 8c 37 3e 33 cf 46 3d 2b 2d a3 3d
       -0.17541866 0.17924778 0.048537444 0.079675995
0001b0 f8 f9 06 3e e4 9e 25 3d 5a 67 3f be 57 6f 6b 3d
       0.13181293 0.040434733 -0.18691769 0.05747923
0001c0 da 33 cc bd 78 21 40 3e 02 cc 17 3e 5e 2c d3 3d
       -0.099708274 0.18762767 0.14823917 0.10311197
0001d0 e4 ea 81 3d 63 fd 08 3e f6 f0 61 bd 62 08 32 3e
       0.0634363 0.1337791 -0.05516144 0.1738601
0001e0 81 1e 2d 3c ec ef 8f 3d d4 13 e6 bd aa 26 c0 3d
       0.010566355 0.07028183 -0.11234251 0.093823746
0001f0 44 de bd bd 0e 5e 46 bd b4 93 a2 3d 98 36 00 bd
       -0.092709094 -0.04842954 0.079383284 -0.031302065
000200 6d ef 0c 3e ab 89 2a be da 75 14 bd 1f c4 bb 3c
       0.13763209 -0.16654079 -0.036245205 0.022920666
000210 1d da 4d 3e 37 90 18 be a1 66 ea bb 65 a1 da bd
       0.20102735 -0.14898764 -0.0071533476 -0.10675315
000220 6a 0a 10 3e f3 aa e5 3d e5 27 40 be 81 76 4b 3d
       0.14066473 0.112142466 -0.18765219 0.04967356
000230 33 37 ac bd 38 67 63 3e d4 8b 16 bd 0f 18 b5 3d
       -0.08408966 0.22207344 -0.036754444 0.088424794
000240 62 7a b7 3d b2 87 2b be 06 b9 38 be 57 7a a2 3d
       0.089588895 -0.16750982 -0.18039331 0.07933491
000250 3f 2f c6 bd c6 f6 cd bd 66 c8 0d be 37 c3 0e 3d
       -0.0967698 -0.10056834 -0.13845977 0.03485414
000260 d6 d9 23 be 53 ec 4b 3e 95 cf 15 3e 13 d7 1a bd
       -0.16001067 0.1991437 0.14629968 -0.037802767
000270 86 50 4c bc 5a 1c 53 bd ff 34 79 3d 91 54 ee bd
       -0.01247037 -0.05154071 0.060841557 -0.116372235
000280 8c 41 6d 3e 42 0b 81 be 32 66 00 be c6 c8 bd 3d
       0.23169535 -0.25203902 -0.12538984 0.0926681
000290 77 a8 20 3e 88 a0 24 3e 9e 0e e7 bd eb 44 a2 3c
       0.15689264 0.16076863 -0.11282085 0.019808253
0002a0 04 42 3e 3d fe 66 7d bd a5 58 a0 bd 33 1c 44 bb
       0.046449676 -0.0618658 -0.078294076 -0.0029924035
0002b0 45 9b 83 3d 15 1b 5e bd af 32 cb 3d 1b 1c 60 3d
       0.064261 -0.054225046 0.099217765 0.054714303
0002c0 f6 44 81 3d 35 c5 66 3e ca e8 46 3d 14 2f 1a bd
       0.063119814 0.22536166 0.04856185 -0.037642553
0002d0 52 8b dd 3d 9a ae 00 3e 87 96 3d 3e 0f 81 36 3e
       0.10817589 0.12566605 0.18514453 0.1782267
0002e0 7a ee 2c be 31 c4 f4 3d 62 d2 14 bd d8 2a 06 3e
       -0.16887847 0.11951483 -0.03633345 0.13102281
0002f0 46 c9 84 be d1 de 27 3c 95 71 0c 3d 03 dd c4 bd
       -0.2593481 0.010245995 0.034288008 -0.09612467

critic.2.weight f4 [192, 192]
000000 e6 a9 09 bd 66 a7 4d 3d c5 2f e5 bd 53 42 8c bd
       -0.033609293 0.05020847 -0.11190752 -0.06848588
000010 66 6b 8b bb 85 7c 3d bd 10 78 8c bd 96 b9 b5 3d
       -0.0042547463 -0.04626133 -0.068588376 0.08873288
000020 42 34 aa 3d eb 95 b3 bd 78 94 ac 3c 20 22 73 bd
       0.08310749 -0.08768829 0.02106689 -0.059358716
000030 80 91 94 bd 21 39 2e bd 2c 24 f1 bc 6e 7f a4 bd
       -0.072543144 -0.04253495 -0.029436193 -0.08032118
000040 a1 3b 9b 3d 93 ec 24 be 1b e0 e6 3d 87 29 8a bd
       0.07579733 -0.16105871 0.112732135 -0.06746202
000050 41 4f e6 bd 6f 2e 5c bc b7 59 3b bd 61 b9 47 be
       -0.11245585 -0.013438805 -0.045739856 -0.1950431
000060 79 6a 22 3d 2e 7c 05 3d 6c b1 2d 3d fe 5b f2 3d
       0.03965232 0.03258913 0.04240553 0.11833952
000070 06 be 9a bb 86 a3 1d 3d b7 2f fc 3b 10 a8 9c 3d
       -0.0047223596 0.038486026 0.0076961177 0.07649243
000080 ce fe 06 3e b7 06 df 3c df a9 0d 3d 08 67 51 bd
       0.13183138 0.027224882 0.03458583 -0.05112365
000090 0c 0c 5c bd cd 38 95 3d b5 ab 26 be 30 cc bb 3c
       -0.053722426 0.072862245 -0.16276439 0.022924513
0000a0 77 8c 89 bc b0 87 19 3c 0c d3 9b 3d 23 d8 b4 3d
       -0.016790612 0.009370729 0.07608613 0.08830287
0000b0 c5 4e 83 bc 46 71 96 3c 44 3a 8e bd 61 e1 de 3a
       -0.016028771 0.01836456 -0.06944707 0.0017004424
0000c0 81 ed 9b 3d 66 3d a7 3c c1 65 d2 3d 4f 09 6c bd
       0.0761366 0.02041502 0.10273314 -0.057626065
0000d0 59 d6 29 3d 40 b6 0e 3d 21 37 e5 bc f0 ce 61 be
       0.041464183 0.034841776 -0.02798039 -0.22051597
0000e0 08 ed 97 3c 83 ba 94 bd 5d 49 2b bc eb 8e 68 3d
       0.018545642 -0.07262137 -0.010454503 0.056776922
0000f0 85 22 0b bd a1 23 8d bd bf d0 5f bd 44 09 2c be
       -0.033968467 -0.06891561 -0.054642435 -0.1680041
000100 c4 f4 17 bd 6c 54 ca bd 9a 13 96 3d 89 7f a8 bd
       -0.03709866 -0.098793834 0.073279575 -0.082274504
000110 6a 56 be bd e9 e5 3d 3d 35 01 b3 bc 94 0f 32 bd
       -0.09293826 0.046361838 -0.021851161 -0.043471888
000120 68 57 b1 bd 96 34 33 bd 2b 67 36 bd 77 ba 1f bc
       -0.086592495 -0.04375132 -0.044531982 -0.0097490465
000130 a4 03 95 3d ac 1e 17 3e 46 ad a6 bd 01 16 b3 bd
       0.07276085 0.14757794 -0.08138518 -0.08744431
000140 bd 9d d5 bc b3 94 c7 3b 97 61 b9 bd 22 fe 73 3d
       -0.026076192 0.0060907244 -0.09051817 0.05956853
000150 02 54 01 be 10 0e ff bd 65 bf a8 bd d8 c1 85 bd
       -0.12629703 -0.12453854 -0.082396306 -0.065311134
000160 66 38 4f bc 26 fe 11 3d 6b 36 c1 bc 52 c9 a3 bc
       -0.012647724 0.035642765 -0.023585519 -0.019993458
000170 34 13 bd 3b cf 5f b9 bc a3 09 41 3d 06 60 10 be
       0.0057701115 -0.022628693 0.04712833 -0.1409913
000180 90 6d 6e 3d 96 11 97 3d 0a 45 c4 bd b2 0d 17 bc
       0.058209956 0.07376401 -0.09583481 -0.009219574
000190 ef 88 41 3d e3 4b 6e 3c 74 60 9c bd 8a f1 a2 bd
       0.04724973 0.01454446 -0.076355845 -0.07956226
0001a0 90 bf 44 3d 41 d7 98 3d 15 cd 83 bc 92 59 9f bd
       0.04803425 0.074629314 -0.016089002 -0.07780756
0001b0 ef a2 9e 3c 86 d9 af bd fb 1e 0e bd 7d 01 20 bd
       0.019364802 -0.08586411 -0.034697514 -0.03906392
0001c0 ce 17 ab bd 8c f5 b6 3c 71 40 b5 bd 35 dc 1f bd
       -0.0835415 0.022333883 -0.08850182 -0.039028365
0001d0 d9 62 4d bc ce f0 cb bd c5 47 17 bc db 37 84 3d
       -0.012535774 -0.09958039 -0.00923342 0.06455966
0001e0 57 77 0e 3e 65 f5 31 3d 91 a2 e8 bc 8c 24 80 3c
       0.13912712 0.043446917 -0.02839783 0.015642427
0001f0 e9 90 ab bd 67 a9 b7 3d bc b7 92 bc 8f 81 bc 3c
       -0.08377249 0.08967858 -0.017909877 0.023010997
000200 d7 45 56 3d 9d 22 79 3d 09 f7 71 bb 2d 0b 74 bd
       0.0523127 0.060824025 -0.0036920926 -0.05958097
000210 7e 17 cb 3d 8b fa 32 be db 5d 27 3d b9 35 6d bd
       0.0991659 -0.17478387 0.040860992 -0.057912562
000220 de b5 0f bd cd 2b b5 bc 65 b4 0d bc ae c8 85 3c
       -0.03508555 -0.022115612 -0.008648966 0.016331043
000230 47 da 0b 3e ad f1 d5 3d 37 28 4b 3c d5 fa 3e 3c
       0.13657485 0.104464866 0.012399725 0.011656483
000240 d6 cc f3 3d 67 61 97 3d bf cf 69 bb cb f1 83 bd
       0.11904304 0.07391625 -0.0035676805 -0.06442603
000250 57 f0 0a 3d 3d d1 8d bd a1 17 ed bd 47 22 7a bd
       0.033920612 -0.06924675 -0.115767725 -0.061067846
000260 4b fc 65 bd 36 58 99 bc 21 80 ad 3c 52 95 8b bc
       -0.05614881 -0.01871882 0.02117926 -0.017038975
000270 65 65 2b 3d 2d 4b 8b 3c 3e a0 59 3d e9 2a 04 3d
       0.041844744 0.01700362 0.053131334 0.032267485
000280 97 38 13 3e 26 91 0d be 16 7e 66 bd d0 69 00 bd
       0.14377056 -0.13824901 -0.05627259 -0.03135091
000290 40 1b 51 bc 69 e8 12 3e 38 dd 6d bd 5f db 35 3d
       -0.012762845 0.1434647 -0.0580723 0.04439866
0002a0 e4 a2 8d bd d5 38 2d 3e ab 38 e0 bc 7e 94 95 bb
       -0.069158345 0.16916211 -0.027370771 -0.004564821
0002b0 ed 79 ca 3d 10 c6 20 3b 5f 94 8e 3d 25 07 72 bd
       0.09886537 0.0024532117 0.06961893 -0.059088845
0002c0 87 85 03 3d 6b 0e 70 bc ff 71 c3 3d cb 20 07 bd
       0.032109763 -0.014651875 0.095432274 -0.03299026
0002d0 d1 79 98 3b 07 da 2d bb 63 19 d9 bd 0b 4e 48 3d
       0.0046531935 -0.002652766 -0.10600545 0.048902553
0002e0 21 1b 5b 3c 69 b2 98 bb 1a 62 fa bb 55 7a 7b bd
       0.013373167 -0.00465994 -0.007641089 -0.06139596
0002f0 cc a6 28 3d 66 77 f6 bd 63 27 31 3a bb cd 39 bd
       0.041174695 -0.12034492 0.0006757883 -0.045362215
000300 13 74 6e bc 76 d6 1e 3e c4 ee db bd f1 5c ce bd
       -0.014554041 0.15511498 -0.107389 -0.10076321
000310 7e 98 1f bd 04 c2 20 3d b6 21 9a 3b f6 99 0e 3c
       -0.038963787 0.039247528 0.0047037257 0.008703699
000320 5e cc 7a bd d8 94 91 bb c1 0b 28 bc 1a 6a 5d bd
       -0.061230056 -0.0044427924 -0.010256709 -0.054056264
000330 8b 5c 5a 3c f3 6e bb 3d d4 3e 1d bd 17 d6 32 3d
       0.013327728 0.09152021 -0.038389996 0.043661203
000340 98 54 1b 3c c6 fb 10 bd 70 77 df 3d f6 74 4d 3d
       0.009480618 -0.03539636 0.10911453 0.05016037
000350 c1 be e1 3c 95 af 1f 3d 6e bf 08 3d c1 78 b4 bd
       0.027556779 0.038985807 0.033385687 -0.088120945
000360 10 77 15 3d 62 16 64 3d 4e 35 b4 bd 7f 05 14 bd
       0.0364905 0.05568541 -0.087992296 -0.036138054
000370 ce eb c0 3d 41 7b 23 bd 8f 7e 3e 3c 45 a0 bb bd
       0.09419976 -0.039912466 0.011626854 -0.09161428
000380 6d c4 93 3d d1 28 77 bd 7b 13 be 3d a3 d5 49 bd
       0.072151996 -0.06034166 0.09281059 -0.049276005
000390 da b2 5b 3d c7 70 23 3d 71 80 79 bc 37 84 04 3e
       0.053637363 0.039902475 -0.015228377 0.12941061
0003a0 aa 24 7b bc d8 16 a6 bc b0 d6 32 3d 0b 0f 34 bd
       -0.015328566 -0.020274565 0.043661773 -0.04395966
0003b0 58 ee 99 3d 1c 66 4e bc 8e 2a 6b 3d 80 df 55 3d
       0.075161636 -0.012597587 0.05741363 0.0522151
0003c0 31 8c 35 3d b1 70 ed bc 02 8d e8 3d a8 72 04 bd
       0.04432315 -0.0289844 0.1135502 -0.032335907
0003d0 d2 a8 6b 3d 90 4d a6 3d cc 67 a0 bd 1f 68 37 3d
       0.057534046 0.081202626 -0.07832298 0.044777032
0003e0 7d 79 be bc a4 f5 a0 bd 0d 02 36 3c a7 4b 88 bd
       -0.02325129 -0.07859352 0.011108887 -0.066550545
0003f0 26 8b 10 bd 96 7f ff bc c6 dc 0e 3b 1d fd cd bd
       -0.035288952 -0.031188767 0.0021799072 -0.10058043

critic.2.bias f4 [192]
000000 f6 17 d3 3c 93 63 01 3e 34 f9 b1 3d 00 3b 1c bd
       0.025768261 0.12635641 0.0869011 -0.038142204
000010 8e 58 da bc f2 b0 bd bc 47 80 f5 bd df 26 6a bd
       -0.026653554 -0.023155663 -0.119873576 -0.057165977
000020 d8 fd 71 3d cb 9b 05 bd be 10 4e 3c 35 7e 11 3c
       0.059079975 -0.03261928 0.012577234 0.008880188
000030 cc dc 98 bd c0 1d 9c bd df c1 9c bd 99 71 9b bb
       -0.07463989 -0.07622862 -0.076541655 -0.0047437665
000040 58 68 35 3d e1 a8 62 3b 6e a7 a3 3b 0e 00 e5 bc
       0.044288963 0.0034585523 0.0049943244 -0.027954128
000050 c5 96 6a 3c 35 bb f0 bc f8 98 2f 3d 3b 2c 4f 3d
       0.014318173 -0.029386142 0.04287049 0.05057929
000060 80 fa 60 bd 12 43 f0 bd 52 0c 2d 3d b3 2b e8 bc
       -0.054926395 -0.11731543 0.042248078 -0.02834115
000070 4d f9 28 ba e5 b4 00 3d 0a ca bf bc a0 94 b8 bb
       -0.000644584 0.031422514 -0.02341177 -0.005632952
000080 3c e5 93 bd 58 5a 14 bd d6 fd 04 3d a8 bf 7b bd
       -0.07221457 -0.03621897 0.03246864 -0.061462075
000090 b4 cc 1d bc b0 27 d7 bd ed f2 92 3d 99 42 73 bc
       -0.009631325 -0.10505617 0.07175241 -0.014847421
0000a0 23 e8 82 bc 7b dc c9 3c e6 4c 4e bd b8 d1 a4 3d
       -0.015979832 0.024641266 -0.050366305 0.08047813
0000b0 7d 90 fe 3c 29 fd 71 bd 69 e4 a4 3d c2 1d b1 bd
       0.031074757 -0.059079323 0.08051378 -0.08648254
0000c0 cf 82 84 bd 48 76 4e bd 66 e1 68 bd d9 95 40 3d
       -0.06470262 -0.05040577 -0.05685558 0.047017906
0000d0 52 65 7a 3d 2a 60 91 bd a7 9a 35 3d ad da c4 bc
       0.061131783 -0.0709842 0.04433694 -0.024030054
0000e0 e7 3d 14 bd 28 ab 1b bd 26 e9 de bc 0a a2 b0 3b
       -0.036191847 -0.038005024 -0.027210783 0.0053904103
0000f0 01 53 23 3d 74 ca 81 3d 9d c2 79 3b b0 84 bc bb
       0.03987408 0.06337443 0.0038110383 -0.0057531223
000100 f5 c6 83 3c b7 94 0d 3c c2 f7 e9 3c aa 39 6d bd
       0.016086081 0.008641413 0.028560523 -0.05791632
000110 f5 a5 71 bd 2d 4b a3 3d 43 1d ad 3d c8 e6 5d bb
       -0.05899616 0.07973323 0.08452847 -0.003385948
000120 11 ed 48 bd 22 37 2d 3d 5a b9 83 3c 95 a1 82 bc
       -0.04905421 0.042288907 0.016079593 -0.015946189
000130 e7 45 27 3d 85 7e a1 bc 5c 12 1c bd 25 34 ec bc
       0.04083815 -0.01971365 -0.038103446 -0.028833458
000140 c1 ad 7c 3c eb da 93 3c ec 5d 69 bc 88 20 43 3d
       0.015422286 0.018048724 -0.014243584 0.047638446
000150 86 2c 7a 3c ff 7c 57 3c 65 c5 a6 bc e8 7b 34 bd
       0.015269404 0.01315236 -0.020357797 -0.04406348
000160 94 16 c0 3d 1d 7a 22 bd 60 93 b6 bc 28 6a 3a 3d
       0.093793064 -0.039667238 -0.02228707 0.045511395
000170 bd 86 21 bc f1 22 00 3d 13 65 9a bd 98 46 4c 3b
       -0.009858784 0.031283323 -0.075388096 0.0031170007
000180 b6 ab 24 bd 29 05 97 bd 95 f3 c0 bc cc 85 14 3d
       -0.04020282 -0.07374031 -0.023553649 0.03626041
000190 be b9 3f 3d 90 38 6e 3c f6 be 25 bd 09 eb 42 3d
       0.046807997 0.014539853 -0.040465318 0.04758743
0001a0 a0 8a 45 3d 48 92 8a bd ce 15 be 3d b9 03 71 bb
       0.048227906 -0.06766182 0.09281503 -0.00367759
0001b0 2b 87 a8 3c ca d5 39 3d 74 bc 78 bd 7e b3 1d 3d
       0.020572266 0.0453699 -0.060726598 0.038501255
0001c0 54 28 99 3d 8a 4a fd bc 61 b4 c2 3d 02 24 f6 bc
       0.07478395 -0.030919332 0.09507061 -0.030046467
0001d0 d7 8b a9 bc 50 1b d4 3d 07 04 50 3c fe 7b 04 bd
       -0.020696564 0.10356772 0.012696273 -0.03234481
0001e0 15 99 1c bd ed 62 7a 3d 30 78 36 bc 79 9e 44 bd
       -0.038231928 0.0611295 -0.011137053 -0.048002694
0001f0 77 0e fa 3b 42 b3 d9 3c db 21 6c bd 48 74 99 bd
       0.007631119 0.026574735 -0.057649475 -0.07492882
000200 53 c0 7a bd ee 7e 46 3d 58 d8 f9 3c 65 b6 dd 3c
       -0.06121857 0.048460893 0.030498669 0.027064512
000210 c6 5b 97 bd de d7 92 3d 1d 59 aa 3c 7e 28 82 bd
       -0.07390551 0.0717008 0.020794446 -0.063553795
000220 e4 2f 41 3d 29 88 0c 3d ee 22 0b 3d 76 8b a3 3c
       0.047164813 0.03430954 0.03396886 0.019963961
000230 d6 cb 5f 3b d5 68 73 bd 09 33 ba bc 8d 97 9f 3d
       0.0034148595 -0.059426147 -0.022729414 0.07792578
000240 b9 a6 f2 3c a9 d8 96 3d c7 c3 25 3d e9 80 cb 3b
       0.029620515 0.073655434 0.04046991 0.0062104356
000250 f1 04 e4 ba 14 30 be bd ff 74 4d bd 9b b3 cb bc
       -0.0017396492 -0.09286514 -0.050160404 -0.024865916
000260 0e 87 40 3d 83 67 48 bb 57 43 c0 bc dc 6c 79 bd
       0.0470038 -0.0030579276 -0.02346961 -0.060894832
000270 31 e9 ed bd 84 29 69 3d 55 f6 ef bc 2f 97 b4 bd
       -0.11616743 0.056924358 -0.029292265 -0.088178985
000280 bc 4a 09 bd d9 87 97 3d 48 49 8b 3c d7 0b 4f 3d
       -0.033518538 0.07398958 0.017002717 0.0505484
000290 69 d7 4e 3d 55 0f 02 bd 25 90 34 bd b5 5d 88 bd
       0.0504984 -0.031752903 -0.04408278 -0.06658498
0002a0 29 61 8c bc 57 73 52 3d 88 0f 87 bd c7 ad cc bd
       -0.017136173 0.051379528 -0.06594759 -0.09994083
0002b0 65 32 0c bd 22 9f a1 3c 32 6c 7e 3c fb 37 01 3d
       -0.034227747 0.0197292 0.015528725 0.031547528
0002c0 22 8b 05 bd 85 0c ea 3a 7f a9 fe bc b3 81 a0 bd
       -0.03260339 0.0017856514 -0.031086681 -0.07837238
0002d0 0f f7 7b 3c fc 45 fc bd 17 dc ae bd 49 d9 50 bd
       0.015378728 -0.12318036 -0.085380726 -0.05098847
0002e0 19 96 e8 3b 00 33 a6 bc 05 14 fa bc 08 df 03 3d
       0.007097971 -0.02028799 -0.030527124 0.03219512
0002f0 c4 f3 c5 3c ee 71 27 bd a2 67 da 3d 7f f9 ef bc
       0.024164088 -0.040880136 0.10664298 -0.029293774

critic.4.weight f4 [1, 192]
000000 a4 e2 8e bd fb c5 0f be 6c 28 a5 bd 35 75 22 3e
       -0.06976822 -0.14040367 -0.080643505 0.15865023
000010 b7 b5 1b be 2a 12 a8 bd f8 ee 8d 3d 19 cf 00 be
       -0.15206037 -0.082065895 0.06930345 -0.12579001
000020 8c 62 77 bd ff dd 8e 3d 4c 66 a9 3c df 32 85 3d
       -0.060396716 0.06975936 0.020678662 0.065038435
000030 ed 44 d3 3d ff be cc 3d 03 4c 1b be d6 ea f1 3c
       0.10315881 0.09997367 -0.15165715 0.029530924
000040 d0 79 3c be bb 8a 96 3d 0a 2f f4 bd b2 cb cc 3d
       -0.18405843 0.073506795 -0.119230345 0.09999789
000050 03 7e 12 bd 11 f8 94 3d b4 d2 4e be 89 de 2c be
       -0.035764705 0.072738774 -0.20197564 -0.16881765
000060 98 cc 74 bd 4a de 82 3d 0f 80 87 3d f8 70 af 3d
       -0.05976543 0.063900545 0.06616222 0.08566469
000070 c9 7b 81 3d 65 36 73 bd 27 fe 6a bd 55 0d f9 bd
       0.06322438 -0.059378047 -0.057371285 -0.12160746
000080 a8 b9 8a bd e4 6f 1a 3e 8a 6e 00 be a5 01 3e 3e
       -0.06773692 0.15081745 -0.12542167 0.18555315
000090 e5 79 02 be 00 a0 7e 3d ce 5e d2 bd ee 77 9d bd
       -0.12741812 0.062164307 -0.10271989 -0.076888904
0000a0 70 d6 90 3d 7f 23 95 3c a6 48 84 3d 5a 9c 20 be
       0.07072151 0.018205402 0.06459169 -0.15684643
0000b0 95 f2 b8 bd d7 a9 67 bd e6 9a 17 3d 8e 74 85 be
       -0.09030644 -0.056558456 0.037012957 -0.26065487
0000c0 62 45 82 3d 33 3c 3c 3d 48 75 8a 3d 61 63 02 be
       0.0636089 0.045955848 0.06760651 -0.12733223
0000d0 8f cf 2e 3d 17 af 2b 3d df 62 08 3d ce dd d7 bd
       0.042678412 0.041915026 0.033297416 -0.10540353
0000e0 b6 9d 5f 3d 26 dc cb 3d e8 7e 96 3d 7d 4c 4b be
       0.054593764 0.09954099 0.07348424 -0.19853397
0000f0 0c ec 51 3d be e8 35 bd ff cf 06 be b1 9d cd 3d
       0.051250502 -0.044411413 -0.13165282 0.10039843
000100 63 94 d1 3d f0 ba 6a 3d 96 56 bf bd 43 5b ce 3d
       0.10233381 0.057307184 -0.09342687 0.100760005
000110 ff c5 1b be ed de 05 3e 75 01 31 be 52 f0 e8 3d
       -0.15212248 0.1307332 -0.17285712 0.113739625
000120 68 cd b1 bd b7 23 0c be 39 af 85 bd 90 00 96 3d
       -0.08681756 -0.13685499 -0.06527562 0.07324326
000130 7f 1a bc bd a3 1b f8 bd fe 59 a2 bd f3 df ea bc
       -0.09184741 -0.12114646 -0.07927321 -0.02867124
000140 f0 59 96 bd cc dc 92 3d fd 56 38 3d e7 f0 ff bc
       -0.07341373 0.0717102 0.045004833 -0.0312428
000150 f6 e4 f4 bd 65 2e 03 be 62 30 97 3d 0e 20 cc 3d
       -0.11957733 -0.12810667 0.07382275 0.099670514
000160 57 50 e4 bd d9 39 0c 3e 0e 7a 21 be aa 93 92 3d
       -0.11148136 0.13693942 -0.15769216 0.07157071
000170 b7 91 9b 3d 4a 82 83 bd 66 8d 4d 3e 6e db e8 3d
       0.07596152 -0.06421335 0.2007347 0.11369978
000180 f6 e7 9e 3d 8f 32 15 3e f4 21 a6 bd 34 07 87 bd
       0.07759087 0.14570068 -0.08111945 -0.06593171
000190 0d 3d 3b 3d 0e d4 27 3e a2 0d a2 3d 1f e8 85 3d
       0.04571252 0.16389486 0.079127565 0.06538414
0001a0 d8 72 40 3d 0b 22 5c 3d 73 99 7c bd 9a dc 17 3e
       0.046984524 0.053743403 -0.061669778 0.14830247
0001b0 82 e8 ad 3d 53 e9 9e bd cf b8 82 be 63 df c3 3d
       0.08491613 -0.07759347 -0.25531623 0.09564092
0001c0 76 f1 c7 bd 5b cf 67 3d 8a 4a d0 bd 8a 2e 5a 3d
       -0.09762852 0.056594234 -0.10170467 0.05326704
0001d0 1f 29 a6 3d da 67 b0 bd 34 58 01 be a7 8f 15 3e
       0.08113312 -0.08613558 -0.12631303 0.1460558
0001e0 8d d6 f1 3d 7f c0 9c 3d 58 2e 0e bd ea 80 19 3e
       0.118085004 0.07653903 -0.034712166 0.14990583
0001f0 3a cc 99 3d 43 ed 62 3d 0d 40 ee bd 06 c4 2f bc
       0.07509656 0.05540205 -0.116333105 -0.010727888
000200 e8 5e b6 bd 19 a5 12 be fc 29 05 3d d2 ea 98 bd
       -0.08904821 -0.14320792 0.032510743 -0.074666634
000210 83 da c3 3d f2 cc 99 bd 03 9e 88 3d f4 a3 08 3d
       0.09563162 -0.07509793 0.06670763 0.033359483
000220 58 f9 a3 bd 62 d4 28 3e 71 3c 0a be c6 bf 15 be
       -0.08006543 0.16487268 -0.13499619 -0.14623937
000230 f4 9b e7 3d 20 5e e0 3d 06 91 de bd f2 22 15 3d
       0.113090426 0.10955453 -0.10867505 0.03641028
000240 e1 40 cd 3d 08 65 bd bd f6 27 7c bd 87 09 c4 bd
       0.1002214 -0.09247786 -0.061561547 -0.0957213
000250 d6 ef aa 3d f0 b7 ce 3d a9 1a 7f 3d ad ed cd 3d
       0.08346526 0.10093677 0.062281284 0.10055099
000260 67 2b 76 3d 63 e5 a9 3d d1 d1 c6 bd 24 6e 05 3e
       0.060099985 0.08295705 -0.09707988 0.13030297
000270 2a 0e 36 3e 16 9e 96 bd 2f 89 a4 bd 2b 4a 52 3d
       0.1777884 -0.07354371 -0.08033978 0.051340263
000280 eb 8c 51 be 9c 22 e9 3d 82 63 88 3d f1 67 50 be
       -0.20463912 0.11383554 0.066596046 -0.2035215
000290 e9 dc 0e be 8a 02 ec bd d7 68 0b be 52 a7 b6 3d
       -0.13951458 -0.11523922 -0.13614212 0.089186326
0002a0 88 75 b2 3d 85 25 bc 3d d0 87 04 be 22 b6 03 be
       0.087138236 0.09186844 -0.12942433 -0.12862447
0002b0 37 9a 09 be be 8f 6f 3d e3 f1 69 3d 82 6a 8b 3d
       -0.13437735 0.058486693 0.057115447 0.06807424
0002c0 e4 12 c6 3d bc eb 88 3d 0c df be bd b3 e5 0b 3e
       0.09671572 0.06685588 -0.093198866 0.13661842
0002d0 b6 0f ba 3d ea b5 f8 3d d3 57 27 3d 98 c6 0d 3e
       0.09085028 0.12144072 0.04085524 0.13845289
0002e0 af ab b2 bd c8 d4 7a 3d 52 8f 79 bd ab b4 89 3d
       -0.08724152 0.06123808 -0.060927697 0.06723913
0002f0 17 4b 59 3d 1e 77 70 3d b5 dc d6 bd 29 64 c4 bd
       0.053050127 0.05870735 -0.10491315 -0.095894165

mean.0.weight f4 [192, 24]
000000 ca 7a 03 be 76 51 f5 3d 79 42 aa be 8a 6c 02 bf
       -0.12839809 0.11978428 -0.3325384 -0.5094687
000010 13 7a 39 be f8 c4 3e 3e a8 01 36 be f2 da 83 bd
       -0.18112974 0.18629825 -0.1777407 -0.06438245
000020 51 38 24 3e b7 07 08 bb 14 6d da 3d f3 56 62 bd
       0.16037108 -0.0020756552 0.10665336 -0.055258702
000030 11 7d 34 be f6 f6 a9 be 5c 16 6a 3d ee 7e 9b bd
       -0.17625834 -0.3319623 0.05715023 -0.07592569
000040 2d ae c8 bd 06 fd 13 be 55 87 7d 3c 6b 76 3b 3e
       -0.097988464 -0.1445199 0.01547416 0.18306892
000050 ed 04 c8 bd ce bd 2d 3e 9c 6e 52 be 91 1b 15 3e
       -0.097665645 0.16966936 -0.20550007 0.14561297
000060 4d 09 57 3c c1 a1 ae be d5 0f c2 bd bb 81 93 bd
       0.013124776 -0.34107783 -0.09475676 -0.072024785
000070 46 1a 50 be fc 84 24 be 2e 21 95 3c 7e 0d 00 3e
       -0.20322523 -0.16066355 0.018204298 0.12505147
000080 b8 e0 11 3e 85 5c 61 be d6 1d c9 3e 67 de 8a bd
       0.1424588 -0.2200795 0.39280576 -0.06780701
000090 03 ae 64 be 95 b2 28 be c9 3e 04 be f2 90 08 3e
       -0.22332005 -0.16474374 -0.12914576 0.13336542
0000a0 75 8a 2d 3e 85 82 e1 3d ac 69 e2 bd e3 3e ab 3d
       0.16947348 0.11011223 -0.110553116 0.08361604
0000b0 8b 5d 4f 3d 20 c8 fd bd 83 cb a4 bd b0 29 22 3e
       0.05062632 -0.123916864 -0.08046629 0.15836215
0000c0 ac fb 07 be 52 17 c8 3d 11 34 1e 3f 42 c8 8c 3d
       -0.13279599 0.09770073 0.617982 0.06874134
0000d0 60 31 62 be 23 72 22 bc 70 18 c3 3e 32 45 03 3e
       -0.22089148 -0.009914908 0.38104582 0.12819365
0000e0 28 c2 aa 3d 60 83 c8 bc a8 27 99 3d 4b ea 91 bd
       0.083378136 -0.024476707 0.07478267 -0.07124766
0000f0 68 19 4b 3d 48 0d 82 3e a6 1c 03 be e3 ed 26 be
       0.049584776 0.25400758 -0.12803897 -0.16301684
000100 6e c1 23 be f8 aa db bd 06 95 d0 3d e7 0a be 3d
       -0.15991756 -0.10725969 0.10184674 0.09279423
000110 75 30 66 3e 4d f2 bf bd 76 3a 88 3e 97 4b 45 be
       0.22479422 -0.09372387 0.26607102 -0.19267116
000120 4e 41 89 3e c4 61 98 be b6 e3 75 3e 7c b2 96 3e
       0.26807636 -0.2976209 0.24012646 0.29433048
000130 28 0e e4 bd d4 72 53 be ad ba 97 3e 5b 99 82 bd
       -0.111355126 -0.20649272 0.2963461 -0.063769065
000140 b9 38 83 3e c8 09 ff bd 7a 59 32 3e 96 11 c1 bc
       0.25629213 -0.124530375 0.17416945 -0.023567956
000150 2c ac 9d 3e 60 25 85 bd 6a a3 29 3d 92 27 f0 3d
       0.3079542 -0.06501269 0.04141561 0.117262974
000160 3f b2 7c 3c c0 50 21 bd 54 30 36 be 74 04 20 3e
       0.015423357 -0.03938365 -0.17791873 0.15626699
000170 b2 46 4a bd 4d fd ef 3d 1a ba de 3c 02 bc 1a be
       -0.049383827 0.11718235 0.02718835 -0.15110782
000180 b5 46 05 3d 40 19 fe bd 53 92 c8 be 00 9a 12 be
       0.032538135 -0.1240716 -0.39174137 -0.14316559
000190 24 a8 b1 3e 81 7d e1 3d 9e c4 b5 be cd 09 26 3e
       0.34698594 0.11010266 -0.3550157 0.16214676
0001a0 42 50 44 3d 84 6f 10 3e 4a 35 e6 3e fd 1b 0b 3d
       0.047928102 0.1410504 0.4496253 0.03396224
0001b0 68 38 3e 3d 7e fb 6d 3b ad 03 79 bd da 42 05 bd
       0.046440512 0.003631323 -0.06079452 -0.032534458
0001c0 2f 19 98 3d 88 34 08 bd aa 80 df bd eb bb a6 3d
       0.074266784 -0.033253223 -0.109132126 0.08141311
0001d0 4d 63 eb bd 43 d2 c3 3d d8 11 26 3e 0f a4 5e 3c
       -0.114935495 0.095615886 0.16217744 0.013588919
0001e0 4c 10 06 3e 25 0e d0 be 28 2e 17 3e 5b 15 cb 3e
       0.13092154 -0.4063579 0.14763701 0.3966473
0001f0 bf 6f 13 be 5f 58 a4 be bd 5e 20 3e 5f a3 c0 3e
       -0.14398097 -0.32098672 0.1566114 0.37624642
000200 0e 03 31 3e 73 66 d7 bb c6 29 f0 bc 7f a8 56 be
       0.17286322 -0.006573492 -0.029316794 -0.20962714
000210 f1 3c ed bd 5b 78 cc bb c0 20 98 bd 36 09 1d 3e
       -0.11583889 -0.0062399334 -0.074281216 0.15335545
000220 ca 3b 21 be 9a 2f 00 3e 7e b4 a8 bd f7 5a a5 bd
       -0.15745464 0.12518159 -0.08237551 -0.08073991
000230 c0 a7 a1 bd 0e 87 07 3e 6f 06 75 bd 47 13 7b 3b
       -0.07893324 0.13235113 -0.05982059 0.003831105
000240 4a 45 d1 be 39 47 2f be de 75 19 3e b1 31 2c 3f
       -0.40873176 -0.17117013 0.14986369 0.67263323
000250 93 49 7e bd ff e8 54 3e 90 10 9c 3e 0a b3 40 3e
       -0.062081885 0.20792006 0.30481386 0.18818298
000260 12 5d 14 be d3 51 a6 bd d3 1d e6 3d 12 b2 8b 3e
       -0.14488629 -0.081210755 0.11236157 0.27284294
000270 99 4b 02 be fb 9c 1c 3e 02 44 4c 3e af 75 2b be
       -0.1272415 0.15294258 0.19947818 -0.16744111
000280 74 38 cd 3b e3 44 8e 3c 91 b3 38 be 22 d4 1c be
       0.0062628333 0.017366832 -0.18037249 -0.15315297
000290 69 8d 75 3c 44 52 1b 3e 00 0d 6d 3e cc 2f a8 3c
       0.014987328 0.151681 0.2314949 0.020530604
0002a0 f5 f7 af be 30 70 b1 3e 18 ca bf 3d 70 77 11 3f
       -0.34368864 0.34655905 0.09364718 0.5682287
0002b0 20 78 da 3d df be 37 3e 61 50 b4 3e eb 15 2e be
       0.10667443 0.17943905 0.35217574 -0.17000549
0002c0 26 d8 0b be 65 c2 0a 3d 9d c0 99 be ea 1b 3d 3e
       -0.13656673 0.033876795 -0.30029765 0.1846768
0002d0 38 6e ee 3c 43 36 8f 3e 54 45 1a be a4 14 c1 3d
       0.02910529 0.27971086 -0.15065509 0.09427765
0002e0 a7 0f 14 3d 9c 83 15 be 81 f6 04 bd e7 65 64 3d
       0.03614774 -0.14600986 -0.032461647 0.055761244
0002f0 c0 dc 8a 3d 88 72 88 bd c9 20 0a 3e 64 92 03 3e
       0.06780386 -0.0666247 0.13489069 0.12848812
000300 e7 64 80 be 83 8e 9c 3d b9 ff d2 3e a5 fd 79 3f
       -0.25076982 0.076443695 0.41210726 0.97652656
000310 e9 63 c7 3d 6b a6 2d 3e 6d 58 c7 3e d5 b4 c3 3d
       0.09735853 0.16958015 0.3893465 0.09555975
000320 d8 36 5e be 1d 13 68 3e 2a cc 5d 3e 8b 8b 4c 3e
       -0.21700609 0.22663541 0.21659914 0.19975106
000330 6a 20 4e be 13 c7 0e 3e 03 fc df 3d 38 d6 00 be
       -0.20129552 0.13943128 0.10936739 -0.12581718
000340 98 39 94 3d 43 d2 f2 3d 82 d9 00 3d 80 61 8f bd
       0.07237548 0.118565105 0.03145743 -0.070010185
000350 5c 80 2c 3c 20 c7 d1 3b ec 19 af 3d fd 3e 55 be
       0.01052865 0.0064019114 0.08549866 -0.2082481
000360 a5 53 6a 3e 71 6b 1f bd 62 df 52 3e 6d 43 f1 bd
       0.2288347 -0.038920823 0.20593026 -0.117804386
000370 0e 34 5a 3e da be 47 be 90 68 2f bd 58 cc e0 bd
       0.2130892 -0.19506398 -0.042824328 -0.109764755
000380 5f d9 15 3e 77 82 bf bb 3e fd 84 3d 27 03 a9 be
       0.14633702 -0.00584441 0.064936146 -0.33010218
000390 a6 a4 82 be e8 87 76 be 1e ed 96 bd f5 97 9d 3d
       -0.25516242 -0.24075282 -0.07369445 0.07694999
0003a0 55 8d 0b 3e 29 7d dc 3d 9a d1 3f be 89 0d 05 3e
       0.13628133 0.1076606 -0.187323 0.12993445
0003b0 14 a3 9f bd 9b 11 64 be e5 8f 07 3e f3 77 29 3e
       -0.077947766 -0.22272341 0.13238485 0.16549663
0003c0 da 63 91 bd 87 8d d3 bd 53 3c e8 bb 20 d6 ca bd
       -0.07099123 -0.103297286 -0.0070872693 -0.09904122
0003d0 fc f8 80 3e be c5 1c bd f7 ed ae be c0 2e 11 be
       0.2518996 -0.03827452 -0.34165928 -0.1417799
0003e0 51 83 71 bd 62 ee af bd 5e 04 93 3d aa 62 b2 bd
       -0.058963124 -0.0859039 0.07178567 -0.08710225
0003f0 0b 53 0f 3e ec 53 22 be 5c 52 72 bd b6 a9 26 3d
       0.13996522 -0.15852326 -0.059160575 0.040689193

mean.0.bias f4 [192]
000000 73 63 6c 3e 52 41 34 3e ab 47 51 be c9 f8 4c bd
       0.23084812 0.17603043 -0.20437495 -0.050041948
000010 cb 92 cb bd 82 1b 39 be 7c 12 d9 3c 03 ef 15 be
       -0.09940108 -0.180769 0.026498072 -0.14641957
000020 e9 bf d7 3d 72 52 ef 3c 98 95 d7 bd 80 da 0f bc
       0.10534651 0.029214118 -0.105265796 -0.008780122
000030 b2 35 24 3e 9b 04 03 3e df 46 f5 bd a7 48 b4 bd
       0.16036108 0.12794726 -0.11976408 -0.0880292
000040 52 f0 3a 3d 99 cd f8 bd 7a fd 03 be 03 bd 10 3e
       0.045639344 -0.1214859 -0.12889662 0.14134602
000050 ab e5 62 3e 6c 04 2b 3e 26 34 86 bd 3b 7a 2d be
       0.22157924 0.16700906 -0.06552915 -0.16941158
000060 f6 79 c8 3b 9a a1 cb 3c 54 1f e5 bd 9c 21 ae 3d
       0.0061180545 0.024857331 -0.11187616 0.08502504
000070 04 4f e5 3d 53 f0 2d be 06 d0 cb bd 78 58 c1 3c
       0.11196712 -0.16986208 -0.09951787 0.023601755
000080 8a 1e 06 3e e5 b5 5c bd 00 80 03 3e 3b 15 0d 3c
       0.13097587 -0.053884406 0.12841797 0.008611019
000090 99 be 98 bd d8 05 98 bd 13 9e 64 bd 37 ca 75 be
       -0.074582286 -0.074229896 -0.055814814 -0.2400292
0000a0 e9 56 63 3e b8 a6 2f 3e 9b e8 ba 3d 9d d2 b8 bc
       0.22201122 0.17153442 0.09126397 -0.022561366
0000b0 ab 56 4e 3e 6e d4 23 3e d1 b5 dd bd aa 35 f5 3c
       0.20150249 0.15999004 -0.10825694 0.029932816
0000c0 1c 31 8a 3d 1b 91 18 be 2d 40 ac 3d c7 8e fe 3d
       0.06747648 -0.14899103 0.08410678 0.12429576
0000d0 94 17 62 3d bb 6c 97 3d 42 d4 9b 3c 60 09 96 bd
       0.055198267 0.073937856 0.01902211 -0.07326007
0000e0 6c a0 a5 3d 16 cc 8f 3d 5f c7 b4 bd c2 b4 78 3e
       0.08087239 0.07021348 -0.088270895 0.24287704
0000f0 d7 8f 35 bd 07 c2 df 3a 82 ba 9e bd 24 b2 2a bd
       -0.04432663 0.0017071374 -0.07750417 -0.041673794
000100 b9 a4 3c 3d 67 13 34 bd 32 ec 04 be 65 4a ea bd
       0.04605553 -0.043963816 -0.12980726 -0.11439971
000110 a2 e5 ab bd dc 16 04 be df 07 ae 3d ab 67 35 bd
       -0.08393408 -0.12899345 0.08497595 -0.04428832
000120 b3 8d d9 3d f1 19 df 3d ea 71 11 be cb b4 f6 bc
       0.1062273 0.1089362 -0.14203611 -0.030115506
000130 a7 ec 25 be 6d dc 93 bd cd 30 73 bd 5b 00 fd bc
       -0.16203557 -0.07219777 -0.059372712 -0.030883959
000140 80 84 a5 bb 6a 36 cb bc 09 40 47 3e 81 c3 cc bd
       -0.0050511956 -0.02480622 0.19458021 -0.09998227
000150 74 c8 ce bd f8 d2 ce 3d 54 e0 40 3d ce 4b 20 3c
       -0.10096827 0.10098833 0.047088936 0.009783698
000160 86 df 3e 3d 14 d3 55 3e b2 a4 93 3d f1 f3 12 bd
       0.046599887 0.20881301 0.072091475 -0.035877172
000170 ab 4f 43 bc f5 4b 69 3e b9 e3 e3 bd 2b dc 15 3e
       -0.01192085 0.22782882 -0.11127419 0.14634769
000180 88 4f aa 3d 47 52 43 3e 91 0b 46 be e4 64 2c 3d
       0.08315951 0.19074355 -0.1934035 0.042088404
000190 c4 b9 72 bd 4d 20 be bd 47 7d 99 bc 5f d9 ff 3d
       -0.05925919 -0.09283505 -0.018736495 0.12492632
0001a0 77 76 7c 3e b7 bd 87 3e 61 c4 4b bc 3c 2e 27 3e
       0.24654566 0.26511928 -0.012436957 0.16326231
0001b0 a8 21 18 3d 51 cf 53 3e 1f 79 d3 3d f7 2f 52 3c
       0.037141472 0.20684554 0.103258364 0.0128288185
0001c0 56 ea 4f be 88 ec 4b 3d b7 61 58 be 21 70 aa bd
       -0.20304236 0.04978612 -0.21131025 -0.08322168
0001d0 b6 b7 b3 3c c6 70 3c 3d a5 be ad 3d 56 47 03 be
       0.021938186 0.046005987 0.08483628 -0.12820181
0001e0 17 ab 98 3e c8 27 13 be e3 3f 3f 3e c4 1b 14 be
       0.2981803 -0.14370644 0.18676715 -0.14463717
0001f0 5d 75 95 bd 45 39 38 3e e9 10 2c 3c 2a b3 4a 3e
       -0.07297776 0.17990597 0.010502079 0.19794908
000200 0f 26 a0 bc 19 96 43 3e 54 8c 84 bc 7f 01 2e be
       -0.019549398 0.19100226 -0.016180195 -0.16992758
000210 7e e6 2e 3e 7a 39 60 3e 40 9f 0d 3e 89 63 20 be
       0.17080113 0.21896926 0.1383028 -0.1566297
000220 f4 0a 0e bc 31 da 8f bc a6 12 1c 3d 70 c3 33 3e
       -0.008669604 -0.017560096 0.038103722 0.17555022
000230 3c 7d 00 bd 29 39 ce bc 98 8b d2 3d bb 0d 30 be
       -0.031369433 -0.02517374 0.10280532 -0.17192738
000240 35 ba de 3d 91 63 05 be d3 8b f1 bc 7b ab 8d 3c
       0.1087536 -0.13026263 -0.029485619 0.017293682
000250 b2 4d 16 be e7 e8 7e 3e d3 32 24 be c7 0c 35 be
       -0.14678076 0.24893533 -0.16035013 -0.17680655
000260 b0 bc a5 3d fd ca 44 bd f3 9c 05 be 85 dc 60 3d
       0.0809263 -0.048045147 -0.13048153 0.054897804
000270 91 f4 16 3e 36 50 ef bc 5b b2 98 bd 33 a5 28 be
       0.14741732 -0.029213052 -0.074558936 -0.16469269
000280 1c 07 6c 3e 8b c5 5a bd b4 65 3f bd 76 d1 0f be
       0.23049587 -0.053411048 -0.04672785 -0.14044747
000290 c5 0b c5 bc 51 c9 8d bc 73 75 f1 bd d1 e4 15 be
       -0.024053464 -0.01730791 -0.1178998 -0.14638068
0002a0 24 65 5b 3d 35 bb d1 3c f5 94 2d 3e 7f 58 11 bd
       0.053563252 0.025601963 0.16951354 -0.035484787
0002b0 8d d5 bb 3d b5 d0 d9 3d 71 22 40 3e f9 d1 fa bd
       0.09171591 0.10635511 0.18763138 -0.1224708
0002c0 c2 25 f1 bd c2 11 25 3e 53 dd c5 bd 24 dd 28 3e
       -0.1177478 0.16120055 -0.09661355 0.16490608
0002d0 75 e2 c8 bc 8b 51 35 be e0 da 0e 3e 61 11 7c bd
       -0.024522046 -0.17706887 0.13950682 -0.06154001
0002e0 03 38 0e 3e e9 b1 f1 bd d3 9f eb bd 1f d9 a8 3c
       0.13888554 -0.11801512 -0.115050934 0.020611344
0002f0 cb 91 30 3d 79 14 2f 3e 21 de 3a be 5a e6 b6 3d
       0.04310779 0.17097653 -0.18248798 0.08930655

mean.2.weight f4 [192, 192]
000000 57 e0 26 be 46 31 c0 bd 86 49 a6 3e dd de 60 3e
       -0.16296516 -0.09384398 0.3247797 0.21960016
000010 18 22 2b 3e 99 04 54 3e 5e be bd 3d 96 ac 0a 3e
       0.16712224 0.20704879 0.09264825 0.13542399
000020 05 3d 3b 3b 73 26 a9 bd ce 46 2e 3e 93 0b 36 3e
       0.0028570306 -0.08259287 0.17019197 0.17777853
000030 6a 76 a7 bd 33 47 33 3e cb ae 1a 3e a8 4f 02 3e
       -0.081768826 0.17507629 0.1510574 0.12725699
000040 9e 78 bc 3d 72 09 08 3d f4 bb 1d 3e c7 35 a2 3d
       0.092026934 0.033212133 0.1540373 0.079204135
000050 01 3c 89 be 37 fe 84 bd d5 34 0a be e7 1c 15 3e
       -0.26803592 -0.064938 -0.13496716 0.14561807
000060 75 cc e0 3d 59 01 5c 3d b9 eb 32 3e 79 14 5b 3d
       0.10976497 0.053712223 0.17472734 0.05348632
000070 56 6c ac 3d d7 f0 81 3e 25 d6 41 3c 3d d4 0d 3e
       0.08419101 0.2537906 0.011830841 0.13850494
000080 26 ce ab 3d bf c6 4a bd 77 fb 3c 3d 94 2f d3 bd
       0.08388929 -0.049505945 0.046138253 -0.10311809
000090 3b c4 e4 3d be 88 ca bd d1 93 03 bd 31 22 c6 3d
       0.111702405 -0.09889363 -0.03212339 0.0967449
0000a0 42 50 fb 3c e4 16 4f 3d eb 30 59 3d ff c5 d5 bc
       0.030677918 0.05055894 0.053025167 -0.026095388
0000b0 f7 0b 88 bd 00 0b d0 bd b9 77 00 3d ab e2 88 bd
       -0.06642907 -0.10158348 0.031364176 -0.066838585
0000c0 6f 56 b3 3c aa 62 0e bd ab cf 0c 3d 26 2d bf 3d
       0.0218918 -0.034762062 0.034377735 0.09334783
0000d0 bb a7 11 3d f1 be 24 be c1 d9 39 be 9b f3 e1 bd
       0.03556035 -0.16088463 -0.18149473 -0.11032792
0000e0 39 51 40 be 35 37 03 be 60 1f e9 bc c3 12 5d bd
       -0.18780984 -0.12814029 -0.028457344 -0.05397297
0000f0 70 cb 6b 3d 10 76 32 be ed 41 81 3d fc ba 9d 3c
       0.05756706 -0.1742785 0.063114025 0.0192542
000100 e2 37 22 3d 01 f8 87 3c 0e 6e 8d 3e 09 58 c1 3d
       0.039604075 0.01659775 0.27623028 0.094406195
000110 a2 48 76 3d f0 db 2c 3e 72 0f b6 bc 32 a8 9e bd
       0.06012786 0.16880774 -0.022224162 -0.077469245
000120 ec c1 1a 3d fb 83 d8 bd b8 e1 9a bd 1e 72 ea 3d
       0.037782595 -0.10572048 -0.07562584 0.114475474
000130 0d 3e 82 3d e3 79 90 bd 8e 19 87 bc bf 9b fc bc
       0.063594915 -0.07054498 -0.016491678 -0.030835984
000140 41 85 99 3d 54 24 0f 3b 5e b3 ab bc 3a 6d 33 3e
       0.07496119 0.0021841722 -0.020959552 0.17522135
000150 72 a7 4b 3e 3b 0b af bc 84 66 73 bd 33 1e ec 3d
       0.19888094 -0.02136766 -0.05942394 0.115291975
000160 67 42 2d 3e fa 0c db bb 54 a8 7a 3a 6a 8b 7d bd
       0.16919862 -0.0066848965 0.0009561826 -0.061900534
000170 f1 b8 bf bd cc 5d 98 3d 32 7d 89 bd b4 a8 97 3d
       -0.09361447 0.07439765 -0.06713332 0.074052244
000180 be 9e 4b 3d 8f d1 b8 bc 97 c9 5b 3d ef 54 cf bc
       0.049711935 -0.022560863 0.053659048 -0.025309054
000190 9d 8e 8d 3d c3 7d 43 3e b8 81 9c 3d 95 46 5b 3c
       0.06911967 0.19090943 0.076419294 0.013383527
0001a0 72 22 6f be 86 68 87 bd 8f 01 c4 3d 53 25 17 bd
       -0.23352984 -0.06611733 0.0957061 -0.03690083
0001b0 b1 0f 90 3d e1 3a 38 3d f0 58 35 3d c7 6c 27 3d
       0.07034243 0.044978026 0.04427427 0.040875223
0001c0 f0 cb c1 3d e7 a2 bd 3d b2 65 29 3e 32 14 d0 3c
       0.09462726 0.09259587 0.165427 0.025400255
0001d0 d6 8d d5 3d 49 c6 40 3d 79 4f b9 bc fa bb 78 be
       0.10427444 0.0470641 -0.022620903 -0.24290457
0001e0 d9 02 32 be c2 ea 2c 3d 0a 9b 99 3d 14 5d 68 3e
       -0.17383899 0.04221607 0.075002745 0.22691756
0001f0 97 58 46 3d 80 3f 1d be 4b 8e 88 bd 94 f2 9b bc
       0.04842433 -0.15356255 -0.06667765 -0.019036569
000200 10 65 4f 3d 3e 9b 77 bd 29 67 8d 3c ac 9a da 3d
       0.05063349 -0.060450785 0.017261105 0.106740326
000210 7c b0 62 bd 01 4e 52 bd e5 3f 46 bd 10 a2 80 3d
       -0.05534409 -0.05134392 -0.04840078 0.06280911
000220 b8 43 3f 3d aa 85 87 bd 89 b9 d5 3c a0 f8 81 3d
       0.04669544 -0.06617291 0.026089447 0.063462496
000230 19 a9 f1 3d 1d 79 87 3c 8c 98 9c bd f4 d0 eb bd
       0.11799831 0.016537244 -0.076462835 -0.11514464
000240 78 a4 00 3d 1e dd cc 3a 96 72 c5 3c 65 9e 18 3e
       0.03140685 0.0015629863 0.02410249 0.14904173
000250 32 07 17 3d 17 a3 65 be cd 45 85 3d ca 9c 3f 3d
       0.036872096 -0.22425495 0.06507454 0.046780385
000260 fc b7 5c 3d dc 0a e7 3c 98 15 ab 3d a8 ed 86 3d
       0.0538864 0.02820342 0.08353728 0.06588298
000270 70 8b 33 be 14 4f 43 3e ce e6 05 3e e4 f4 95 3d
       -0.1753366 0.19073135 0.13076326 0.073221
000280 f9 7a c1 bc f3 7f 90 bd 77 78 25 3d ba 05 c5 bd
       -0.023618208 -0.070556544 0.040398087 -0.09620233
000290 33 02 09 3e 3d 51 67 bd 32 ef a5 3d e2 07 34 3e
       0.13379745 -0.05647396 0.081022635 0.17581132
0002a0 39 5e ff 3d 54 18 f9 bc a3 30 ba ba d8 11 90 3d
       0.124691434 -0.030407108 -0.0014205169 0.070346534
0002b0 8b b6 cf 3d 17 b0 37 3b d8 58 c8 bd b7 a2 c4 3d
       0.10142239 0.0028028542 -0.097825706 0.09601348
0002c0 4c ea 33 be 78 05 dc bd 97 b7 48 3d ee 00 aa bd
       -0.17569846 -0.107432306 0.04900321 -0.083009586
0002d0 21 03 81 3b 04 e4 92 3d 63 38 bd 3c af 31 59 3d
       0.0039371406 0.07172397 0.023098176 0.053025898
0002e0 d8 00 fb bd d8 8b 29 3e 3e 26 e3 3d 23 54 6e be
       -0.1225602 0.16557252 0.110912785 -0.23274283
0002f0 9f ab d1 bd 37 17 c1 bd 51 3f cc 3d 70 23 cf 3d
       -0.10237812 -0.09428256 0.09973014 0.10114181
000300 bc 42 80 bd 76 55 8f 3c 42 7c 36 3e a1 71 1a 3e
       -0.062627286 0.017496806 0.17820838 0.15082408
000310 fb a6 84 bd ea ce f8 3d 2f bd bb 3d c6 54 68 3d
       -0.064771615 0.12148841 0.09166943 0.05672147
000320 a0 ba 1f be cb 98 eb 3d 12 bf f0 3d 66 b6 16 3e
       -0.15598536 0.11503752 0.11755194 0.14718017
000330 06 1d f3 3d 09 a1 25 bd 39 c7 99 3b 6b da 3b bc
       0.1187077 -0.04043678 0.0046929386 -0.011465649
000340 0c e7 3a bd 6a f2 e4 3d ee 7b a7 3d 77 e8 58 3d
       -0.0456305 0.11179049 0.081779346 0.05295607
000350 2c 5c 2e be a5 a2 ce 3d a6 e6 54 bb ac 9c 17 3e
       -0.17027348 0.10089616 -0.003248611 0.1480586
000360 b9 aa 2c 3e ae 72 de bd 9b 0a df 3c 7b fd 1e 3e
       0.16862 -0.10861717 0.027226737 0.15526383
000370 23 7e 46 3e 91 80 9b bd f1 09 9e bd e0 a4 13 3c
       0.19384055 -0.075928815 -0.0771674 0.009011477
000380 4c 57 64 bc e2 56 e1 bd a3 69 f9 3d 76 20 df bd
       -0.013936829 -0.110029 0.12178352 -0.10894863
000390 6a c5 43 bb 9e 84 a6 bc 04 29 06 bd 39 04 6c 3d
       -0.0029872307 -0.020326909 -0.03275396 0.057621215
0003a0 ef b4 87 bd 57 79 87 bd 26 07 3a 3d c0 bb 0a bd
       -0.06626307 -0.066149406 0.045416974 -0.03387046
0003b0 ce d7 bb bd 7a 43 16 bd 8b 4c f6 3c 9b d8 0b be
       -0.09172021 -0.036685444 0.030065795 -0.13656847
0003c0 7a 29 bb 3d 80 45 e0 bd 90 63 a3 3d 52 56 34 3e
       0.091387704 -0.10950756 0.079779744 0.17611054
0003d0 44 a8 b6 be 36 2e b2 bc 33 de 6a 3d d7 ea e8 bd
       -0.3567525 -0.02175055 0.057340812 -0.11372917
0003e0 ef aa 3e 3c fa 8b 91 bd ea ce a6 bd 35 66 2f bd
       0.011637433 -0.071067765 -0.081449345 -0.04282208
0003f0 cd b2 1e 3e 39 ca 1b 3d 08 e0 d4 bd 90 17 24 3d
       0.15497895 0.03803465 -0.10394293 0.040061533
