model/walker.pt (torch_old, 681820 bytes, 24 tensors)

logstd f4 [4]
000000 2d 10 f8 bf 21 cd 49 c0 3b cd 0f c0 1b e4 17 c0
       -1.9379936 -3.153145 -2.2469013 -2.3732975

critic.0.weight f4 [192, 24]
000000 c7 0a 41 3d 12 fa 64 be ae 79 1f be 7b 5d 05 bf
       0.04712942 -0.22361019 -0.15573761 -0.52095765
000010 2c 71 ea 3c 79 4b f6 3b d1 9b 7a 3d 25 f4 0a 3d
       0.028618418 0.0075163213 0.061183754 0.03392424
000020 02 a3 24 bb cf 98 8f bd dd 39 20 3c 05 31 4a 3c
       -0.0025121574 -0.07011568 0.009779421 0.012340789
000030 4b 1d 16 3c 64 e7 49 3c c6 8c 50 3e 62 cb 8f be
       0.009162257 0.012323234 0.20366201 -0.28084856
000040 39 03 5c bd 74 54 56 be 3b 4a b4 be ad 11 aa be
       -0.05371401 -0.20930654 -0.35212883 -0.3321661
000050 0e 97 96 be c2 e7 b5 bd 61 90 7b 3e 48 11 2e 3e
       -0.2941212 -0.08882095 0.24566795 0.1699878
000060 66 ff a6 be 57 7a 76 3e 1d 1f c8 3d 78 ef 39 be
       -0.3261673 0.24070106 0.097715594 -0.18157756
000070 3d 15 32 bc 78 f9 8c bc 38 8e a9 3c c6 6a 13 3d
       -0.010869321 -0.0172088 0.020697698 0.0359905
000080 72 94 a5 bd 6f 5e b5 bd a9 20 90 3c 1f 93 55 3e
       -0.08084954 -0.088559024 0.017593699 0.20856903
000090 f3 0d 99 3a cc 0d 24 3d e6 7f 38 3d d5 e3 c5 3d
       0.0011677131 0.04005222 0.04504385 0.09662596
0000a0 2e 05 d1 3d 21 52 e3 bd a7 9d 34 be e0 b8 d0 bc
       0.10206066 -0.11099649 -0.17638265 -0.02547878
0000b0 dd 81 3a 3e 04 dc 1f be f7 bf ba 3d 25 03 45 be
       0.18213601 -0.15611273 0.09118646 -0.19239481
0000c0 5c 95 98 3e 6d 48 2d 3d 42 65 82 be 61 59 b7 3b
       0.29801452 0.0423054 -0.2546788 0.0055953716
0000d0 14 12 50 3e 9d bd 87 bd f7 a1 95 3d 59 94 1c bc
       0.20319396 -0.06627963 0.07306283 -0.009556853
0000e0 61 11 6c bc 2e 13 3e 3e 21 5a 52 3c 4c 83 39 bd
       -0.01440844 0.18562004 0.012838871 -0.04529123
0000f0 39 85 70 3b 3a 21 aa bd 18 47 96 bd f6 0d 0c 3e
       0.00367005 -0.08307119 -0.07337779 0.136772
000100 5a fd 0e be 1f f0 2d 3d 17 31 1b 3e f5 3c 75 be
       -0.13963833 0.042465325 0.15155445 -0.23949035
000110 bb f9 80 be 2e e0 cf 3c 9f ed ff bd be 24 8b bc
       -0.2519053 0.025375452 -0.124964945 -0.016985293
000120 65 1b 9e be d7 7d bf 3e 54 50 f0 3d d1 c6 8a be
       -0.30880275 0.37400696 0.117340714 -0.2710481
000130 e1 ec c9 bd ee 6b 66 3d 7e 76 86 bd 3b 1a 46 3d
       -0.09859634 0.056255274 -0.06565569 0.04836486
000140 e9 01 bf bb d8 ad 34 be e0 fc 8c 3b 37 af 52 bd
       -0.005829085 -0.17644441 0.004302606 -0.05143663
000150 2e 80 73 3c 8e e5 13 3d 35 c7 83 be 9d 5e 93 be
       0.014862103 0.036107592 -0.2573792 -0.28783122
000160 da 76 34 be 87 a2 2b be 79 ed d7 3c e9 fe 53 3d
       -0.17623463 -0.16761218 0.026358353 0.051756773
000170 f1 6d 4a bd d0 6d 63 3d 16 e9 b1 3d 59 63 ac 3d
       -0.049421255 0.055524647 0.08687036 0.084173866
000180 c9 57 94 3e 96 a6 cd 3e 3d 76 42 bf 1e 30 d5 3e
       0.28973225 0.40166157 -0.7596167 0.41638273
000190 e1 ee 6e 3d 89 9d dd 3c 2a 51 24 3b a2 ec 74 ba
       0.05833328 0.027052658 0.0025072792 -0.00093431224
0001a0 3e 7c 97 bd 1a 04 26 be c6 3c 56 3c 2e da 10 3d
       -0.07396744 -0.16212502 0.013076013 0.035364322
0001b0 5f 91 87 bb db 98 42 3c 17 06 89 3e 40 6c ee 3d
       -0.0041372026 0.011877264 0.2676246 0.11641741
0001c0 c1 19 10 bb 35 5f 26 3e f0 d5 51 3e 46 82 eb bb
       -0.0021988007 0.16247256 0.20491767 -0.0071871607
0001d0 0b f1 be 3c 1e 87 7e be b3 03 37 be 4d a3 59 3e
       0.023308298 -0.2485623 -0.17872505 0.212537
0001e0 9a 91 cc be 7e 89 c8 bd 66 f6 72 bc 0a be dd 3d
       -0.39954835 -0.097918496 -0.014829254 0.10827263
0001f0 1c 52 28 be 37 c0 09 bd 53 cc 67 bd 42 80 e3 3b
       -0.16437572 -0.033630576 -0.056591343 0.0069427798
000200 8b 6b 3b 3d a1 1d 6f bd db d1 40 bc b8 be 03 bd
       0.045756858 -0.058377866 -0.011768783 -0.032164305
000210 1c ce e9 3c 73 be 80 bd 50 87 b0 3e c7 08 0d 3e
       0.028540663 -0.06286325 0.34478235 0.1377288
000220 46 74 19 3e 5e 49 1d 3e 13 09 e0 bd 81 63 68 be
       0.14985761 0.15360019 -0.10939231 -0.22694208
000230 d5 b7 b6 bd 5f 19 8d be 40 b4 46 3e 27 d5 ab bd
       -0.08921782 -0.2755842 0.19404697 -0.08390265
000240 d1 85 a9 be 25 68 83 bc 86 98 17 3e f3 82 75 be
       -0.33109906 -0.01604087 0.14804277 -0.23975734
000250 4c 72 4d 3e 0f 07 11 bc c5 12 17 3d 05 09 75 3d
       0.20063132 -0.008851781 0.036883134 0.059823055
000260 68 87 39 3b b8 95 92 3d 3d 00 99 3d e9 41 93 3d
       0.0028309468 0.07157463 0.074707486 0.07190306
000270 26 6e d1 3c 65 90 d0 3c 59 c5 3d bd 41 43 56 be
       0.025565218 0.025459478 -0.046330784 -0.20924093
000280 d9 6f 41 be af 6b 57 be 1b ab 41 3b 64 ad 89 be
       -0.18890323 -0.21037172 0.002955145 -0.268901
000290 cc 57 05 be ca 92 26 3d 4b f1 62 3d 6b 73 4b 3d
       -0.13021773 0.040667333 0.055405896 0.049670618
0002a0 2d b6 ec be 18 52 01 be 82 c6 80 be c2 04 ab bd
       -0.4623274 -0.12628973 -0.2515145 -0.08350517
0002b0 d3 b1 61 bd 80 e7 65 bd 38 79 2b 3d 39 38 ea bc
       -0.055101227 -0.05612898 0.04186365 -0.028591262
0002c0 18 2f 65 bd 7d 0f 61 3d c4 67 e3 bc d6 1d 06 3d
       -0.055953115 0.05494641 -0.02775944 0.032743298
0002d0 6d 56 35 bd be 56 02 bc 6e fd bc 3e e3 d9 0a 3e
       -0.044271875 -0.007955251 0.36912102 0.1355968
0002e0 65 e7 52 be ea e5 05 bc 27 b3 c6 3d 24 fc e3 bd
       -0.20596083 -0.008172492 0.09702139 -0.111320764
0002f0 a2 f1 05 3e e1 d7 a3 3d 9e 0f 00 be 11 ff 49 be
       0.13080457 0.0800016 -0.12505957 -0.19726206
000300 d9 f8 9b 3e 27 12 56 3e c7 c0 f8 be e1 76 93 3c
       0.30463293 0.20905362 -0.48584577 0.018001022
000310 49 2a 1a bd 07 55 8a 3d 54 2d 94 bd 60 2e ed bc
       -0.037637983 0.06754499 -0.07235208 -0.028952777
000320 a6 aa 0c 3d 4b d5 88 bd 23 ae 8c bc 05 90 f1 bd
       0.03434243 -0.066813074 -0.017172879 -0.11795048
000330 8f d8 1a bd 9f a7 f1 3b a3 68 2c 3e 3b cc f0 3d
       -0.037804183 0.0073747183 0.1683679 0.11757704
000340 e4 c4 f0 3c 71 3c 3d bc f0 ae 62 bd ec c9 96 bd
       0.02939076 -0.011550055 -0.055342615 -0.07362732
000350 21 a7 61 be ad b4 09 be 0c 18 2e 3d 47 27 16 3e
       -0.22036411 -0.13447829 0.0425034 0.1466342
000360 53 3b 42 be 5d c7 ca 3d 68 94 d1 be 72 e3 ea be
       -0.18967943 0.09901307 -0.40933537 -0.45876652
000370 09 1f 43 bd 2e 97 34 bc 49 55 4d 3d 0c e0 aa 3c
       -0.04763702 -0.011022372 0.050130162 0.020858787
000380 ea 5c 31 bd ff 81 df bd 62 85 03 bd ae 7e a2 3d
       -0.0433015 -0.10913467 -0.032109626 0.079343185
000390 84 f8 85 bb 72 34 fa bd fc f4 4d 3c 95 da f3 bd
       -0.0040884633 -0.122170344 0.012570616 -0.119069256
0003a0 d8 bc 28 3e 7d eb 73 3e fc 04 fc bd 05 80 7c bd
       0.16478288 0.238203 -0.12305638 -0.061645526
0003b0 36 de 12 be 41 10 de bd a7 f1 e8 bd 12 b7 c4 bb
       -0.14342579 -0.10842944 -0.113742165 -0.006003269
0003c0 39 58 fe be cd dc 0e bf b3 a9 4a be 99 95 b1 be
       -0.49676684 -0.55805665 -0.19791298 -0.34684446
0003d0 66 dd 6b 3e 51 99 b2 bc 18 9b b8 3d 80 a8 94 3b
       0.23033676 -0.021801623 0.09013957 0.0045366883
0003e0 96 0e 79 3b ad d3 a3 3d 15 60 9b bd e4 c7 34 be
       0.0038003079 0.07999358 -0.075866856 -0.17654377
0003f0 e6 b9 d9 bc 9c 87 64 bc a2 81 9d 3e 1e c9 3a be
       -0.026577901 -0.013948347 0.30762964 -0.18240783

critic.0.bias f4 [192]
000000 ba 41 42 3e 29 6b 87 bc 47 d8 1e 3e d0 eb 11 3e
       0.18970385 -0.01653059 0.15512191 0.14250112
000010 21 08 92 3d 3a 1f d1 bd d0 66 2b 3e d5 2e fb bd
       0.07130457 -0.10211034 0.16738439 -0.12264792
000020 da 36 d5 3b 5d 51 78 3e 62 a3 ce 3d 90 ca b8 bd
       0.006506783 0.24249788 0.100897565 -0.09023011
000030 11 b3 8a bc 62 1a 1b 3e a3 ba d6 bc 1e 6a 22 3e
       -0.016931089 0.15146783 -0.026212042 0.15860793
000040 26 4d 1a 3e 9a c8 51 bd e5 fb aa 3b 78 d0 45 be
       0.15068492 -0.0512167 0.0052180164 -0.19317806
000050 24 0b d1 3d 15 bd b6 3d 95 82 fb bd 23 b6 80 bd
       0.10207203 0.08922783 -0.12280766 -0.0628474
000060 9c a7 a5 bd f9 4a 45 bd dd 2a 93 bd d1 8c 69 3e
       -0.080886096 -0.048167203 -0.0718591 0.22807623
000070 d8 6f 83 bd 83 4c cb 3c 0b db 06 be 0d 34 2f be
       -0.06417817 0.024816757 -0.13169496 -0.171097
000080 dc 67 89 bc 71 f1 4c be 1c 58 12 be 3a ca 63 bc
       -0.016773157 -0.20013978 -0.14291424 -0.013903195
000090 79 22 be bd ae a8 af bd 72 10 4b 3e b0 35 21 3d
       -0.09283919 -0.08577095 0.19830492 0.03935784
0000a0 3b 72 d7 bd 0d 81 0b be 31 9c f9 3d 9b 4a 6e bd
       -0.105198346 -0.13623448 0.12187994 -0.058176618
0000b0 55 fd c6 3d 98 39 24 3e a9 9c 61 bd 19 7b 05 3d
       0.09716288 0.16037595 -0.055081043 0.0325881
0000c0 79 af 19 3d 45 66 8e 3d 01 a1 26 3e 24 65 8e 3e
       0.03752086 0.069531 0.16272356 0.2781154
0000d0 56 c5 27 3e 6c 24 d7 bd cb ae 32 3e 93 db 05 3e
       0.16383871 -0.10504994 0.1744949 0.13072042
0000e0 51 75 19 bd 7c 64 ce bd 95 6a 50 bd d6 30 30 3d
       -0.037465397 -0.100777596 -0.050882895 0.043015324
0000f0 ff 08 9e bc bf 61 1e be 3e 96 55 be 76 53 1f be
       -0.019291399 -0.15466975 -0.20858094 -0.15559182
000100 5f 21 ac bc 86 42 5e be 90 b4 15 bd 11 8e 9e 3d
       -0.021012006 -0.21705064 -0.03654915 0.07741941
000110 4e d0 60 be 09 e2 38 3c 5b 23 ab bd 23 ea 90 bd
       -0.21954462 0.01128436 -0.08356353 -0.07075908
000120 c4 b4 64 3c 75 ec fa 3d 5e 64 88 bd f8 39 ae 3d
       0.0139591135 0.12252132 -0.066597685 0.085071504
000130 54 86 90 3c ff 67 68 be ff b4 1a bc 24 45 8a 3e
       0.017642178 -0.22695921 -0.009442567 0.27005875
000140 bd 4c 8a 3d 08 d2 80 3e c6 5d 7f be 31 68 f6 3d
       0.06752918 0.2516024 -0.24938115 0.12031592
000150 6b 7f 83 be 62 3d a5 bd 0d 18 de bd f9 50 45 3e
       -0.2568315 -0.080683485 -0.10844431 0.1926917
000160 84 33 ed 3d b7 02 21 3e 44 34 11 be 51 2d 2d be
       0.115820915 0.15723692 -0.14180094 -0.16911818
000170 55 a8 91 be 8b fe f8 3d 8b 37 f4 3b 65 e7 96 be
       -0.2844874 0.12157925 0.0074529103 -0.29473415
000180 cd a3 29 3e 7e 42 4c 3e 75 bc 4e be b1 db 85 be
       0.16566391 0.1994724 -0.20189078 -0.26144174
000190 4c 2a 3f be 63 99 3a be 20 c8 ec bc a5 dd 75 be
       -0.18668479 -0.18222575 -0.02890402 -0.24010332
0001a0 dd 27 bc 3d 6f 25 e5 3d 8f 09 b1 3d 17 4b 1a be
       0.09187291 0.111887805 0.08644401 -0.15067707
0001b0 a0 b5 86 bc 53 d8 fd 3d 17 38 03 3e 1f 01 98 be
       -0.016444027 0.12394776 0.12814365 -0.29688355
0001c0 6c b5 92 3e 9e b6 20 3e 79 3b 4d be a4 6b 9c bc
       0.2865404 0.15694663 -0.20042218 -0.019094296
0001d0 70 d5 43 be fd 86 28 3e 1b 2a fc bd 98 7e 03 3e
       -0.19124389 0.16457744 -0.123127185 0.1284126
0001e0 a9 50 54 3d 88 5c 5e be a5 4f 1a 3d 05 6d 62 3d
       0.051834736 -0.21714985 0.03767361 0.05527975
0001f0 49 cc 03 3c 22 b5 25 bd a2 e7 78 3e 60 f3 33 3e
       0.008044311 -0.040455945 0.24307111 0.17573309
000200 00 c5 fe 3d 11 52 8d 3c 37 9a f6 3d b0 9e 9d bd
       0.124399185 0.017251046 0.12041133 -0.07696283
000210 00 17 b3 bc a6 32 10 3c af f4 4e 3e e3 a4 1d be
       -0.021861553 0.008801138 0.20210527 -0.1539493
000220 97 e9 47 bb 29 40 c2 bd 45 00 7a 3e 78 1b 30 bd
       -0.003050422 -0.09484894 0.24414165 -0.042994946
000230 27 06 a7 bd f4 0d 2a 3d c0 ff 4f be 6d d8 d1 bd
       -0.0815547 0.041517213 -0.20312405 -0.10246358
000240 35 a5 d4 3d 26 0e d1 bc 7b 2f 17 be e2 98 e4 bd
       0.10383073 -0.025519442 -0.14764206 -0.111619726
000250 d4 6c 0e be c7 63 fb 3d 63 2e 1c be 6b 6f 05 be
       -0.13908702 0.122748904 -0.1525207 -0.13030784
000260 fa a8 3b be 3f 2f 59 3e 24 fd 71 3d 57 5c 43 bc
       -0.18326178 0.21209429 0.059079304 -0.011923871
000270 a5 ab 91 bd 93 7c 46 bd 21 8a d8 bd a2 4e 46 bd
       -0.07112817 -0.048458647 -0.10573221 -0.048414834
000280 b1 2d 29 be a2 ad 13 3c f7 8e 07 be c9 94 8a be
       -0.16521336 0.009013565 -0.1323813 -0.2706664
000290 6c ff fd 3c f5 2b b1 bd e2 d2 5f bc 98 7d e4 3c
       0.031005584 -0.08650962 -0.013661118 0.027891919
0002a0 b4 f5 37 3e ee d6 df bd 6d 0d 81 3d d0 31 ec bc
       0.17964822 -0.109296665 0.06301389 -0.028832346
0002b0 12 d9 40 be 1a 78 47 3d b9 23 98 3d 83 83 81 bb
       -0.18832806 0.048698522 0.074286886 -0.003952445
0002c0 a1 1e b6 bd d7 8a 29 3d c5 16 00 be 9e 67 4c bd
       -0.08892561 0.041392174 -0.12508686 -0.049903505
0002d0 b1 a8 d7 3d 43 6c 91 3e 89 be ce 3d b3 fd 78 bc
       0.10530222 0.2840291 0.100949354 -0.015197205
0002e0 72 5e ca bd 20 a7 ff 3c 7b b0 5d 3e 81 43 90 bd
       -0.09881295 0.031207621 0.21649353 -0.07044125
0002f0 e7 d1 6e bd d4 90 5a 3e 7b 19 8b 3e 4a 88 e9 bd
       -0.058305647 0.2134431 0.27167878 -0.11402948

critic.2.weight f4 [192, 192]
000000 b6 c9 4b bc c8 6f 1f 3d ec e7 cb bc b3 c1 0d 3d
       -0.012438228 0.038924962 -0.024890862 0.034608554
000010 ae ac b3 bb e2 29 d7 bc e3 d9 dd bd 66 63 d6 bc
       -0.0054832315 -0.026265088 -0.10832574 -0.026170444
000020 6d 9b 21 3c f2 67 a9 3d 11 6f b3 bd 67 92 91 3c
       0.009863717 0.08271779 -0.087614186 0.017770005
000030 c3 99 9e bd 5b 75 62 bd 52 af 5b bd 69 67 25 3e
       -0.077441715 -0.0552877 -0.053633995 0.16152729
000040 c2 6e 08 3d 15 7c 25 bd 83 21 f4 bd b6 0c 52 bb
       0.033308752 -0.040401537 -0.11920454 -0.0032051033
000050 a3 0e ff b9 35 6f 38 3d fc 75 2d 3d 26 1d 18 bd
       -0.00048648295 0.04502793 0.042348847 -0.037137173
000060 8a 90 d6 3c 2c c9 a5 3d 4d 44 76 3c 79 04 a4 bc
       0.026191968 0.08095011 0.015030933 -0.020021664
000070 8f 81 13 bd 48 9e bc 3d 6f a4 99 bd 6d 13 be bd
       -0.03601223 0.09209877 -0.07502066 -0.09281049
000080 44 d2 81 bd ea 62 11 be e5 db da 3d b7 29 26 be
       -0.06338933 -0.14197889 0.10686473 -0.1622685
000090 ce 25 6a bd 79 1d 5c 3d 72 9e 5e 3e 49 21 84 be
       -0.05716496 0.053739045 0.2174013 -0.25806645
0000a0 b9 68 48 3e 98 8f 5e bc 70 84 c8 3d 46 4e 87 bd
       0.19571199 -0.01358404 0.097908854 -0.06606726
0000b0 d1 21 bb 3d f1 7b 05 3e 2a f9 d8 bc 08 3c cb 3d
       0.09137309 0.13035561 -0.026485998 0.099235594
0000c0 b3 52 c8 3c ab d7 29 bd 7c d2 f0 3d eb 65 69 3d
       0.024453497 -0.041465443 0.11758897 0.056981962
0000d0 82 6c a3 bd f9 5c b1 3d 14 29 14 3e be f6 43 be
       -0.079796806 0.08660311 0.14468795 -0.19137093
0000e0 4d 97 83 bd a3 1c 01 be 1d 5c d9 bd e7 76 dc 3c
       -0.06425343 -0.1260858 -0.10613272 0.026912166
0000f0 84 e2 8b bd 59 31 1a 3c e6 2e 20 bd e1 17 aa bd
       -0.06830314 0.009411179 -0.039107226 -0.08305336
000100 bd d3 c2 3d b4 31 08 3c e3 d3 8e bc 3c fc 02 bd
       0.09513042 0.008312631 -0.01743502 -0.03197883
000110 39 5a a0 3d 56 c3 94 3d 9c ad 8b 3c a1 2f ba 3d
       0.078297086 0.0726382 0.017050557 0.09091116
000120 b5 aa 9f bd c9 a1 3e be 65 ef e0 3b 61 1a 14 bd
       -0.07796232 -0.18616404 0.0068644756 -0.03615797
000130 79 2e 0d bd 18 4c e7 bd 63 9c a5 3d e9 29 a1 3c
       -0.034468148 -0.112938106 0.08086469 0.019673305
000140 d1 a8 c9 bc f8 94 bf 3d 44 6f 0d be ff 6c 05 3d
       -0.02461663 0.093545854 -0.13811976 0.03257465
000150 8d e8 31 3e e7 b6 ac bd 61 18 d4 3c 0b ac f9 3d
       0.17373867 -0.08433323 0.025890531 0.12191018
000160 46 9b 23 bd 34 66 29 3d af 08 a0 3d 52 08 68 bc
       -0.039943002 0.041357234 0.07814156 -0.01416214
000170 0e 2e 15 bb 22 60 da bc 34 49 91 3c c4 fa 4d 3c
       -0.0022763046 -0.026657168 0.017735101 0.012571994
000180 1d 62 f4 3c 77 63 b8 bd c8 8e 04 3e 41 ba 38 3d
       0.02983194 -0.090033464 0.12945092 0.0450995
000190 5d 5d 12 bd a0 21 ab bc 61 da 4d 3c 80 97 b0 3c
       -0.03573357 -0.020890057 0.012564273 0.021556616
0001a0 b2 de 32 3d ec 56 14 3e ff ac 18 be 12 a8 01 3c
       0.04366941 0.14486283 -0.14909743 0.007913606
0001b0 e0 fc 0f bd c3 7c 9b 3b e4 af 45 3d b6 ed 02 3e
       -0.03515327 0.0047450974 0.048263445 0.12785992
0001c0 0b 3a 69 bd cd c2 54 3d 10 25 b8 bc ab 6b c3 bc
       -0.05694012 0.05194359 -0.02247861 -0.023855051
0001d0 1f fd ee bd 49 45 a3 3c a0 4c 8c 3d 38 d0 64 bc
       -0.11669373 0.019930499 0.068505526 -0.013965659
0001e0 3f 0b db bd c2 3e a9 bd f2 84 d2 3d 4a fe ba bc
       -0.106955044 -0.08263923 0.102792636 -0.022826333
0001f0 5f b4 c8 bd 73 cb 1c 3d 0a 28 a1 bd 34 44 4a 3d
       -0.09800028 0.03827996 -0.07868965 0.04938145
000200 b4 3f 92 3d 7d 43 13 be 34 c0 22 bd 26 c1 c0 3c
       0.07141057 -0.14381213 -0.03973408 0.0235296
000210 9c 2d 32 bd 77 28 bd bd 44 5b 03 3d b1 63 d2 3c
       -0.043500528 -0.09236234 0.03206946 0.025682302
000220 5f b0 aa bd be 69 06 3b 6c f8 49 3d 00 ce e5 bc
       -0.08334421 0.0020509805 0.04930918 -0.02805233
000230 28 9f 53 3d 0c 43 81 3d 3b 0d 47 3d c9 26 b9 bb
       0.051665455 0.06311616 0.048596602 -0.0056503755
000240 03 78 49 3d be a0 ea 3d 1c 6b d1 bd 2a 80 58 bc
       0.049186718 0.114564404 -0.102255076 -0.01321415
000250 7f 93 a8 3d 89 07 16 be ac 32 d5 bc a7 3d fc 3d
       0.08231258 -0.14651312 -0.026025139 0.12316447
000260 29 b9 10 3e 3f c5 52 3d 80 dc a3 bd cc 8e 97 3d
       0.14133133 0.05145764 -0.080010414 0.07400283
000270 2a 9f d4 bc 85 bf 8a 3d d3 b4 fd bc d4 55 d7 bd
       -0.025954802 0.06774811 -0.030970013 -0.10514417
000280 6a fa b2 bc d4 70 3c bd 44 49 30 bb d0 d5 04 3c
       -0.021847922 -0.04600604 -0.0026899138 0.0081076175
000290 fc 27 00 be 48 eb 1a 3d 1f 99 2d bd 43 d2 43 be
       -0.12515253 0.037822038 -0.042382356 -0.19123177
0002a0 70 74 09 3d 36 8a 6a bd 8a 34 a8 bc bc b1 4c bd
       0.03355831 -0.057260714 -0.020532865 -0.04997419
0002b0 91 d8 03 3d f0 83 f6 3d b0 16 0f 3e 81 8f d2 3c
       0.032188956 0.12036884 0.13973498 0.025703194
0002c0 d8 02 9b bc 68 79 de bc 00 b9 db bd 2f e1 f6 3d
       -0.018922254 -0.0271575 -0.10728645 0.12054669
0002d0 1b e1 05 bc d4 6c 25 bd 8f 50 98 3d a4 db 2b bd
       -0.008171345 -0.04038699 0.0743724 -0.041957512
0002e0 74 23 96 3d 2d b7 a0 bd d8 76 d5 bd 5d ce 23 bb
       0.07330981 -0.07847438 -0.10423058 -0.0024994828
0002f0 2b cc 21 3e 2c cf 49 be c7 35 87 39 f2 78 4b 3d
       0.1580054 -0.19707936 0.00025789274 0.04967589
000300 d8 12 13 bd bc 49 18 bc 9e b4 39 bc ae 81 51 3c
       -0.035906643 -0.009294923 -0.011334566 0.012787266
000310 06 8e aa 3c 49 cd 85 3d 59 a6 d5 bc 80 76 3f 3d
       0.020819675 0.06533296 -0.026080297 0.04674387
000320 95 ce 0a bd 77 1d 59 3d fd 1e c2 bc 11 1d 4c bd
       -0.03388842 0.053006615 -0.023696417 -0.049832407
000330 cd 8b 8b bd fe 00 f6 bc 2b 20 9f bd ae 2c 29 bd
       -0.06813774 -0.03002977 -0.077698074 -0.041302375
000340 69 11 bb bc 4f db 00 3c 83 e1 43 bd 22 84 8e bd
       -0.02283545 0.007864787 -0.047822487 -0.06958796
000350 8b 9e 1a 3e 82 93 b0 3d a8 70 a0 3d d1 69 0e bd
       0.15099542 0.08621885 0.078339875 -0.034768883
000360 9b f8 ca bd 30 59 e9 3b 48 66 75 3d eb c0 26 3d
       -0.09910699 0.0071212277 0.059911996 0.040711325
000370 63 39 12 be 49 69 ff bc 21 91 4e bd b4 b7 85 3d
       -0.14279704 -0.031178134 -0.050431374 0.06529179
000380 8a 12 8b bb be 45 14 be 23 12 d9 bd 6e c2 9c 3b
       -0.0042441534 -0.1447973 -0.105991624 0.00478392
000390 85 b6 51 bd b4 0c 06 3e 21 fd 0a bb fe 93 e6 bd
       -0.051199455 0.13090783 -0.0021208005 -0.11258696
0003a0 0b 9a 9f bd 10 77 99 3d 06 80 16 3d 2a c6 10 3e
       -0.07793053 0.074934125 0.036743186 0.14138094
0003b0 28 1a 92 3d 48 fc 2c 3d 30 9d 2e 3e 55 db b5 bd
       0.07133895 0.04223278 0.1705215 -0.08879725
0003c0 65 9b 36 bb fb 4f dd 3c da e1 cd 3c 5a 65 fd 3d
       -0.0027863618 0.027015677 0.025132108 0.12372847
0003d0 36 44 1e 3d 1c 8d 2e 3d ba 32 22 3d 57 bf fb bc
       0.03863927 0.04261504 0.039599158 -0.030730886
0003e0 6b 53 87 3c 4c 08 0f bd 58 c4 7c 3d 4e 37 86 bd
       0.016519269 -0.034920022 0.061710685 -0.06553517
0003f0 12 47 3a bd 10 04 de bc 28 23 9e bd 93 2c 9b bd
       -0.045477934 -0.027101547 -0.07721549 -0.07576861

critic.2.bias f4 [192]
000000 4b a5 43 bc e4 61 06 3d 9c bb 91 3c 60 6a 87 3c
       -0.011941264 0.0328082 0.017789654 0.016530216
000010 bb 46 14 bc 7b fa 88 3c c1 60 2a bc 2d 8a 77 3d
       -0.009050067 0.016721 -0.0103990445 0.06043451
000020 01 5d 8c 3d ad cc a4 3c b7 c6 c3 ba e9 fe fd 39
       0.068536766 0.020117128 -0.0014936541 0.00048445843
000030 14 fd 8a bb d2 d8 0b 3a 5c 2d f9 bc f8 68 66 bd
       -0.004241595 0.0005334738 -0.030417137 -0.05625245
000040 ad 32 e6 ba e0 b0 fc bb 97 dc ca bc f2 6f 07 bd
       -0.001756271 -0.007711515 -0.024763389 -0.033065744
000050 9d ae 92 bb 12 de be bb 92 8b 6e bd 71 d6 25 bd
       -0.004476382 -0.0058248127 -0.058238573 -0.04048771
000060 5f c3 18 bd 88 4d b5 bd 2a 88 e9 3c 41 84 8e bd
       -0.037295695 -0.088526785 0.02850731 -0.06958819
000070 3a 54 2e bd 0f 7d 45 3d 16 1f 6d 3c bf 84 bc 3c
       -0.042560793 0.04821497 0.0144727435 0.023012517
000080 27 39 d2 3c 77 19 41 bd 10 41 ff b9 95 83 68 bd
       0.025662018 -0.047143426 -0.00048685865 -0.05676611
000090 2a 81 ee bb 11 81 ad bc 69 ac 41 3b 2c 7b 34 3d
       -0.007278581 -0.021179708 0.0029552227 0.04406278
0000a0 9a 59 0f bd fa b7 0d 3d 1b 48 26 bb e3 b5 07 bd
       -0.03499756 0.03459928 -0.0025372568 -0.033132445
0000b0 49 b9 14 bd dd 2e e5 bb 8a 33 86 bd a5 67 ce 3c
       -0.036309514 -0.006994112 -0.06552799 0.025195906
0000c0 71 e1 a1 3c 5e 37 57 bd b9 f3 ff bc 35 35 ba bc
       0.01976082 -0.052543037 -0.031244146 -0.02273045
0000d0 86 04 54 bb c9 7d e8 bc 83 ec f5 3c eb 87 1c 3c
       -0.003235133 -0.028380292 0.030020004 0.00955389
0000e0 62 ec 68 bc ec 94 05 3c c5 4c 91 bd ef fe 85 bc
       -0.014216514 0.0081531815 -0.07094721 -0.016356913
0000f0 bb 4e 57 3c e1 ec 24 3d 6c 65 9d bb d0 2c 0c 3d
       0.013141329 0.040264968 -0.00480335 0.034222424
000100 6b 40 29 bb 97 7f 1e bd 3a b7 c9 bc e9 a0 3f bc
       -0.002582575 -0.038695898 -0.024623502 -0.011696079
000110 2d ca d3 3a b5 51 dc 3d d8 83 e6 ba 06 a4 c2 3c
       0.0016158276 0.10757772 -0.00175869 0.023759853
000120 bc c5 52 bd ee 84 72 3b 06 27 01 bd 46 c7 a3 bc
       -0.051458105 0.0037005502 -0.031531356 -0.019992482
000130 f7 fa a0 bc 7e 86 ce bc 47 41 0d 3d c6 2d 99 3d
       -0.01965092 -0.025210615 0.03448608 0.07479434
000140 8c 21 10 bd 8b b1 37 bd c5 e2 4c bc 64 50 22 bd
       -0.035188243 -0.044847053 -0.012505238 -0.039627448
000150 28 3c 6f bd aa 7d 74 bd a7 1f 24 bd df b7 43 bd
       -0.05840698 -0.059690155 -0.04006925 -0.047782775
000160 28 73 36 bd 67 9d b3 3c 33 3e 75 bc 47 d4 5d 3d
       -0.044543415 0.021925641 -0.014968443 0.05415752
000170 e9 29 bc bb 9c 0a 7a bd a8 f7 47 bb f0 38 09 ba
       -0.005742301 -0.061045274 -0.0030512605 -0.00052346196
000180 4a e4 76 bd 25 8c cd 3c c8 e6 70 3d 78 89 02 3d
       -0.060276307 0.02509124 0.05881384 0.03186938
000190 88 5b 98 bc df 22 db bc 35 60 e8 3c a4 60 c0 bb
       -0.018598333 -0.026750026 0.028366188 -0.0058708955
0001a0 09 05 01 bd 09 24 06 3d d8 3e 3d bd 51 b2 9d bc
       -0.031498943 0.03274921 -0.04620251 -0.019250067
0001b0 f7 40 37 bc c9 e4 66 bd ef 9a b5 3c e8 38 fd bc
       -0.011184922 -0.05637053 0.022168605 -0.030910924
0001c0 ba aa c4 3b b0 d3 27 bd 42 c3 40 bc 33 ec 9e bd
       0.0060017975 -0.040973365 -0.011765303 -0.07759895
0001d0 fb 11 bc bc 17 c0 a4 bc 38 8b c4 bc 2e eb 3b bd
       -0.022957793 -0.020111127 -0.023992166 -0.04587858
0001e0 62 08 ad 3c 14 33 7b bc 20 90 46 3c 97 ef 03 3d
       0.021122161 -0.015332002 0.012119323 0.032210913
0001f0 87 3a 6a 3c 7b ad d0 3c 36 17 3b b9 37 c7 ad 3a
       0.014296181 0.025473347 -0.00017842356 0.0013258223
000200 5f 01 29 3d 26 ee 6e 3c d7 94 94 bd e6 9d 5f bd
       0.041261073 0.014583146 -0.072549514 -0.054593943
000210 5b 77 e3 bc 21 f5 66 3d d6 c2 5f bd 6c c4 53 3d
       -0.027766874 0.056386117 -0.05462917 0.051700994
000220 d6 09 87 3c ee 2c 68 3b 04 fc 3d 3c bb 05 b9 bc
       0.016484182 0.003542717 0.01159573 -0.02258574
000230 af d7 fb 3b f4 00 e4 3c 97 77 99 bd 99 11 01 3a
       0.0076856236 0.027832486 -0.07493513 0.0004923582
000240 7d a1 6b bc 60 4e f0 bc 7d 9f 10 3d ee 4d 6a 3d
       -0.0143817635 -0.029334247 0.03530835 0.057203226
000250 ab 18 9b 3c 8d c5 a7 3a cb f1 9d bd 4f 77 6f 3d
       0.018932661 0.0012799964 -0.07712134 0.05846339
000260 f2 0c e1 bc d8 b5 8b 3d 56 aa a1 bb 50 d7 de bc
       -0.027471993 0.06821793 -0.0049336357 -0.027202278
000270 47 5f be bb 0c 25 ee 3c 2f 18 ce bc 69 00 48 3c
       -0.005809698 0.0290704 -0.025158016 0.012207129
000280 c2 0e 13 bd da 36 1e bd cc e2 84 3d 67 ed 34 bd
       -0.035902746 -0.03862653 0.064885706 -0.044171717
000290 cd f4 26 bb 5f fd 07 bc e2 ba 72 3c 4e 99 17 3b
       -0.0025475502 -0.0083001545 0.014815064 0.0023132148
0002a0 5c f2 86 bc a9 dd 6c bc b9 6e bd 3c ac 83 28 bc
       -0.016472988 -0.014457145 0.023124086 -0.010285299
0002b0 cd 7a 2d bc b8 41 21 3d b8 6d a9 3d 1c 94 74 bd
       -0.01058836 0.039369315 0.0827288 -0.05971156
0002c0 50 28 97 3d 97 5a 39 3d 2e dd 12 3d b2 a5 23 3d
       0.07380736 0.04525241 0.035855465 0.03995294
0002d0 2b 20 63 ba 18 91 f4 3c 6a 1f 80 3d 09 67 4f 3d
       -0.0008664156 0.029854342 0.06255992 0.05063537
0002e0 61 61 61 3c 8b 10 8d bc 00 92 9f 3d a3 47 15 3d
       0.013756127 -0.017219802 0.07791519 0.03644527
0002f0 8b 01 0c 3d 65 ed 59 3d 2b dc 83 bd fe 43 99 bd
       0.03418116 0.053204913 -0.06438478 -0.074836716

critic.4.weight f4 [1, 192]
000000 21 82 cc 3c 65 fe e5 bc 38 dc c4 bc c6 5f e7 bb
       0.024964394 -0.028075406 -0.02403079 -0.0070609776
000010 15 67 f7 3a ef ee 53 b8 d8 ab 60 3c 53 43 01 bd
       0.0018875325 -5.0528844e-05 0.013712846 -0.031558346
000020 4d c2 db 3c 95 dc 57 bc 85 77 81 bc ed c2 ab bc
       0.026826048 -0.013175149 -0.015804062 -0.020966971
000030 43 dd 91 bc f2 1b 88 3c b9 cb c5 39 66 48 14 bc
       -0.017805701 0.016614888 0.00037726553 -0.009050464
000040 47 bd a8 bc d3 87 ef 3c d2 d1 85 3c fc 3c f7 3c
       -0.020598067 0.02923957 0.016335402 0.030180447
000050 01 fb f7 3b 1d 86 d0 36 a0 63 85 bc a7 c2 12 bc
       0.007567764 6.214496e-06 -0.016282856 -0.008957542
000060 c2 e4 e8 3b 1b 6d ac bc f4 93 03 bc e4 42 06 bd
       0.007107348 -0.02104812 -0.00803088 -0.032778636
000070 c0 98 b1 3c 81 cd f0 3c 76 88 74 bc 4a 6e 56 bc
       0.021679282 0.029394867 -0.014925113 -0.013087818
000080 4b 85 b1 bc bf 64 cb bc 55 66 a9 3c dd 95 c7 3d
       -0.021670004 -0.024828313 0.020678679 0.09745381
000090 36 02 91 3c 80 97 84 bc 49 29 a1 3c ce d5 0b bd
       0.01770125 -0.016185522 0.019673007 -0.034139447
0000a0 9f 7d d1 bc c4 fc 21 3d 99 94 81 bc ec 17 09 bd
       -0.025572596 0.039547697 -0.015817927 -0.03347008
0000b0 a6 a0 dc 3c 48 7d b9 bc 1c ff 20 3c 89 10 c1 3c
       0.026932072 -0.022642747 0.009826448 0.023567455
0000c0 d3 c1 49 bc b4 45 30 bc 2c fb c2 bb aa c8 15 bd
       -0.012314278 -0.010758806 -0.005950352 -0.03656832
0000d0 dc f1 88 3b f9 23 01 bd 3e de b7 bc 3f ef ba bc
       0.0041792225 -0.031528447 -0.02244484 -0.02281916
0000e0 9d 25 3e bc 2f 50 9a 3c e6 ee 36 bc 30 1b 17 3c
       -0.011605647 0.018837063 -0.011165356 0.009222791
0000f0 79 2b 47 bc f2 e6 8d bc 78 79 67 bc d7 42 f5 3b
       -0.012156361 -0.017322037 -0.0141280815 0.0074847746
000100 49 ba 4b 3c b0 c7 8b bc 5b 9f f4 bc bb 8c b1 bc
       0.012434551 -0.017062992 -0.029861143 -0.02167355
000110 89 4b 87 bc ae 65 cf 3c 5a 1a 8b 3c 64 06 6a bc
       -0.01651551 0.02531704 0.016980339 -0.01428375
000120 c7 65 7e 3c 3d d4 62 3c 57 cc 1e 3c 45 20 b4 bc
       0.015527195 0.013844547 0.009692273 -0.021988044
000130 a1 89 ca 3c ed 7f b9 bc d5 05 76 3c 38 d8 03 bc
       0.02472383 -0.022644008 0.015016039 -0.008047156
000140 32 8c 02 3d 8b 90 58 3c fb a9 24 bc 5b 5a 2b bc
       0.031871982 0.0132180555 -0.010050292 -0.010458554
000150 57 51 e0 3b a1 92 95 bc 68 69 06 3d a9 17 03 bd
       0.006845634 -0.018258395 0.032815367 -0.032004986
000160 c9 b9 36 3c b3 65 bc bc 9b 28 12 3c 42 0d 59 bc
       0.011152693 -0.022997713 0.008920814 -0.01324779
000170 78 9c 94 3c 7f 9a 87 bc c6 a4 2a bc 78 c4 43 bd
       0.018141016 -0.016553162 -0.010415262 -0.04779479
000180 d4 ad 4f 3c b1 c5 17 3d 3e 8b 1e bc c0 0d c0 bc
       0.012675721 0.037053768 -0.009676753 -0.023444057
000190 01 11 a8 bc ea 74 fe bc b0 a0 2c bc 09 77 39 bc
       -0.02051592 -0.031061608 -0.010536358 -0.011319884
0001a0 ff a0 89 bc 7e 36 f9 bb 3c 78 6c bc ea 83 a5 3c
       -0.016800402 -0.007605373 -0.014432963 0.020204503
0001b0 a9 09 52 bd fa 4e 95 3c 11 f8 90 bc 7d d9 0d bd
       -0.051278744 0.018226136 -0.017696412 -0.03463124
0001c0 52 43 46 3c fb 4f 5e bc 93 a7 46 3c de b1 3b bc
       0.012101011 -0.0135688735 0.012124914 -0.011455981
0001d0 08 42 98 bc 84 50 7f 3c e1 d4 69 bc c6 d3 bd bc
       -0.018586174 0.015583161 -0.014271946 -0.02317227
0001e0 2b 67 ba bc a6 e9 c3 bc 4d 9e 70 3d 04 41 c8 3c
       -0.022754272 -0.023915123 0.058744717 0.024445064
0001f0 95 95 ef bc 2f 20 c3 3c da 0f 81 3c af 9e 48 bd
       -0.029246131 0.023819057 0.015754629 -0.048979457
000200 dc bd a8 3b 43 f5 b0 bc 75 53 b5 3c 33 81 9f bc
       0.005149586 -0.021601325 0.022134522 -0.019470787
000210 bb 14 c2 3c dc a7 e0 3c c5 d4 94 bc bf 08 59 bc
       0.023691526 0.027423792 -0.018167863 -0.013246714
000220 72 ea 5d bc 5f a7 07 bd c6 dd f0 bb 09 f9 81 3c
       -0.013544666 -0.033118602 -0.007350656 0.01586582
000230 08 ac 2b 3c 65 27 c5 bc 71 6f df bc 4e 4a 68 3c
       0.010478027 -0.024066636 -0.02727482 0.014177872
000240 56 72 0e bd b2 4b 95 bc 86 df a8 3c c5 4d b1 bc
       -0.034777008 -0.01822457 0.020614397 -0.021643529
000250 02 0e 0b 3d d0 28 8f bc 84 eb 87 3c 65 bf 23 bd
       0.033948906 -0.017475516 0.016591795 -0.03997745
000260 8e e1 b7 bc 5b 56 70 3c 8f 32 26 bc 61 85 2c 3c
       -0.02244642 0.014669026 -0.01014389 0.010529847
000270 e7 ab d5 bc 0b ac da bc a2 36 c7 3c 62 3f 56 3c
       -0.026082946 -0.026693365 0.024318043 0.013076635
000280 7e 3a 49 3c 87 e4 09 bd d5 12 ec bc bb fb a8 3c
       0.012282012 -0.033665206 -0.028817574 0.020627847
000290 1c 34 88 bc d4 f8 12 3c cb fa eb 3c ca 51 47 3c
       -0.01662641 0.008970458 0.02880611 0.012165496
0002a0 7c e6 85 bb 9c 97 3f bc 6a ec 7a bc 20 82 0a bc
       -0.004086314 -0.011693861 -0.015315155 -0.008453876
0002b0 62 38 4f bd e4 cd a6 3c 61 15 d4 bc a2 e7 54 bc
       -0.05059088 0.020361848 -0.0258891 -0.012994679
0002c0 30 5d 83 3c c4 2c 97 3c 6b bd 4c bc 81 cf 88 bc
       0.016035646 0.018453963 -0.012496333 -0.016700508
0002d0 0e 9c df bc 1a 9e 8e 3c 40 69 61 3d be 80 a1 bc
       -0.027296092 0.017409373 0.055032015 -0.01971471
0002e0 44 69 92 3c e2 e8 ff bb 51 c9 5a bc d2 6a 80 bb
       0.01787246 -0.007809744 -0.013353662 -0.003918984
0002f0 1b da 34 3d 35 0d 12 bc d6 a0 b8 bc e7 ee 20 3d
       0.044153314 -0.008914282 -0.02253763 0.039290335

mean.0.weight f4 [192, 24]
000000 65 66 4d 3e 97 43 cb be cf 01 0f 3e fa df 02 bf
       0.20058592 -0.39700004 0.13965534 -0.5112301
000010 83 67 8e 3e 08 fc 4f bd 72 04 97 be 43 a6 af bd
       0.27813348 -0.050777465 -0.2949558 -0.08576634
000020 c6 c5 b1 bd e4 62 85 3c 9a 1c 57 3e 89 94 aa 3d
       -0.086803004 0.016282506 0.21007004 0.08329112
000030 8e 8b 5d be a8 6d 4c 3e d2 8c 48 be f5 74 d5 be
       -0.21635267 0.19963706 -0.19584969 -0.41690794
000040 4e b0 89 be 5c bd a5 be 0b d8 9e be 8a 17 94 bc
       -0.26892322 -0.32371032 -0.31024203 -0.01807763
000050 1d 9c 77 3d 8e 80 df bc 11 73 2c 3d 68 69 a2 bd
       0.060451616 -0.02728298 0.042101923 -0.07930261
000060 84 cd 2a 3f f2 84 ed bd 67 63 ab bd 33 5a 2b bf
       0.6671984 -0.11597623 -0.08368569 -0.6693451
000070 3a 4a 40 be 4f 1e c7 bd 09 77 e2 bc 61 e6 19 be
       -0.18778315 -0.09722578 -0.027644651 -0.15029289
000080 42 eb 2a 3e 29 05 c2 be 45 ce 0d be 18 e3 73 3e
       0.16691306 -0.37894562 -0.13848217 0.23817098
000090 e6 43 36 3e b9 85 22 3e 61 97 90 be be 20 cb 3c
       0.17799339 0.15871324 -0.28240493 0.024795886
0000a0 dc 50 0b be f4 6a 31 bd e4 ac 0e 3e 0c 6d e7 bd
       -0.13605064 -0.04331489 0.1393314 -0.11300096
0000b0 d4 c3 43 bd 2e 4d 4b 3e 39 f4 d2 3d 7f 3f 2a be
       -0.047794178 0.1985366 0.10300488 -0.16625784
0000c0 1b 56 5f 3e a1 e5 49 3f d7 89 d6 be 79 dd 84 be
       0.2181019 0.7886601 -0.41902038 -0.2595022
0000d0 8e 99 8a bd 2f c3 28 3e 0a ee 13 3e 9d c2 d1 bd
       -0.067675695 0.16480707 0.14446273 -0.10242198
0000e0 28 de 71 be 2f 62 89 3d 92 d2 ac be 52 fd 81 be
       -0.23619902 0.0670818 -0.33754402 -0.2538858
0000f0 9c 66 66 be ad 23 ee bc 82 c2 23 bc 5e e3 8d bd
       -0.2250008 -0.029069746 -0.009995105 -0.069281325
000100 25 91 01 be a2 9c c9 bd 19 5d e4 3c 48 52 d2 bd
       -0.12653024 -0.098443285 0.027876424 -0.102696
000110 90 96 c9 bb cb 8b 1a be 3b 3c ec bd fe be 59 3d
       -0.0061519817 -0.1509239 -0.115349256 0.05316066
000120 41 8d e8 be 04 c0 a3 be 73 a6 82 3e d8 9b ba bd
       -0.45420268 -0.31982434 0.25517616 -0.09111756
000130 0a e0 0d be 01 5f 66 3d ec a5 1f be d9 9c c3 bc
       -0.13854995 0.056242947 -0.15590638 -0.023878502
000140 1c e5 ad 3d 02 c4 cf 3c 2e a1 50 3e a7 9d b7 3e
       0.08490965 0.025362018 0.20373985 0.35862467
000150 51 18 e3 bd 13 2b 12 ba 38 24 a2 be 31 9f 45 be
       -0.11088622 -0.00055758766 -0.31668258 -0.19299008
000160 cc e4 ca bc 06 e2 62 3d 3f d5 c8 3d 38 ff f9 3d
       -0.024767302 0.055391334 0.098062985 0.12206882
000170 15 1c ad bc 6e 5a dd bd 67 76 c2 bd 1c de 31 be
       -0.021131555 -0.10808264 -0.0949524 -0.17369884
000180 3e be 7c 3e ae 36 44 be df 3b 90 3e 7f 04 23 3f
       0.24681947 -0.19161484 0.28170678 0.63678735
000190 86 93 23 3e d2 f6 4e bd f0 d3 7f 3d 08 b5 42 3e
       0.15974244 -0.050528355 0.06245798 0.1901437
0001a0 a3 25 95 be 12 5c 99 be 09 93 f4 3e de b2 33 3e
       -0.29130277 -0.29953057 0.4776843 0.17548701
0001b0 cf 16 9e 3e 8e ba aa 3d f8 9d 40 bc 81 c1 cc bb
       0.30876777 0.08336364 -0.011756413 -0.0062486534
0001c0 f5 2d a9 bd 50 ed 83 bd a3 69 43 be d9 87 8a bd
       -0.08260719 -0.06441748 -0.19083266 -0.06764192
0001d0 cc cc c8 3d 3d be e5 3d 4e 69 00 be 5e 4a 5b be
       0.09804687 0.11217926 -0.1254017 -0.21415088
0001e0 15 29 0d be 32 49 28 be fa fb d4 3e da 96 b5 be
       -0.13785203 -0.16434172 0.41598493 -0.35466653
0001f0 4b 8e b4 3c 03 9e 07 be 3e d5 ba 3e d8 1c 57 3b
       0.022040507 -0.1324387 0.36490816 0.0032823589
000200 54 c4 3c 3d 14 e7 cf 3d ed 6a a1 3e 65 e7 f7 be
       0.04608567 0.101514965 0.3152689 -0.48418728
000210 d7 6b 6d 3e dd da 38 3e e9 e7 45 bd 92 0c 3f be
       0.23185669 0.1805224 -0.04831687 -0.18657139
000220 96 40 5d 3d aa 56 14 3e 70 2c 03 3e 7a 06 54 3e
       0.054016672 0.14486185 0.1280992 0.20705596
000230 62 e5 da bd 97 72 19 3e 5f fa f3 bd 8c cc cd 3d
       -0.106882825 0.14985119 -0.11912989 0.1004878
000240 ca 10 93 3d b8 51 51 bf 48 ca 82 be 41 22 8c 3e
       0.07180937 -0.8176532 -0.25544953 0.27369884
000250 85 64 9a 3d b4 a9 3e be 5e dc c8 bd fc 87 6d 3c
       0.07538704 -0.18619424 -0.09807657 0.014497753
000260 bf d1 32 3e ba 9e 06 be aa a1 2f bd 89 dd f6 3e
       0.17462824 -0.13146487 -0.042878784 0.48215893
000270 28 77 58 3c a6 3a c2 bc a1 57 9f 3d 2e b7 43 3e
       0.013212003 -0.023709606 0.07780386 0.19112846
000280 dd 37 1f 3e 8b 5b ec bd 20 d8 0b 3e a6 5a c5 bd
       0.15548654 -0.11540898 0.13656664 -0.096364304
000290 bb 3f 37 3e a6 13 87 bd 55 e8 fd 3d d3 13 88 3e
       0.17895405 -0.065955445 0.123978294 0.26577625
0002a0 d8 e6 0e 3f ea 9a 1b 3f 79 5f e7 bd 2b 04 6b be
       0.5582099 0.60783255 -0.11297507 -0.22950809
0002b0 ec dd c7 bd 3c da 5f 3b 54 bd 1e be 16 aa cf 3d
       -0.09759125 0.0034157177 -0.1550191 0.10139863
0002c0 f0 34 cf be 67 09 44 be e7 23 c4 be c7 f7 be bd
       -0.40470076 -0.19144212 -0.3830864 -0.093246035
0002d0 43 5c 08 bf 7a 26 b3 3d 47 ab 0b 3e f0 4c 44 bd
       -0.5326578 0.08747573 0.13639556 -0.047924936
0002e0 a2 c3 dc bd 88 8d b4 bd de 7f 5e bd cb c3 98 3d
       -0.107795015 -0.088160574 -0.054321162 0.074592195
0002f0 c9 f1 d4 bd ac 0e cc 3b ba 27 1e 3e f2 7c 39 be
       -0.10397679 0.006227335 0.15444842 -0.18114069
000300 9f 90 b6 3e 54 16 da 3e 66 7d 82 be 22 66 4d be
       0.35657212 0.4259516 -0.25486296 -0.20058492
000310 fc 51 8f bc b3 f3 2e be 28 18 ba 3d 60 93 57 3e
       -0.017495148 -0.17085151 0.09086639 0.21052313
000320 9d 18 92 3b 89 f3 ab bd 27 d1 01 3e 78 95 a8 be
       0.0044585005 -0.0839606 0.12677442 -0.32926536
000330 d0 c9 56 3d 37 b2 7a bd e6 9a 44 3d 85 b7 c4 bd
       0.052438557 -0.061205115 0.047999285 -0.09605316
000340 61 bf d6 3d 0c 21 03 3e 41 8c 44 bd 4a dd 00 3d
       0.104857214 0.12805575 -0.04798532 0.031461038
000350 65 0a 62 bc 54 7a da bd 42 83 99 3c 76 55 d1 3d
       -0.013796424 -0.106678635 0.018739346 0.102213785
000360 43 b0 0c 3d 00 db 97 be 78 38 b1 3e 50 3a 76 3e
       0.034347784 -0.2965927 0.34613395 0.24045682
000370 5d dc 10 3e 9e 4d bf 3e e6 65 88 3e a3 53 21 3e
       0.14146562 0.37363905 0.26640242 0.15754561
000380 0a 15 46 3e b3 20 c5 3d 45 ae d0 bd f2 9e a1 be
       0.19343963 0.096253775 -0.10189489 -0.31566578
000390 68 df 68 bc 4b d0 c2 3d 0e b9 60 3c b1 01 18 3e
       -0.01421342 0.09512385 0.0137159955 0.14844395
0003a0 fc 46 e6 3d 9f 2b cb 3c 37 34 86 3d f5 63 17 be
       0.11244008 0.024801074 0.06552928 -0.14784224
0003b0 38 ba 74 3d 7c eb 90 3d 70 e8 e2 bc 5d 26 27 bd
       0.059747905 0.07076165 -0.027698725 -0.04080807
0003c0 af fd ce bd 2d 1f 80 be 7d 8f 1f 3e f2 7e 1a be
       -0.1010698 -0.25023785 0.1558208 -0.15087488
0003d0 d8 27 56 3e 37 b4 64 be 6d 55 42 3e c1 98 7f be
       0.20913637 -0.22334372 0.189779 -0.24960615
0003e0 5e ee 3d 3e ac ec 91 be cd 1a a8 bd 41 0c dc 3d
       0.18547961 -0.2850088 -0.08208237 0.10744525
0003f0 0b 1f 4d 3e f4 13 c1 bd 41 97 86 3e 5d 47 37 3e
       0.20031373 -0.09427634 0.26287273 0.17898317

mean.0.bias f4 [192]
000000 cd 68 9f 3d ed fb 12 be 3f 32 c3 bd 9a 3e 9f bd
       0.07783661 -0.14353915 -0.09531068 -0.07775612
000010 3f 8b 3f bd a6 35 e4 3c 6f 82 56 3e 64 36 b6 3d
       -0.046763655 0.027857613 0.20948194 0.08897093
000020 ad c6 e1 3d 62 29 55 be 61 c6 83 bd 77 17 d6 bd
       0.110242225 -0.20816568 -0.06434322 -0.10453694
000030 1d 7f fb 3d f7 f6 0e 3e b2 26 3a bd 3b 5e 69 bd
       0.12280104 0.13961397 -0.04544706 -0.05697463
000040 34 23 8a bc 5e 3a 12 be fb 01 18 3c 33 10 b6 3d
       -0.01686249 -0.14280078 0.009277816 0.088898085
000050 32 0c 0f be e0 75 10 3e be 28 25 be 9c 57 14 3d
       -0.13969496 0.14107466 -0.16128823 0.036216363
000060 be aa 30 3c a1 cc d1 bd a4 e0 9a 3d 95 5a 0c 3e
       0.010782896 -0.10244108 0.07562378 0.1370643
000070 ae 9e c7 bc 7c dc 62 be 93 9e 7c ba 04 69 2a 3e
       -0.024367657 -0.2215442 -0.00096366665 0.16641623
000080 02 46 2c 3e 45 87 0a bd da bc 65 3c 65 47 19 ba
       0.16823581 -0.03382041 0.0140220765 -0.00058471254
000090 68 e9 fc bc 3f 0c 0a bd 69 17 46 be 8a 2f a6 bb
       -0.030873016 -0.033703085 -0.19344868 -0.005071585
0000a0 87 77 8d be 24 26 f6 3c c2 23 1d be 92 45 e8 3d
       -0.27630255 0.030047484 -0.15345672 0.113413945
0000b0 51 5d 82 be b6 86 29 be 15 30 72 bd c0 44 4b 3e
       -0.2546182 -0.16555294 -0.059127886 0.19850445
0000c0 9e 64 90 3c b3 13 81 3d 7d 46 57 bd 3a c9 8c be
       0.017626103 0.063025855 -0.052557457 -0.27497274
0000d0 1d 7b a8 3d 2c 3a f8 bd 18 db 98 bd 43 96 bc bd
       0.08226607 -0.121204704 -0.07463664 -0.09208348
0000e0 ef 93 1b be 35 9f 57 be ca e7 2f bc e5 8a e9 bd
       -0.15193151 -0.21056826 -0.010736415 -0.11403445
0000f0 6c ff 9c 3e 0f 7c 99 be 83 02 83 bd b7 51 35 be
       0.3066362 -0.29977462 -0.063969634 -0.17706953
000100 ca da f2 3d 86 d3 ed 3c 8e 83 7a be 2b f7 03 be
       0.11858137 0.029031526 -0.24464247 -0.12887256
000110 25 7d d0 3d 16 42 b3 bd a4 c6 2c 3e a3 1e 66 bd
       0.101801194 -0.08752839 0.1687265 -0.05618156
000120 ae 72 5c be 5b 5a 27 be 52 d9 6c bd 96 f1 46 bc
       -0.21528122 -0.16343062 -0.05782444 -0.0121425595
000130 4c 3c fc bc b9 fe 35 3e 5e f8 9f 3d c1 3d c7 bc
       -0.03079047 0.1777295 0.07811044 -0.024321439
000140 17 a6 96 3d a4 dd 82 bd 00 cd 8d bd 29 d3 1a be
       0.07355898 -0.06389931 -0.06923866 -0.15119614
000150 37 59 01 be 79 68 96 3e 26 3f c4 bd be 9e 16 3d
       -0.12631689 0.2937658 -0.09582357 0.036772482
000160 ba f2 00 be 45 dc 8d bd 9b 39 fb bd 24 8e 8c bd
       -0.12592593 -0.06926779 -0.12266847 -0.06863049
000170 17 02 0a be 70 13 82 be 10 ee 2e be 5a 77 84 be
       -0.1347736 -0.25405455 -0.17083001 -0.25872308
000180 84 15 9d 3c 9f 4f 11 be 16 31 d2 bd 7c 89 16 3e
       0.019175299 -0.1419053 -0.10263269 0.14700884
000190 f9 8b 17 be 6b 09 83 bd 2c b6 de bd 1c c9 10 3e
       -0.14799489 -0.06398281 -0.1087459 0.14139217
0001a0 6b f0 bd bd 45 39 84 be 53 a4 4b 3e 88 af 8a 3d
       -0.09274372 -0.25824943 0.19886903 0.06771761
0001b0 96 8b 49 bd 64 49 26 be 9e 80 87 bc 8f e7 4e 3e
       -0.049205385 -0.16238934 -0.016540822 0.2020552
0001c0 fe f2 e7 bc c9 aa d0 bc f1 5e 01 3e e4 8c fa 3d
       -0.02831411 -0.025472062 0.12633874 0.12233904
0001d0 ab c7 2a be 3e 6d 68 3e dc 19 d3 bd b6 7b d2 bd
       -0.1667773 0.22697923 -0.10307667 -0.10277502
0001e0 37 b9 d8 3c d9 f3 c2 3c 9d 20 68 be 01 b6 dd bd
       0.026455505 0.023797916 -0.22668691 -0.1082573
0001f0 d6 2f 0f 3e 63 f9 87 3d 22 d8 28 3e 3d 51 87 bb
       0.13983092 0.066393636 0.16488698 -0.0041295574
000200 ca e3 1e be ad 38 ed bd 32 db 57 bd 44 68 a3 bd
       -0.15516582 -0.11583076 -0.052699275 -0.079788715
000210 ac 49 48 3d 62 f9 a4 bd 13 71 f8 3d 1f 5c d8 bd
       0.048898384 -0.080553785 0.12130942 -0.10564446
000220 b8 99 86 bd 85 38 c0 bd 1e 13 da bd af 84 d3 bd
       -0.06572288 -0.0938578 -0.106481776 -0.10328042
000230 e4 64 31 bd 40 f0 ed bc 61 a3 4a be 6c ca 37 be
       -0.043309107 -0.029045224 -0.19788887 -0.17948312
000240 3e c6 3c be aa 2e b7 3d 64 a1 52 be be 0e f8 bb
       -0.18434998 0.08944447 -0.20569378 -0.007570117
000250 18 1c 4c bd d7 08 13 be f1 d8 2f 3e 93 84 b0 3d
       -0.04983148 -0.14358841 0.171726 0.086190365
000260 64 87 fa bd c3 6c e7 bd 62 76 29 bd ff 91 16 3e
       -0.12232855 -0.113000415 -0.041372664 0.1470413
000270 7a 3c 7e 3d 26 0a 20 be 90 66 62 bd aa a0 0f be
       0.062069394 -0.15628871 -0.055273592 -0.14026132
000280 ca 2d e0 3d e3 55 10 3e 18 8c 18 bd 5a 7a bf 3d
       0.109462336 0.14095263 -0.03724298 0.093495086
000290 ac 87 f6 bd d5 0e 70 3d 04 7b 9a 3d 8c 2d 02 be
       -0.12037596 0.058607895 0.075429946 -0.12712687
0002a0 52 4d d1 bd 77 f4 e2 3d 97 69 98 3d 5a d9 50 be
       -0.10219826 0.11081784 0.07442015 -0.20395413
0002b0 89 df f1 bd c0 3d 0b 3e 31 db 03 be e5 79 b3 bd
       -0.11810214 0.13597775 -0.12876584 -0.08763484
0002c0 72 ee 6d be 75 4a 20 3e 9d 89 d0 3d e8 dd d7 3d
       -0.23235491 0.15653403 0.10182498 0.10540372
0002d0 91 0e 4c 3e 46 a6 15 be ec 80 89 3d f8 89 ed 3d
       0.19927432 -0.1461421 0.06714043 0.11598581
0002e0 c6 37 25 be 10 9a 40 be 40 48 11 bd a5 3f 80 3c
       -0.16134557 -0.1880877 -0.035469294 0.015655348
0002f0 3f e0 28 be 59 96 3c 3d 6b 49 b2 bd 1d bf c7 bd
       -0.16491793 0.04604182 -0.087054096 -0.09753249

mean.2.weight f4 [192, 192]
000000 f4 fa 99 bd 88 83 f1 bd de d1 45 be af 63 4b be
       -0.07518569 -0.11792666 -0.19318339 -0.19862245
000010 59 8f 63 3d d2 6b 53 bd 9d 2c f7 bd fb d0 0b be
       0.05555663 -0.051616497 -0.12069056 -0.13653938
000020 d0 e0 64 bd 14 59 24 3e 37 db be 3d d5 fa e5 bd
       -0.05587846 0.16049606 0.09319156 -0.11229483
000030 a5 ae 4d 3c 9d 3b 09 3d dd f9 a3 bd 04 3f 51 3d
       0.0125538455 0.033504117 -0.08006642 0.051085487
000040 09 8d 06 be 04 8b 34 3e ae 6a 9d bd cb b8 57 3e
       -0.13139738 0.17631155 -0.07686363 0.21066587
000050 54 c5 0e 3d 13 4d 4e 3d 90 22 98 3d ca d6 4d be
       0.034856156 0.050366472 0.07428467 -0.20101467
000060 8a 00 b1 3c dc 82 8d be 41 74 e9 bd 2a 3d 30 bd
       0.021606702 -0.276389 -0.11399127 -0.04302708
000070 9f 62 14 3d 3b 5f 1a 3e 92 4b 81 3d 1c c0 1f 3d
       0.036226865 0.1507539 0.06313242 0.03900157
000080 e6 c9 21 be 3b d1 28 3e aa 52 51 bc 54 b0 32 be
       -0.15799674 0.16486065 -0.012776056 -0.17450076
000090 c6 8e d4 3c 18 fd d2 bd 1a 03 fb 3d b9 09 3c bd
       0.025946986 -0.1030218 0.12256451 -0.04590771
0000a0 4e dc 8e 3d e4 ae 2b bd ab 0e eb 3d 8f f7 6c 3e
       0.069756135 -0.041914836 0.11477407 0.23141311
0000b0 51 e0 6a bd 01 1c f9 bd ca b9 e7 3d d6 7f 8c 3b
       -0.05734283 -0.121635444 0.11314733 0.0042877
0000c0 60 93 81 be d2 31 42 bd 01 62 01 be 7e dc 4f 3d
       -0.2530775 -0.047410794 -0.12635042 0.050747387
0000d0 ab a9 17 3d 43 d6 f3 bb c7 9a 5e bd 8b fe 06 3e
       0.037027042 -0.0074413135 -0.054346826 0.13183038
0000e0 76 e4 9c bd 64 a2 03 3e a6 0f 81 bd 23 42 b9 3d
       -0.07660763 0.12854916 -0.06301813 0.09045818
0000f0 34 83 73 bc b0 e6 3e 3e 30 dd 12 be 2a c7 fd 3c
       -0.014862824 0.18642688 -0.14342189 0.030978758
000100 4b 94 e7 3c 9f 00 d0 3d 55 9a d6 3d ed 33 05 3e
       0.028268954 0.101563685 0.10478655 0.1300809
000110 fd 22 db bb c7 df 1c 3e 46 fd 78 be 47 b0 da bd
       -0.0066875205 0.1531974 -0.24315366 -0.106781535
000120 65 9c 39 3e 60 57 f6 3d e3 eb 43 3e 0f 1f f5 bd
       0.18126066 0.12028384 0.19132952 -0.119688146
000130 f3 e1 15 be 41 11 fa bc 34 93 11 be 4d f4 03 3e
       -0.14636974 -0.030525805 -0.1421631 0.12886162
000140 a4 ea d4 3d d7 52 e8 bd 01 c2 06 3e c1 26 38 3e
       0.10396317 -0.113439254 0.13159944 0.17983533
000150 98 ec eb bd 27 90 c6 3d ae 0e 19 bb f6 ff 58 bd
       -0.11519736 0.09695464 -0.0023354697 -0.05297848
000160 bb ae 80 3e 7d 67 0a 3d 54 14 2e be 9f 1c 02 be
       0.2513331 0.0337901 -0.16999942 -0.1270623
000170 f1 d8 13 be 43 b9 6c bd ad 9d 9f bd 58 cb d0 3d
       -0.14438225 -0.057793867 -0.07793746 0.10195035
000180 3e 5b 4e be 72 c4 0e be 10 df f5 bd 95 12 05 bd
       -0.20151994 -0.13942125 -0.120054364 -0.032488424
000190 48 ae b3 3d 74 c3 8a bd f1 b0 e8 3b fe bc 06 3d
       0.08773476 -0.06775561 0.007101171 0.03289508
0001a0 81 0c de 3c 09 18 1b 3e 20 85 0a bd 09 0d 05 3e
       0.027105572 0.15145887 -0.033818364 0.12993254
0001b0 8b 5a ad bd 7c a3 2d 3e 0d b9 52 bd fa 97 15 3d
       -0.08464535 0.16956896 -0.05144601 0.03652189
0001c0 30 5e b7 bd 8b 0e 26 3d 63 84 17 bc 72 9f fb bd
       -0.08953512 0.040541213 -0.009247872 -0.12286271
0001d0 96 0c ab 3d e8 71 6d bd cc 01 c6 bb e2 03 23 3e
       0.0835201 -0.057969958 -0.0060426947 0.1591945
0001e0 1a 83 33 bd 22 33 b9 3c d2 09 f3 bc 50 11 12 be
       -0.0438262 0.02260739 -0.029667769 -0.14264417
0001f0 8e 93 37 3e 7b bf e7 3d 7f 19 d7 bd da 2d 77 3c
       0.17927381 0.11315819 -0.1050291 0.015086615
000200 60 7c c3 bd 82 33 c0 bc ca 49 b0 bc 18 0f e3 bd
       -0.09545207 -0.02346206 -0.02151956 -0.11086863
000210 aa d9 9e 3d 71 8a 2b be f7 4e e8 bc 14 6a 55 3e
       0.0775636 -0.1675203 -0.028357966 0.20841247
000220 da e1 1c 3d c0 08 6f 3d 18 2f 2d 3c c4 52 47 3d
       0.038301326 0.058357954 0.01057031 0.048662916
000230 9f c0 26 3e e9 eb 5a 3e 90 4e 3a 3e 05 61 d6 3c
       0.16284417 0.21379055 0.18194032 0.02616931
000240 01 08 1a be d1 be b4 3d 38 2c ae 3d 14 31 bf bd
       -0.15042116 0.08825458 0.08504528 -0.09335533
000250 71 74 24 be 15 f4 9b bc 43 cb 6f bd 23 21 22 3e
       -0.16060044 -0.019037286 -0.058543455 0.15832953
000260 89 5e c8 3d dc 1c c1 bd 67 da 54 3d 99 55 8e bd
       0.09783656 -0.094293326 0.051966097 -0.0694992
000270 2c 39 24 3c 97 55 dc 3d bf 79 c2 3d ed d5 a8 ba
       0.010023396 0.107585125 0.094958775 -0.0012881138
000280 da a4 f2 bd 8a 07 61 be dd 82 8e bd b1 d2 11 3e
       -0.11847849 -0.21975532 -0.06958554 0.14240529
000290 50 61 eb bb 7c 46 bf bc cf f8 1b 3d 98 a8 03 be
       -0.0071832314 -0.02334904 0.03807908 -0.12857282
0002a0 65 b2 2d 3e 8c 2c 12 be bb ba 76 bc 1f cd 03 3d
       0.16962583 -0.14274806 -0.015059168 0.03217804
0002b0 48 c1 1c be aa a8 c0 bd 6b 7d 3b 3d d3 d4 00 3d
       -0.15308106 -0.0940717 0.045773905 0.031452965
0002c0 9f f5 99 bd a3 e8 c6 bd 2f 6d 98 3c 50 69 69 bd
       -0.07517552 -0.09712341 0.01860675 -0.0569852
0002d0 6f 7c 93 3c 9e b7 5f 3c 54 01 22 3e 01 05 7f be
       0.01800367 0.013654618 0.15820819 -0.24904253
0002e0 47 18 e5 3d 16 3f bf 3e 54 5e 87 3d c4 f8 61 3e
       0.11186271 0.37352818 0.066097885 0.22067553
0002f0 29 a8 96 3d 63 92 cd bd cc 26 74 be b7 58 68 be
       0.07356293 -0.10037687 -0.23842925 -0.22690092
000300 c9 ec 93 3e 12 a2 32 3d c9 d8 96 bb 6f 14 d4 bd
       0.2889159 0.043611594 -0.0046034795 -0.1035546
000310 02 e7 43 bd f6 05 37 3e c0 32 04 be d6 47 22 bc
       -0.047827728 0.17873368 -0.12909985 -0.009904822
000320 15 85 3b 3e 7b 94 d4 bd 0b 72 32 bd 73 b2 b4 3d
       0.18312486 -0.10379883 -0.04356579 0.08823099
000330 9a 97 51 3e 59 33 d8 be 18 d4 9b bc bd 47 bf 3e
       0.20467988 -0.42226675 -0.019022033 0.3735942
000340 cf fe c2 3e 85 8b ab 3e 8d f2 3b bd aa 2c ca ba
       0.3808503 0.33504882 -0.04588561 -0.0015424688
000350 e9 e7 aa bd 56 03 47 3e 79 24 34 3e b4 cd 09 bd
       -0.083450146 0.19434866 0.17592038 -0.03364344
000360 ce 92 5f 3b 19 27 6e 3e 57 e1 08 3e 81 5c 46 3e
       0.0034114602 0.23257102 0.1336721 0.19371225
000370 5a bb bc 3e 9b b4 49 3e dc ee ad bb e7 31 0c 3d
       0.36861688 0.19697802 -0.0053080153 0.034227278
000380 a5 be 9d 3d ca 6c d7 3d 35 2c 90 3e cc 61 35 bc
       0.07702378 0.10518797 0.28158727 -0.01107068
000390 36 f1 4a 3c d2 34 6d 3d e5 8d 4b be 6e c4 1c 3e
       0.012386611 0.0579117 -0.19878347 0.15309307
0003a0 47 2e 12 3d a1 e2 5c 3e 24 31 fe b9 cd c7 aa 3d
       0.035688665 0.21570827 -0.00048483268 0.0833889
0003b0 5a d0 a1 3e 3c 08 e1 3e 4b e1 5e 3d 7f 9b 54 3e
       0.31604272 0.43951595 0.054414075 0.20762442
0003c0 fa e5 06 3e 7d 8e 09 3e b4 97 3a 3d 04 28 56 3e
       0.13173667 0.13433261 0.04555483 0.20913702
0003d0 4c 28 91 3e b5 4a a6 3e 0a 9a ea 3d ac ec 5c 3e
       0.28351057 0.32478872 0.11455162 0.21574658
0003e0 f8 0e 22 be b3 b6 44 3e 41 07 f2 bc f0 d6 d6 bd
       -0.15826023 0.19210319 -0.029544475 -0.10490215
0003f0 2f 55 a0 bd 47 a0 a5 be df 18 d3 3d 2a 10 48 3e
       -0.078287475 -0.32348844 0.10307478 0.19537416
